RL_methods/REINFORCE_scrambles_1/policy_net.pth (torch, 309858 bytes, 18 tensors)

weight f4 [128, 54]
000000 03 1b 32 be bb 13 7d 3e 26 ec 43 be 73 be af be
       -0.17393117 0.24714558 -0.19133052 -0.3432499
000010 50 8d ab 3d 72 a7 46 3e 65 ca 98 bd 21 4e d6 bd
       0.083765626 0.19399813 -0.07460479 -0.10464121
000020 82 22 67 be aa 0c 2a 3b 26 73 a0 bd 7f 9f a3 be
       -0.22571757 0.002594749 -0.07834463 -0.31957623
000030 10 d9 aa be 49 72 bd bd 6b 44 97 bd c6 39 1c be
       -0.3336873 -0.09250314 -0.073860966 -0.15256414
000040 ad 5f 9b 3e 4a 7f 60 3d 88 fe 69 3e ae 3a a3 bd
       0.30346432 0.054808892 0.22851002 -0.07970177
000050 06 d6 ec 3d 90 b0 9e 3e 73 d7 55 3e e6 66 95 be
       0.11564259 0.30994081 0.20882969 -0.29180068
000060 1a 96 c3 3d af 6c 69 be 4a 0a 9e 3e 6a 88 16 3e
       0.09550114 -0.22795366 0.30867225 0.14700475
000070 c0 17 58 be d8 cb 74 3c 65 2b c7 bc 8c e9 99 3e
       -0.2110281 0.014941178 -0.024312684 0.30060995
000080 e1 ba 9c 3e dc 13 35 3d fb 8d 19 3e 70 5d 7c 3c
       0.30611327 0.044208393 0.14995568 0.015403137
000090 7e 8f dc bd 1c f1 45 3e a7 6d 52 be 0a 2a c0 bd
       -0.107695565 0.19330257 -0.20549642 -0.09383018
0000a0 83 b5 2f be 2b 8a 1c 3e 75 c3 6c bd 6c f6 45 3e
       -0.17159085 0.15287082 -0.05780359 0.19332284
0000b0 07 19 a7 be 65 b3 d5 3c ca 61 87 bd 62 c6 23 3d
       -0.32636282 0.026086519 -0.06610449 0.039984114
0000c0 c1 20 c4 bd f7 6c 17 3e 44 67 15 be c4 61 cd 3d
       -0.0957656 0.1478766 -0.14590174 0.10028413
0000d0 49 a1 81 3e 87 0d 0e bd 7f ee ae 3e 00 bf 72 3e
       0.25318363 -0.03468087 0.34166333 0.23705673
0000e0 40 45 8a 3e 46 50 3b 3e 84 c8 9a be d8 93 ff bd
       0.2700596 0.1829234 -0.30231106 -0.12479371
0000f0 1d a4 83 3d 38 98 a0 3e 5f 47 21 be 8d 65 67 bd
       0.064277865 0.31366134 -0.15749882 -0.05649333
000100 11 17 8d 3e db d9 31 be fc 01 ae 3d d1 7b c7 3d
       0.2755666 -0.17368262 0.08496472 0.09740413
000110 81 a7 55 be 3b 0e 23 3e 73 c7 25 3e 82 da 89 3e
       -0.20864679 0.15923397 0.16189365 0.2692452
000120 06 b1 5f be 5e be 60 3c 2e 26 37 be 3b b0 eb bc
       -0.21844873 0.013717262 -0.17885658 -0.028770557
000130 6c 97 a0 be 17 8a a8 be f5 8d d2 bd 4e f7 8a 3e
       -0.31365526 -0.32917854 -0.102809824 0.27141804
000140 d5 84 64 3e 99 4e 25 bd e4 12 93 be 54 be 07 3e
       0.22316296 -0.04035816 -0.2872535 0.13256198
000150 b7 e6 b3 3d 0e 3a e8 3c f3 73 13 3d 18 1b 85 bd
       0.0878424 0.028347995 0.03599925 -0.06499308
000160 be e0 48 3e b8 98 54 be aa c1 70 be 94 88 8c 3e
       0.19616982 -0.20761383 -0.23511377 0.2744795
000170 80 a7 86 be 28 1f 5d 3d 0e ad a7 3e 52 ae 95 be
       -0.26299667 0.05398479 0.32749218 -0.29234558
000180 79 44 9c 3e 9e 89 dd 3d b6 60 72 3e 97 09 76 bd
       0.3052099 0.10817264 0.23669705 -0.06006774
000190 67 2e 4c 3e 11 ff 94 be 56 ca 3e 3e de 39 ce 3d
       0.19939576 -0.2910085 0.18631873 0.10069631
0001a0 f4 cb 8b be e8 22 00 bd 7a 5b 41 3d a8 06 53 3d
       -0.2730404 -0.03128329 0.04720638 0.05152002
0001b0 ee 3a 89 be 10 5b 4e be ad 70 66 be d9 0b 62 3e
       -0.26802772 -0.20151925 -0.2250392 0.22074832
0001c0 0c eb c8 3d 13 41 60 3e 73 7a f6 bd 9d 9b 89 be
       0.09810457 0.21899824 -0.12035074 -0.26876536
0001d0 c9 5f 18 3e 50 27 30 3e 4c 05 34 be 9b 3e 81 be
       0.14880289 0.17202497 -0.17580146 -0.25243077
0001e0 ac 6c d4 3c 3f f0 71 3e 6b 3f 9c 3e 8d 2b 3e 3e
       0.025930725 0.23626803 0.30517134 0.18571301
0001f0 dc 33 81 3b 45 cf 99 bd 71 ee 38 3e 38 45 43 be
       0.0039429497 -0.07510237 0.18059708 -0.19069374
000200 4d bc f7 bd 68 9d 3c be 58 89 48 3d a7 be 83 bd
       -0.120964624 -0.1841942 0.048959106 -0.064328484
000210 0e 5e 5c be 2f 9d 83 3e 99 6d 62 3e 9d 68 28 be
       -0.21520254 0.2570586 0.2211212 -0.16446157
000220 77 26 6b 3c 91 80 ac 3e 97 e9 9a 3d 31 69 a8 bd
       0.014352432 0.33691838 0.07564085 -0.08223189
000230 2b f2 47 bc c6 ff 9e 3d e5 55 f9 bd 0c fa b8 bd
       -0.012203733 0.07763629 -0.12174586 -0.09032068
000240 f9 53 9c 3d 7f 09 5f be c3 34 a9 3e 19 ca 3a be
       0.07633204 -0.21780966 0.33048066 -0.18241157
000250 13 36 61 be 8f ad 8e be 20 43 95 3e b5 5d 6e 3e
       -0.21993284 -0.2786679 0.29152775 0.23277934
000260 15 7b 00 3e 71 c7 a4 be 99 ee 57 bc ad a1 26 bd
       0.12546952 -0.32183412 -0.013179445 -0.04068153
000270 b6 d9 73 be ef 14 95 be ad c7 31 3e eb 54 84 3e
       -0.23813519 -0.29117534 0.17361327 0.25846037
000280 e6 cf c3 bd 0f b3 7f be f8 71 10 be 17 52 94 3e
       -0.09561138 -0.24970649 -0.14105976 0.2896888
000290 6b 33 18 3e 17 25 cd 3c ca 83 a0 be 39 e2 38 3e
       0.14863364 0.0250421 -0.31350547 0.18055047
0002a0 73 5d 21 3e dd 74 e4 bd 4e 94 b3 3e 4b 1a 15 be
       0.15758304 -0.111551024 0.35074085 -0.14560811
0002b0 81 8a 0f be 02 a3 ab be a8 b8 63 3e 86 9b 6b 3d
       -0.14017679 -0.33522803 0.2223841 0.057521366
0002c0 76 05 7d be 33 ae c6 3d 1c 09 bc 3d 18 f3 bd bd
       -0.24709114 0.097011946 0.09181425 -0.09274882
0002d0 a2 4f f9 3d a5 55 8c be 15 c3 8c 3e 16 cc 89 be
       0.12173392 -0.27409092 0.27492586 -0.26913518
0002e0 67 b7 ef bd f6 46 b4 be 99 98 97 be e8 5c 20 be
       -0.11704903 -0.3521039 -0.2960861 -0.15660441
0002f0 ff 57 93 be 87 c4 da bd 3a f6 88 be 42 da 28 3e
       -0.28778073 -0.10682016 -0.26750356 0.16489509
000300 01 52 0a be 1d 2f af be f9 70 35 3e 64 28 84 3e
       -0.13507845 -0.34215632 0.17718877 0.25812066
000310 69 70 2f be c8 a3 87 3d 67 63 95 3e 14 27 2e bd
       -0.17132725 0.06623036 0.291774 -0.042517737
000320 ad 50 82 3e bd 06 f9 bb 7d 67 1a 3d e4 f4 8a 3e
       0.25452176 -0.00759968 0.03769635 0.27139962
000330 72 e3 6f 3e 4c 77 75 3e 45 77 94 3e 32 bc 37 be
       0.23426607 0.2397129 0.28997245 -0.17942885
000340 7f c6 79 be db e5 86 3e a3 58 66 3e bd c3 b7 bd
       -0.24392127 0.2634724 0.2249475 -0.08972881
000350 46 59 15 3d ac b9 8d 3e e2 28 8e bd 5b 95 77 be
       0.03646209 0.2768072 -0.069413915 -0.24178068
000360 f2 b7 b9 3d 67 e2 5d be eb f3 ac bc 5e 7c 86 3d
       0.09068288 -0.21668397 -0.021112403 0.0656669
000370 b7 91 a5 3e 08 ed 34 bd 8b 75 9c bb b0 42 ab be
       0.32337734 -0.044171363 -0.0047747544 -0.33449316
000380 f7 66 b5 bd d6 f3 a6 bd d2 5f a0 3e 3f 3f e0 3c
       -0.088575296 -0.08151977 0.31323105 0.027373908
000390 37 5d af be df 25 bd bd b7 31 a4 3e 6c 86 da 3d
       -0.34250805 -0.09235739 0.3206918 0.1067017
0003a0 65 9e 8f 3e cc 92 9b 3e c7 82 43 bd 96 fa 73 be
       0.28050533 0.30385435 -0.04773214 -0.2382606
0003b0 9a bb 92 3d 29 2d 60 3e 01 4b 1d be 94 89 44 bd
       0.071646884 0.21892227 -0.15360643 -0.047982767
0003c0 7e ce 98 bd 3b 8e 38 3e aa 40 97 3e 39 b8 63 be
       -0.0746126 0.18023007 0.29541522 -0.22238244
0003d0 7f 83 21 be 95 ef 3b be 50 70 65 be e5 56 49 bc
       -0.15772818 -0.18353112 -0.22406125 -0.012288784
0003e0 90 c5 44 be 9e 10 e1 bd ba 81 48 3a 83 97 d7 3d
       -0.19215989 -0.109894976 0.00076487253 0.105269454
0003f0 19 9a dd bd 91 4f 5f 3d 0f fe 1e 3e dc 65 f9 3c
       -0.108204074 0.05451924 0.15526603 0.030444078

bias f4 [128]
000000 16 26 59 3c 9f 9e 82 3c f4 28 63 3c 90 9a 37 bb
       0.013253709 0.015944777 0.013864744 -0.002801571
000010 9b 2e de 3a f0 6a a9 3c 78 06 39 3c 04 53 5e bb
       0.0016951145 0.020680875 0.011293046 -0.0033923993
000020 8f fc 69 3c 88 b6 07 3c 1e ad 3d 3c 20 d4 3a 3d
       0.014281406 0.008283265 0.011576919 0.045612454
000030 52 2f 19 3c 66 56 7d 3b ce 2c 57 3c eb 84 b8 3c
       0.009349661 0.0038656234 0.013133241 0.022524318
000040 ab cb 78 3b 63 91 02 3d ea d6 9b b9 7b 36 0b 3c
       0.0037963192 0.031876933 -0.00029724027 0.008496876
000050 fa fc c5 3c 9d 54 8d 3a a0 37 22 3b 7c 01 8b 3c
       0.02416848 0.0010782663 0.0024752393 0.016968481
000060 a2 f8 cc 3c 08 e1 b8 bb da 96 3b bc 43 49 46 bb
       0.025020901 -0.00564206 -0.01144954 -0.003025607
000070 4c 60 1c 3c 61 a4 c4 3a a8 07 d2 3c f6 56 27 3d
       0.009544443 0.0015002602 0.025638416 0.040854417
000080 69 d8 b8 3c 45 54 bb 3c 4f 11 39 bb 02 fe 69 3b
       0.02256413 0.022867331 -0.0028239076 0.003570438
000090 60 e5 08 bc 76 93 20 bb a1 2a 44 bc 26 13 93 38
       -0.0083554685 -0.0024501956 -0.011973054 7.013073e-05
0000a0 99 e4 50 3c 78 ae f1 3b d4 c4 b1 3b 36 b3 93 3c
       0.012749814 0.0073755346 0.005425075 0.01802979
0000b0 7d fe aa 3c 0b a1 75 3c f5 44 0f 3c 53 f9 09 3c
       0.020873303 0.014992009 0.008744468 0.00842126
0000c0 aa 2a b8 3c 16 c8 3d 3c 38 23 41 3b 59 bd 2d bc
       0.022481281 0.011583349 0.0029470455 -0.010604226
0000d0 0e f4 29 3c ae ed 14 3c 76 98 4a 3b 62 8a ab 3b
       0.010373129 0.00908987 0.0030913628 0.0052350024
0000e0 ff 48 b9 3b e2 8f 43 3b 19 1f 99 3c c0 3c 6c 3c
       0.0056544538 0.00298404 0.018691586 0.014418781
0000f0 bc a2 5e 3c 13 df 5f 3c ee 9f db 3c 37 d1 fa 3c
       0.013588604 0.013664025 0.026809659 0.03061734
000100 2a e1 7d 3c 58 e6 7e 3c 55 ac 1a 3c 23 cb 9c 3b
       0.015495578 0.015557848 0.009440501 0.004784958
000110 17 ba 01 3d 5e 66 10 bb de 4f ab 3b ae ee 60 3c
       0.03167161 -0.0022033672 0.005228027 0.013728781
000120 6c 24 2b 3d 91 e1 d0 3b 50 a7 f7 3c e4 c2 38 3d
       0.04178278 0.006374546 0.030231148 0.045107737
000130 d7 24 8b 3c 0a d7 23 3c fc a2 b8 ba ac 41 08 3a
       0.01698534 0.01 -0.0014086659 0.0005197774
000140 5b 77 f5 3b 6d dd 41 3c d8 d2 3e 3d bb 88 10 3c
       0.007491035 0.011832577 0.046587795 0.008821662
000150 72 a0 6f 3c 7b e3 da ba df 0a 69 3c 22 44 48 bc
       0.0146256555 -0.0016699875 0.014223783 -0.012223275
000160 0f f8 ee 3a 14 57 ce 3c 87 53 2d 3c 6a 06 c0 b8
       0.0018231886 0.025188006 0.0105789965 -9.156468e-05
000170 2b 4d 3b 3c dc cf 0e bc 78 a9 86 3a f1 52 63 bb
       0.0114319725 -0.00871655 0.0010273894 -0.0034686888
000180 1c 2d 58 3c 62 06 1a bb 0a 1b b5 bc ef 3e dd bb
       0.013194349 -0.002350234 -0.02210762 -0.006751887
000190 d1 b1 ef 3c c8 09 70 3c 59 2c ba 3c 30 ce cb bc
       0.029259594 0.0146507695 0.022726225 -0.024878591
0001a0 b5 07 85 3b 8e 8a b0 3b e3 8c af 3c 1d d2 9e 3a
       0.0040597566 0.0053876108 0.021429485 0.0012117062
0001b0 34 84 04 3c 26 bb 27 3c 0a d7 23 3c b8 0e f9 ba
       0.00808816 0.010237491 0.01 -0.0019001579
0001c0 a1 df 12 3d 75 4e b9 3c e4 07 f5 3c 92 d5 1e 3d
       0.0358578 0.022620419 0.02991099 0.038777895
0001d0 e0 69 09 3c 53 f7 73 3b eb 11 eb 3c 07 52 4b 3b
       0.008387059 0.0037226274 0.028695067 0.0031024234
0001e0 3a 69 1f 3c 03 f8 82 3c f8 c2 ae 3b 54 03 b0 3b
       0.009729678 0.015987402 0.0053333007 0.0053714905
0001f0 a9 44 3f 3c a9 8f d7 3c 12 21 99 3c 6b 57 de 3c
       0.011674085 0.02631362 0.018692527 0.027141294

weight f4 [128, 128]
000000 84 f9 7f 3b 21 2a 0f 3d ca 6c 16 3d 8b e4 e6 3c
       0.0039058635 0.034952287 0.036724843 0.02818515
000010 ec f7 c2 3a 28 db 41 be dc 3a 40 3c 66 33 33 3e
       0.0014874912 -0.18931258 0.011732783 0.17500076
000020 64 8e ad bd 74 77 3d be 08 bb fe bd de d5 d2 3d
       -0.084744245 -0.18502599 -0.12438017 0.10294698
000030 0c f2 a6 bd 5d f2 48 3e bb a7 d3 bd 36 ec 5b be
       -0.081516355 0.19623704 -0.103347264 -0.21476826
000040 2e dc 7c 3d ca 4a 3a be 44 7f db 3d 01 78 af bd
       0.061733417 -0.18192592 0.10717633 -0.08567811
000050 38 87 4d 3e e0 0d 95 3d 19 d5 58 3e 0a 45 2f 3e
       0.20071113 0.07278037 0.2117504 0.1711618
000060 24 03 61 3d 77 17 0a be 2f 84 0b be 22 67 0c 3e
       0.054934636 -0.13485514 -0.13624643 0.13711217
000070 25 f6 64 be f7 63 dd bd 00 2d e1 3d 38 27 90 bc
       -0.22359522 -0.108100824 0.10994911 -0.017596826
000080 48 4f a8 3d 00 f9 63 3e b5 d7 a9 bd af 23 dd 3c
       0.08218247 0.22262955 -0.08293096 0.026994554
000090 ec 07 cf bd 49 93 0a 3e 92 00 69 3e 5d 64 3d be
       -0.10108933 0.13532747 0.22754124 -0.18495317
0000a0 e1 76 27 3e 5a 50 be 3b 63 4c 13 3e 31 b0 58 3e
       0.16353942 0.0058079185 0.14384608 0.21160962
0000b0 a9 54 b7 3d 25 76 10 3e 1f 63 50 3d 81 14 35 be
       0.089516945 0.14107569 0.05087578 -0.17683603
0000c0 df f2 4c be 06 66 49 be 5e bb 38 bd d5 5c 1c 3e
       -0.20014523 -0.19667825 -0.045100562 0.15269788
0000d0 63 e1 85 3c 13 0b 35 be ec 60 65 bd 4a 5a 1c be
       0.016342824 -0.17680006 -0.056000635 -0.15268818
0000e0 4a 94 17 3d 50 5a 1d be ef a8 b1 bd a1 50 01 3e
       0.037006654 -0.15366483 -0.086748 0.12628414
0000f0 2b 70 5b 3e 28 43 5e 3e 31 e7 74 3c 6b c4 a1 3c
       0.21429507 0.21705306 0.014947698 0.01974698
000100 ff d5 60 3e 60 ae f5 bd 77 93 3d 3e 0c c0 87 3d
       0.21956633 -0.1199615 0.18513285 0.06628427
000110 78 55 c7 bd cd 32 1c 3e 23 a8 32 3e a5 f9 00 3e
       -0.09733099 0.15253754 0.17446952 0.12595232
000120 f3 5c e0 3d 73 4a b5 3d 3b 9b d7 3d f2 0b 0d bb
       0.10955229 0.08852091 0.10527655 -0.0021522013
000130 b5 9e 59 be 40 99 80 3c f9 1c d7 3d 79 f9 ac 3c
       -0.21251948 0.015698075 0.10503573 0.021115052
000140 ab 1a 92 3c 04 90 3d 3e 0a 20 52 3e 1a 54 9f 3d
       0.017834982 0.18511969 0.20520034 0.07779713
000150 2e 60 41 be 31 48 63 be 12 f0 08 bd ca 68 f2 3c
       -0.18884346 -0.22195508 -0.033432074 0.029590983
000160 42 70 72 bd e9 40 c3 3d 65 01 47 3e 45 7d d5 ba
       -0.05918909 0.09533865 0.19434126 -0.0016287944
000170 bb c1 2b be 7b 8a 6b bb 5d ed 28 bd 4c 5a 51 3e
       -0.16773121 -0.0035940695 -0.041241992 0.20444602
000180 da a5 07 be 5e fb 88 bd 2a 05 3d be 3c ac d8 bb
       -0.13246861 -0.066885695 -0.18459001 -0.006612329
000190 b2 89 d2 3c 76 0d 2f be d7 5e bf 3b b1 5d 1e 3b
       0.025700424 -0.17094979 0.005840163 0.002416473
0001a0 5d 6a 4c 3d e7 a5 78 3d 2f 65 1a 3e ae b8 31 3d
       0.049906123 0.06070509 0.15077661 0.043389015
0001b0 76 05 d8 3d 9d b9 20 3d 01 28 1f 3e 50 ec e8 bd
       0.105479166 0.039239515 0.15542604 -0.11373198
0001c0 ef bd 08 3e 40 05 39 3d 88 a6 0d 3e a7 e8 69 3e
       0.13353704 0.045171022 0.13833058 0.22842656
0001d0 84 61 ce bd 9d 92 c4 bd f5 46 4b bd 4e c1 66 3d
       -0.100771934 -0.09598277 -0.049628217 0.056336693
0001e0 fe c6 18 3e 74 ac 04 3d 55 c7 4c be b1 07 2d 3e
       0.1491966 0.032391027 -0.19997914 0.16897465
0001f0 59 18 05 be 09 ad 0d be 82 14 fd 3d 25 2f 45 bc
       -0.12997569 -0.13835539 0.12357427 -0.012035166
000200 c4 4b 20 3d b8 90 e6 3d 64 40 9c bc c6 60 48 be
       0.039134756 0.11258072 -0.019073673 -0.19568166
000210 01 7b fc 3d 3d 18 a7 bc 65 6a 19 bd d1 d7 27 bd
       0.12328149 -0.0203973 -0.03745498 -0.040977303
000220 3b b1 ec bd fd 51 40 be ca 03 0c be 9d e0 18 be
       -0.115572415 -0.18781276 -0.1367332 -0.14929433
000230 b6 da aa bd 6e bd 02 3d be 8b a7 3d 01 5d a6 bc
       -0.08342497 0.031918935 0.081809506 -0.02030802
000240 b7 00 3b 3e 8e 48 0b be 09 f5 72 bd ca 8c 61 be
       0.18261991 -0.13601896 -0.059315715 -0.22026363
000250 21 5b 3e be d7 a4 29 3d d5 35 48 be 4a a1 21 3e
       -0.1858945 0.04141697 -0.19551785 0.15784183
000260 c8 0e 2d bd 8c 9d 2a 3e e5 9a db bc 63 63 94 3d
       -0.042250425 0.16661662 -0.026807258 0.07245519
000270 ef 3b 1e bc 2b 82 a3 3d 93 df 4f be 81 89 04 3e
       -0.009657844 0.07983812 -0.2030013 0.12943079
000280 35 b4 ef 3d e9 49 39 3e 69 c3 7a 3c ce 19 19 be
       0.11704294 0.180946 0.0153053785 -0.1495125
000290 8b d2 19 3e ff e9 95 3d ff f7 26 3e 14 e1 6b be
       0.15021722 0.07320022 0.1630554 -0.23035079
0002a0 17 c9 88 3d cf 77 e8 3d 1c a0 04 be 55 62 2a 3d
       0.0667898 0.11350977 -0.12951702 0.041597683
0002b0 27 a5 ab bd 00 db 66 be c0 ad b1 3d 15 9e 54 be
       -0.0838111 -0.2254448 0.08675718 -0.20763429
0002c0 96 8c 36 be 93 dc 4d be 6e de 32 3e 40 ed 44 3e
       -0.17827067 -0.20103674 0.17467663 0.19231129
0002d0 2b 54 49 be 9c 31 3d be 2a 46 9e bc 98 58 ac bb
       -0.19661014 -0.18475956 -0.019320566 -0.0052595846
0002e0 4f 00 78 3c 61 19 76 3d 4d f1 a5 bd 1b c8 45 be
       0.015136792 0.060082797 -0.08102665 -0.19314615
0002f0 2e 83 f0 bd 00 38 51 bd 47 c3 49 3e 3a c3 37 3e
       -0.117437705 -0.051078796 0.19703399 0.17945567
000300 be e3 03 be 5d 0d 2b 3d 64 d3 ea bd f3 5f 9a 3d
       -0.12879845 0.04176079 -0.11466101 0.07537832
000310 b8 9f 43 3e a8 00 52 3e fb 2b e0 bc 42 c5 07 bd
       0.19103897 0.20508063 -0.027364722 -0.033147104
000320 43 60 1b 3e bc ee a1 bd a9 dd 2c 3e b1 5e c2 3d
       0.1517344 -0.07906863 0.16881432 0.09490717
000330 44 80 16 be 35 9d 4a 3e f1 c4 dd 3d c2 dc 40 3e
       -0.14697367 0.19786532 0.10828579 0.18834212
000340 de e0 56 3d e4 69 3b 3d b7 da f7 bd b8 a1 28 bd
       0.052460544 0.045755282 -0.121022634 -0.041169852
000350 a8 a1 b5 3d c3 7a d6 3c c5 b4 c9 3d 9b 9a 20 3e
       0.08868724 0.026181584 0.09848932 0.15683977
000360 02 8f 18 be 6e 87 5c be ed 03 dc 3d 26 7d c0 3d
       -0.14898303 -0.21536037 0.10742936 0.0939887
000370 f5 be 3f 3e 24 f4 2d 3e 4a e5 4a 3e 2e e1 99 bd
       0.18725188 0.16987664 0.1981403 -0.07513653
000380 b3 b7 72 be 54 dd 3c 3e 56 e8 4f 3d 44 5f 2d be
       -0.23702888 0.18443805 0.050758682 -0.16930872
000390 5e bb 07 3d 38 af 3d bc 4d d4 a3 bd 7e cf e1 3d
       0.03313767 -0.01157742 -0.079994775 0.11025904
0003a0 3c 41 1f 3e 41 75 21 be 2b 25 df 3c 8e b1 82 bd
       0.15552229 -0.15767385 0.027239403 -0.06381522
0003b0 9b 5d 3e 3e 98 17 6e 3d 5c 02 a6 bd 46 28 8e 3c
       0.18590395 0.05812797 -0.08105919 0.017353188
0003c0 04 a8 8f bd 54 87 48 be be 4f 5e be 3e 0d 56 3e
       -0.07014468 -0.19582874 -0.21710107 0.20903489
0003d0 99 ba cc 3d 71 9e 35 3e b4 43 33 be 7f 00 bf 3d
       0.09996528 0.17736222 -0.17506295 0.093262665
0003e0 18 8e 46 bd 03 0c 2a 3e 9d a1 28 3e 7d 98 a8 3c
       -0.048475355 0.16606145 0.164679 0.020580525
0003f0 06 9f 20 3c 78 3a 72 be c9 36 3a 3e 03 03 3b bc
       0.009803539 -0.23655117 0.18184961 -0.011414292

bias f4 [128]
000000 e7 95 df 3b 33 60 02 bb 9a 5f 84 3c e6 7d 92 3c
       0.0068232897 -0.0019893765 0.016158868 0.017882299
000010 1e 5f d0 3b 45 ed 30 bc c6 c7 6f 3c e3 47 b5 3b
       0.006358995 -0.010798757 0.014635032 0.005532251
000020 98 ad 27 bb 94 0a 5c 3c 41 d5 35 3d e3 c1 81 3c
       -0.0025585648 0.013430256 0.044392828 0.015839523
000030 8c 32 8a 3b 75 05 9b 3c 35 6d 42 3c dd 61 6b 3c
       0.0042174514 0.0189235 0.011866857 0.014366594
000040 af 45 17 3c 5a e1 c2 3c 14 a4 c4 3b 33 19 18 3c
       0.009232922 0.023789097 0.006001005 0.009283352
000050 d1 ac b9 3c 79 13 95 3c f0 24 ba 3a 95 e8 db 3b
       0.022665413 0.018197762 0.0014201682 0.0067110755
000060 84 dc 9e 3c b8 03 17 bc b6 97 26 3c fc 3f d1 3c
       0.01939226 -0.009217195 0.010168007 0.025543205
000070 9d 45 02 bc e7 69 ec 3c 36 27 0b bc 61 ca 84 3c
       -0.007951167 0.028859092 -0.008493235 0.016209783
000080 d6 1c e6 3b 0c fb dc 3b b6 1c 05 3d b0 00 21 3c
       0.0070224805 0.0067437943 0.032498084 0.009826824
000090 71 c3 11 3c e6 1f a9 3c 06 f3 83 3b eb 79 4f 3c
       0.0088966945 0.020645093 0.0040267734 0.012663345
0000a0 ee 9e b6 3c b9 af 1c 3d a8 a0 0c 3a a9 76 64 bb
       0.02229258 0.03825352 0.0005364516 -0.0034860766
0000b0 a2 a2 df 38 88 a2 62 3c d7 ce 00 3c d8 6b 88 3c
       0.00010663761 0.013832696 0.007861814 0.016652986
0000c0 2d 4f e1 3b 4c 4c a1 bb ad 3a b5 3c 4f b4 20 3c
       0.0068758936 -0.0049224254 0.022122705 0.009808614
0000d0 04 e5 82 bc ad 9f 43 3b a6 13 13 3d f0 42 52 3c
       -0.015978344 0.0029849813 0.03590741 0.012833342
0000e0 b2 96 0a 3d bd a6 c2 3c b7 ba 36 3c 5c 0d 46 3c
       0.03383512 0.023761148 0.011152915 0.012088146
0000f0 20 6d fb 3b ff 45 04 3c b4 4a 1f 3b 51 74 00 3d
       0.007672921 0.008073329 0.0024306 0.031360928
000100 58 2a 36 3d a6 ef de ba ad b7 fa 3b 48 12 53 3c
       0.044473976 -0.0017008677 0.0076512904 0.012882777
000110 02 a8 74 3c 58 ce b6 3b 6a 50 91 3c fd 52 02 3c
       0.014932634 0.0055787973 0.01773854 0.007954356
000120 78 de 06 3d b3 f7 61 3c 7d e7 67 ba c1 ec 37 3c
       0.032927006 0.013791966 -0.0008846445 0.01122588
000130 e6 6f 78 3c 7b 8c 4a 3c 54 73 f4 3b ab 9c 08 bc
       0.015163397 0.012362595 0.0074600372 -0.008338134
000140 b5 76 a5 3b c9 8d 7f 3b d9 b2 dd 3b e1 11 80 3c
       0.0050495514 0.0038994423 0.006765705 0.015633525
000150 0b 6a 63 3c 4a 2d ca ba 4f a3 52 bb e9 9e 85 3c
       0.013880263 -0.0015424874 -0.0032140797 0.016311126
000160 3a a1 46 3c 8b d3 dc 3b fd 07 57 3c 99 f4 f0 3a
       0.0121234 0.006739085 0.013124463 0.0018383443
000170 4a 06 c9 3c b6 34 dd 3c 3b 7f d4 3b 00 25 8b 3c
       0.024539132 0.027002674 0.0064848936 0.016985416
000180 39 84 82 3c 54 68 74 3c aa 18 91 3c fb 1f 8d bb
       0.01593219 0.014917452 0.017711956 -0.004306791
000190 8e 81 61 3c 4b 8f 09 3d b2 a2 b8 3b 2f ce 6b 3b
       0.013763798 0.03358392 0.005634629 0.003598105
0001a0 c8 8b 6a bb cc 2f 4f 3c 6a 79 db ba 34 31 57 3c
       -0.0035788883 0.012645673 -0.0016744558 0.0131342895
0001b0 85 eb 49 3c c4 0f 69 bb 10 12 04 3c b8 a5 b7 3a
       0.012324219 -0.0035562376 0.008060947 0.001401118
0001c0 d9 1b bb 3b b4 c8 8a 3a 2d 21 8c 3c 93 01 45 3b
       0.005710107 0.0010588379 0.017105663 0.0030060753
0001d0 0a d7 23 3c 18 27 80 bb df 7d 59 bb 3a ad 7d 3c
       0.01 -0.0039109103 -0.0033186597 0.015483195
0001e0 86 e1 66 3c 9f 02 c7 3c 08 da e2 3b 69 64 40 3b
       0.014091855 0.024293242 0.006922964 0.0029356724
0001f0 56 ba 9c 3c c1 e1 57 3c 48 7c a0 3c 0a 63 59 3c
       0.01913182 0.0131763825 0.019590512 0.013268242

weight f4 [12, 128]
000000 2b a2 07 3e 59 91 f4 bc bc cd 37 3e aa 10 19 3d
       0.13245456 -0.029854463 0.17949575 0.037369408
000010 2d cf c6 3d ac ba 6b 3d a3 13 ba 3d fa 50 41 be
       0.097074844 0.05755107 0.09085777 -0.18878546
000020 45 cc 20 3e 65 fe 07 3c 58 c1 07 be ee c6 53 bd
       0.15702923 0.0083003985 -0.13257349 -0.051703386
000030 4b a6 48 be 89 af 9f 3d 7d 8b 80 3d 0c 99 1a bd
       -0.19594686 0.077971525 0.06276605 -0.037743613
000040 c9 89 17 3e af 90 57 3e 60 fa f2 bd 4a 45 12 be
       0.14798655 0.21051286 -0.118641615 -0.14284244
000050 8a 05 86 3e 1c 4e 2b 3e 11 10 67 3e 35 23 38 be
       0.261761 0.16729015 0.22564723 -0.1798218
000060 b6 82 2d 3e 97 6c ec bd 1b 89 ff 3b d8 c2 92 3e
       0.16944394 -0.11544149 0.0077983267 0.2866428
000070 80 b7 5b 3c 0a c9 d7 bd 16 94 b7 bb b0 98 c6 bc
       0.013410449 -0.10536392 -0.00560237 -0.024242729
000080 62 c1 99 3d f5 dc 10 3e b7 e9 2b 3e 5f 55 29 bd
       0.07507588 0.14146788 0.16788374 -0.04134118
000090 71 21 26 be 5c 69 48 be 3c c7 28 3d e4 be 3c 3e
       -0.16223694 -0.19571441 0.04120563 0.18432194
0000a0 bb 94 82 be cc 54 02 be a9 c7 41 be b1 0f 43 be
       -0.25504097 -0.1272766 -0.1892382 -0.19048955
0000b0 12 51 71 3d be 20 d1 3d 52 80 26 3d 2f 82 28 3e
       0.058915205 0.10211323 0.04064972 0.16455911
0000c0 65 f1 e6 3d bc b3 c5 3d 5d f1 1c be 6a e3 1e be
       0.11276511 0.09653422 -0.15326448 -0.15516439
0000d0 12 62 c8 3a 75 ab 79 bd ee 95 45 3e 03 0c d4 bd
       0.0015288016 -0.06095453 0.19295475 -0.103538536
0000e0 18 0c ee bd d3 3c 6c be 1a 3a 0e be 92 91 de 3c
       -0.116234004 -0.23070078 -0.13889351 0.027169023
0000f0 ac 50 db 3d eb 20 51 3e fc 0f 84 be d7 28 63 be
       0.10708746 0.20422713 -0.25793445 -0.22183548
000100 a4 e7 e1 bc e3 e6 96 3e 42 de 56 3d f4 0e 32 3e
       -0.027576275 0.29473028 0.052458055 0.17388517
000110 e7 90 99 3d 3e 93 76 bc 61 38 67 3c a8 86 da bd
       0.07498341 -0.015049754 0.014112563 -0.10670215
000120 d9 29 93 bd 13 18 6e be 01 af 8e 3d 9c e1 19 be
       -0.07185716 -0.23251371 0.06966973 -0.1502747
000130 95 4c 52 3e 66 c3 64 3d 5a 6e bc bd 40 09 31 be
       0.20537026 0.05585041 -0.092007354 -0.17288685
000140 df 66 df bb a7 90 25 be 3b 2f da bd 35 2e 99 3d
       -0.006817683 -0.16168462 -0.1065354 0.074795164
000150 1c 63 c6 bd 58 f0 59 3e 0b c5 cc 3d 63 93 56 3e
       -0.09686872 0.2128309 0.099985205 0.20954661
000160 d4 56 1f be 5b a1 1a 3e c4 ac 40 3e e0 43 4f be
       -0.15560466 0.15100615 0.18815905 -0.20240736
000170 26 98 4e be cc 94 4d bd 25 d2 af 3c 1e 1f 3f 3e
       -0.20175228 -0.050190732 0.02146251 0.18664214
000180 e5 75 d9 bd 7b 5d 04 3d 74 45 23 be e3 3d f9 bb
       -0.1061819 0.032315712 -0.15944463 -0.0076062544
000190 3e 33 85 be 68 d5 c8 3d f2 0f 11 3e 89 98 90 3d
       -0.26015657 0.09806329 0.14166239 0.07060344
0001a0 ac c2 1e 3d 26 a6 b1 bb 49 3d 2c 3d 72 32 ca bc
       0.038759872 -0.0054214178 0.042050634 -0.024682257
0001b0 e8 23 ef bd 83 5c a4 bd 48 60 8d 3d c2 ae 44 3d
       -0.116767704 -0.08025458 0.0690313 0.048018225
0001c0 1f ca 59 be e9 93 3b be 3f 6f f9 3d ac ba 33 bd
       -0.2126851 -0.18318142 0.12179422 -0.043879196
0001d0 ca 82 fc 3d 37 83 1f be 9c 72 c2 3c 54 41 24 3e
       0.123296335 -0.15577398 0.02373629 0.16040546
0001e0 45 00 cf bd a8 6d d8 3c fb 7a 28 3e 95 ea e2 3d
       -0.10107473 0.026419476 0.16453163 0.11079899
0001f0 c6 5b b4 bd 4d 3a 63 3d f9 2c b0 bd 98 c8 a6 3d
       -0.08806567 0.05547552 -0.08602328 0.08143729
000200 2c 91 b6 3d 53 45 df 3d 88 0a e7 3d 01 b4 2f 3e
       0.08914408 0.109018944 0.112813056 0.1715851
000210 4e 58 ec 3d 6b 9e 50 bc cb c1 90 bd 29 49 34 be
       0.1154028 -0.012733082 -0.07068213 -0.17606033
000220 20 2c 53 bd ec 4e cd bd 7a 75 da bc fa 98 01 3e
       -0.051555753 -0.10024819 -0.026667345 0.12656012
000230 4d e3 8a bd b2 0c 0d 3d e8 de c1 3d 59 d5 ee bd
       -0.067816354 0.034435935 0.09466344 -0.116617866
000240 22 0e 2b be ef c0 46 bd 84 7e 4f bc 57 9a 16 be
       -0.1670461 -0.04852384 -0.012664441 -0.14707313
000250 8f c1 43 be 65 f5 a0 3d 11 7f fa bc 11 76 44 3e
       -0.19116805 0.07859305 -0.030578168 0.19185664
000260 94 a1 48 3e f0 18 f4 3c 2d dd c6 3d 54 c1 3d bd
       0.19592887 0.029797047 0.09710155 -0.04632695
000270 e3 1b 39 3e 66 0f 7c 3c 74 43 c7 3d 50 47 3b be
       0.18077044 0.015384531 0.097296625 -0.18288922
000280 2d 1d 12 3e 9b 54 a9 3d 84 22 a0 3d 47 18 5a 3e
       0.14268942 0.0826809 0.07819083 0.21298324
000290 4b 09 9d 3d 36 97 05 be b4 37 53 3e 49 6f 44 3e
       0.07667788 -0.13045964 0.20626718 0.19183077
0002a0 54 15 3c 3c e0 e3 74 3e a3 0f 63 bc 65 df 5c 3e
       0.011479694 0.23915052 -0.013858709 0.21569593
0002b0 5d 2e 31 be cd ba 1c 3e 4c c2 09 3e 18 42 a3 bd
       -0.17302842 0.15305634 0.13453025 -0.07971591
0002c0 96 b6 21 be c2 b3 17 be 89 7a cb 3d e0 16 c2 bd
       -0.15792307 -0.14814666 0.09935481 -0.09477019
0002d0 32 12 49 3d 9d f7 32 3e ee 4d 9e bd ed c4 1b be
       0.049089618 0.1747727 -0.07729708 -0.1521184
0002e0 7f fe 53 3d 19 ff e2 bd 12 2c 2c be 28 31 47 be
       0.05175638 -0.11083812 -0.16813686 -0.19452345
0002f0 8c 2c 36 be 69 ba 19 3e 16 47 d3 bd 17 ec b4 3d
       -0.17790431 0.15012516 -0.10316293 0.08834093
000300 9c fe fa bd aa b0 3d 3e 8b d6 65 3d 9f 52 4b 3e
       -0.12255594 0.18524423 0.056112807 0.19855736
000310 b1 80 58 3d 9d c9 23 be c2 af 25 be fe 65 3b bd
       0.052857105 -0.15994878 -0.16180328 -0.045751564
000320 98 87 a7 3d 7a 24 d7 3d c8 94 04 3e 85 7c 91 bd
       0.08180159 0.10505004 0.1294738 -0.07103828
000330 03 49 4b be 59 db de bc 8d c0 fe 3d 64 e5 d0 3d
       -0.1985207 -0.027204202 0.1243907 0.10200003
000340 80 8a fa bd b1 49 91 bd 06 ab cd 3d 8b bf 8a 3c
       -0.12233448 -0.07094134 0.10042386 0.016937038
000350 20 72 65 bd d1 c8 14 be eb 8c 9d 3c 72 0d 34 bd
       -0.05601704 -0.1452973 0.019232234 -0.043958135
000360 a0 14 83 be 82 10 27 3d 5b e1 05 be d3 2d 4d be
       -0.25601673 0.040787227 -0.13074248 -0.20037012
000370 af 0b 03 3e 4c a7 88 be 0e ab 3f be 80 06 25 be
       0.12797426 -0.26690137 -0.18717596 -0.16115761
000380 1a f9 90 3d 68 69 f1 bd 43 d1 08 be a7 10 0e bc
       0.07078762 -0.11787683 -0.13361077 -0.008670962
000390 bb 85 91 bb f5 14 1c 3d 73 43 57 3e 07 79 1e 3e
       -0.0044409907 0.038105924 0.21021824 0.15475856
0003a0 03 0d 2b be 9c 9f c7 3d c6 b3 f7 bc 32 68 9f bb
       -0.16704182 0.0974724 -0.03023709 -0.004864716
0003b0 37 cf 92 bc 3e 33 fa 3d 5c fa 3b be cf c8 44 3e
       -0.017921073 0.12216805 -0.18357223 0.19217227
0003c0 fc 74 57 3c 3b 01 90 3b 63 23 0b 3d f5 41 dd 3d
       0.01315045 0.004394678 0.033969294 0.10803596
0003d0 15 f0 d5 bd 20 59 32 3e e2 5d 06 be 94 95 59 be
       -0.10446183 0.17416811 -0.13121751 -0.21248466
0003e0 87 10 35 be b9 dc cc 3d 42 ae 35 be ee 4e 67 bd
       -0.17682086 0.10003037 -0.17742255 -0.056471758
0003f0 90 4f 27 3e f8 66 dc 3d 87 c6 14 3e 26 39 0c be
       0.16338944 0.10761827 0.14528857 -0.13693675

bias f4 [12]
000000 00 4e 53 3c d3 66 cd 3b 0b c4 d1 3c d1 8e 27 3d
       0.012897015 0.006268361 0.025606176 0.040907685
000010 ae ec df 3c 38 5e a6 ba 20 52 16 3c c1 85 10 3c
       0.027334537 -0.0012692874 0.009174854 0.008820952
000020 0c 68 da bc 3f 23 06 3c 0a 16 20 bc 2f c6 76 3c
       -0.026660942 0.008187114 -0.0097708795 0.015061899

exp_avg f4 [128, 54]
000000 85 79 b4 b9 14 e9 0f ba da a2 0f ba 49 b1 56 39
       -0.00034422814 -0.00054897484 -0.0005479284 0.00020474674
000010 00 00 00 00 8c 74 8c 35 4a ff 63 38 76 b1 1d b9
       0.0 1.0464732e-06 5.4358774e-05 -0.00015038796
000020 8c 98 1c b9 2a e5 a2 b9 6a 43 07 ba 2c e9 24 ba
       -0.00014934147 -0.00031069788 -0.0005159887 -0.0006290849
000030 f0 9a 63 b8 09 15 88 b9 8d 60 c3 b9 b2 f4 9b b8
       -5.4265314e-05 -0.00025955614 -0.00037265234 -7.436554e-05
000040 d8 9e 92 b9 5a ea cd b9 ff 85 01 ba 75 52 01 ba
       -0.00027965638 -0.00039275252 -0.00049409264 -0.00049332465
000050 5b 7f 33 ba 93 48 08 ba 09 15 08 ba ee 41 3a ba
       -0.00068472855 -0.00051988027 -0.0005191123 -0.0007105161
000060 6e a2 02 ba e4 6e 02 ba ca 9b 34 ba 75 a0 ae 38
       -0.00049833104 -0.00049756304 -0.00068896695 8.326854e-05
000070 80 63 7f 35 10 6b 42 b9 58 8b 36 ba 8e 1f 4c ba
       9.5139694e-07 -0.00018541166 -0.0006963513 -0.00077866844
000080 2a fa 7c ba 38 80 0f ba 6e 14 25 ba 09 ef 55 ba
       -0.00096503145 -0.0005474123 -0.0006297295 -0.0008160924
000090 f8 9c 81 ba 3c 89 8d ba 26 7d 8d ba 89 51 78 ba
       -0.0009888699 -0.0010798345 -0.0010794743 -0.0009472599
0000a0 09 15 88 ba f2 08 88 ba 23 d7 5f ba aa af 77 ba
       -0.0010382246 -0.0010378642 -0.0008538833 -0.0009448478
0000b0 7e 97 77 ba 96 7e c6 ba 9d d2 b8 ba 0a e8 b8 ba
       -0.00094448763 -0.0015143927 -0.0014100854 -0.0014107239
0000c0 44 c6 b7 ba 4c 1a aa ba ba 2f aa ba 4b 49 ae ba
       -0.001402088 -0.0012977808 -0.0012984194 -0.001329699
0000d0 52 9d a0 ba be b2 a0 ba 02 6e 2e ba 23 72 10 ba
       -0.0012253916 -0.00122603 -0.00066539657 -0.0005510172
0000e0 8d 4f 10 ba 00 df ef b8 00 00 00 00 0f 5a 0a 35
       -0.0005505018 -0.00011437945 0.0 5.154006e-07
0000f0 03 52 11 b9 1f 14 cb b7 4e c1 c6 b7 6c 9a 86 b9
       -0.0001385883 -2.4208855e-05 -2.3693454e-05 -0.00025673525
000100 8c af bf b9 76 54 39 b9 7b 5a 03 b9 bb 84 75 b9
       -0.00036561152 -0.00017674439 -0.0001252684 -0.00023414467
000110 5c e8 3d b8 5e 43 06 b9 9c 6d 78 b9 e4 8b 49 b8
       -4.5277513e-05 -0.00012804332 -0.00023691956 -4.8052418e-05
000120 a0 1c 00 ba 58 f9 ff b9 28 3f c3 b9 a3 c4 f5 b9
       -0.0004887078 -0.00048823166 -0.00037240353 -0.00046876547
000130 bb 84 f5 b9 8b ca b8 b9 66 18 e5 b9 7f d8 e4 b9
       -0.00046828933 -0.0003524612 -0.00043696462 -0.0004364885
000140 4e 1e a8 b9 23 38 ec b8 00 00 04 b2 cf 23 fc b8
       -0.00032066036 -0.00011263813 -7.683411e-09 -0.00012022966
000150 0d aa 55 ba 8c 23 38 ba 82 a7 57 ba 51 ed 56 ba
       -0.0008150645 -0.000702434 -0.000822656 -0.0008198815
000160 d1 66 39 ba c6 ea 58 ba ae 80 77 ba 2d 10 68 ba
       -0.0007072511 -0.000827473 -0.0009441477 -0.0008852508
000170 8d 00 68 ba 9e 7a 82 ba bb 84 75 ba 1c 75 75 ba
       -0.000885018 -0.0009954756 -0.00093657867 -0.0009363459
000180 41 33 75 ba c0 c2 65 ba 22 b3 65 ba 9a 4f 98 ba
       -0.0009353646 -0.0008764677 -0.00087623496 -0.0011620403
000190 40 d7 9f ba 61 e0 9f ba 50 eb 91 ba f6 72 99 ba
       -0.0012194887 -0.0012197607 -0.0011132751 -0.0011707235
0001a0 16 7c 99 ba ab a3 a2 ba 50 2b aa ba 70 34 aa ba
       -0.0011709954 -0.0012408396 -0.0012982879 -0.0012985598
0001b0 04 00 00 80 04 00 00 00 04 00 00 00 04 00 00 00
       -6e-45 6e-45 6e-45 6e-45
0001c0 00 00 00 00 04 00 00 00 04 00 00 00 04 00 00 00
       0.0 6e-45 6e-45 6e-45
0001d0 04 00 00 00 04 00 00 00 04 00 00 00 04 00 00 00
       6e-45 6e-45 6e-45 6e-45
0001e0 04 00 00 00 04 00 00 00 04 00 00 00 04 00 00 00
       6e-45 6e-45 6e-45 6e-45
0001f0 04 00 00 00 04 00 00 00 04 00 00 00 04 00 00 00
       6e-45 6e-45 6e-45 6e-45
000200 04 00 00 00 04 00 00 00 04 00 00 00 04 00 00 00
       6e-45 6e-45 6e-45 6e-45
000210 04 00 00 00 04 00 00 00 04 00 00 00 04 00 00 00
       6e-45 6e-45 6e-45 6e-45
000220 04 00 00 00 04 00 00 00 04 00 00 00 04 00 00 00
       6e-45 6e-45 6e-45 6e-45
000230 04 00 00 00 04 00 00 00 04 00 00 00 04 00 00 00
       6e-45 6e-45 6e-45 6e-45
000240 04 00 00 00 04 00 00 00 04 00 00 00 04 00 00 00
       6e-45 6e-45 6e-45 6e-45
000250 04 00 00 00 04 00 00 00 04 00 00 00 04 00 00 00
       6e-45 6e-45 6e-45 6e-45
000260 04 00 00 00 04 00 00 00 04 00 00 00 04 00 00 00
       6e-45 6e-45 6e-45 6e-45
000270 04 00 00 00 04 00 00 00 04 00 00 00 04 00 00 00
       6e-45 6e-45 6e-45 6e-45
000280 04 00 00 00 04 00 00 00 56 c0 21 38 86 9c bf 38
       6e-45 6e-45 3.8564518e-05 9.1367445e-05
000290 92 fc b5 38 b4 78 5d b8 00 00 00 00 33 ff 99 b6
       8.6777975e-05 -5.280292e-05 0.0 -4.5894644e-06
0002a0 8e f1 0d b6 98 99 54 38 b3 59 41 38 88 2e 4d b7
       -2.115124e-06 5.0687784e-05 4.6098325e-05 -1.2229786e-05
0002b0 00 9a a5 37 1e a9 a4 38 32 66 a9 36 65 45 1b 38
       1.9741245e-05 7.85163e-05 5.0484896e-06 3.701951e-05
0002c0 50 e5 c8 38 80 9e a4 35 96 3d 0b 38 69 e1 c0 38
       9.579456e-05 1.2265082e-06 3.319754e-05 9.197259e-05
0002d0 ec 10 7d 38 0c 17 6a 38 e0 c7 e3 38 55 c2 a4 38
       6.033566e-05 5.581141e-05 0.00010861433 7.8563266e-05
0002e0 65 45 9b 38 df 00 05 39 86 5a 2c 38 a5 60 19 38
       7.403902e-05 0.00012684193 4.1092302e-05 3.656805e-05
0002f0 ad 6c bb 38 00 1f 70 b6 4d 83 67 38 e7 16 ad 38
       8.937097e-05 -3.5780831e-06 5.5196975e-05 8.253549e-05
000300 f4 4a 5b 38 17 e8 e8 38 ae 1e 11 39 4f e3 33 38
       5.2283474e-05 0.00011105852 0.00013839707 4.2888623e-05
000310 45 34 d5 38 c4 44 07 39 f6 66 1e 39 0c 16 3a 39
       0.000101663674 0.0001290022 0.0001510641 0.00017746555
000320 6b b8 37 39 9d 2c ff 38 65 45 1b 39 c4 e7 18 39
       0.00017520941 0.000121676574 0.00014807803 0.00014582189
000330 be a4 e2 38 75 01 0d 39 d4 a3 0a 39 4c e5 70 39
       0.000108072054 0.0001344735 0.00013221736 0.00022973603
000340 36 36 55 39 58 a5 57 39 d5 c5 5d 39 c0 16 42 39
       0.00020333458 0.00020565593 0.000211499 0.00018509757
000350 e2 85 44 39 2e f5 3e 39 18 46 23 39 3a b5 25 39
       0.00018741892 0.00018211149 0.00015571003 0.00015803138
000360 04 00 00 80 04 00 00 00 04 00 00 00 04 00 00 80
       -6e-45 6e-45 6e-45 -6e-45
000370 00 00 00 00 04 00 00 80 04 00 00 80 04 00 00 80
       0.0 -6e-45 -6e-45 -6e-45
000380 04 00 00 80 04 00 00 80 04 00 00 80 04 00 00 80
       -6e-45 -6e-45 -6e-45 -6e-45
000390 04 00 00 80 04 00 00 80 04 00 00 80 04 00 00 80
       -6e-45 -6e-45 -6e-45 -6e-45
0003a0 04 00 00 80 04 00 00 80 04 00 00 80 04 00 00 80
       -6e-45 -6e-45 -6e-45 -6e-45
0003b0 04 00 00 80 04 00 00 80 04 00 00 80 04 00 00 80
       -6e-45 -6e-45 -6e-45 -6e-45
0003c0 04 00 00 80 04 00 00 80 04 00 00 80 04 00 00 80
       -6e-45 -6e-45 -6e-45 -6e-45
0003d0 04 00 00 80 04 00 00 80 04 00 00 80 04 00 00 80
       -6e-45 -6e-45 -6e-45 -6e-45
0003e0 04 00 00 80 04 00 00 80 04 00 00 80 04 00 00 80
       -6e-45 -6e-45 -6e-45 -6e-45
0003f0 04 00 00 80 04 00 00 80 04 00 00 80 04 00 00 80
       -6e-45 -6e-45 -6e-45 -6e-45

exp_avg_sq f4 [128, 54]
000000 21 fd e6 3a d6 03 d1 3a 31 77 d3 3a 34 a8 3c 39
       0.0017623046 0.0015946578 0.0016133544 0.00017991738
000010 00 00 00 00 54 b4 4a 35 a9 1d e7 39 fd 22 89 39
       0.0 7.5513276e-07 0.00044081852 0.00026156745
000020 85 ae 8b 39 bc 40 3a 3a 21 05 25 3a 0e 53 2c 3a
       0.00026642173 0.0007104983 0.0006295015 0.00065736554
000030 90 e7 dc 39 9a 16 b1 39 19 7a c7 39 c0 5a 4f 3a
       0.00042134197 0.0003377691 0.00038047208 0.0007909946
000040 82 fb 42 3a fb 81 4d 3a 24 60 c7 3a 10 09 c8 3a
       0.000743799 0.0007839498 0.0015211147 0.001526149
000050 df ff af 3a 4b 14 b1 3a 9a 16 b1 3a 53 e1 99 3a
       0.0013427696 0.0013510076 0.0013510764 0.0011740125
000060 99 f1 ef 3a 28 07 f1 3a e3 a1 d9 3a 36 4b 9e 3a
       0.0018306255 0.0018388974 0.0016604032 0.0012076858
000070 61 87 9e 3a 3b be 95 3a 4c c5 44 3b 92 39 47 3b
       0.0012094789 0.0011424491 0.0030024825 0.0030399305
000080 c7 fd 3e 3b cc 6e 75 3b c2 e0 77 3b 22 c8 71 3b
       0.0029142962 0.0037450073 0.0037823175 0.003689297
000090 38 41 bf 3b 5d 6a b3 3b a0 6e b3 3b 22 cd bc 3b
       0.005836632 0.005475326 0.005475834 0.0057617584
0000a0 9a 16 b1 3b 0a 1b b1 3b 38 15 c1 3b cc 58 b5 3b
       0.0054043056 0.0054048346 0.005892422 0.005534267
0000b0 92 db b4 3b 0a a8 01 3c 84 40 08 3c 35 02 08 3c
       0.005519339 0.007913599 0.008316163 0.008301307
0000c0 23 c0 03 3c c6 59 0a 3c d3 16 0a 3c 68 04 03 3c
       0.008041414 0.008444255 0.008428293 0.007996656
0000d0 f6 9d 09 3c ab 9f 09 3c ae b8 22 3d 1d 05 21 3d
       0.008399477 0.008399884 0.039726906 0.039311517
0000e0 08 2f 21 3d 34 1e dc 39 00 00 00 00 2a d6 bf 37
       0.039351493 0.00041984173 0.0 2.2868702e-05
0000f0 bb 80 06 3a f9 71 c4 38 ad df fd 38 b6 98 36 3a
       0.00051308767 9.367237e-05 0.00012105643 0.0006965505
000100 7c 00 0f 3a e7 cc 15 3a 1f 97 9c 3b 9e d3 95 3b
       0.0005455089 0.0005714432 0.004778757 0.004572346
000110 ef d8 96 3b af e5 88 3b bc 8c 84 3b de 62 85 3b
       0.004603497 0.004177771 0.004045097 0.004070624
000120 73 87 b8 3b a5 97 b8 3b 36 c7 a6 3b 39 d3 95 3c
       0.005631381 0.005633312 0.0050896658 0.018289195
000130 9e d3 95 3c 76 5c 91 3c fc f8 8b 3c 49 07 8c 3c
       0.018289384 0.017744284 0.017086498 0.017093318
000140 56 9d 87 3c 53 76 9a 3c b9 4e 9a 3c 35 3c 98 3c
       0.016554516 0.01885525 0.018836366 0.018583396
000150 da 95 28 3d 74 8e 28 3d a8 29 27 3d bc 93 3f 3d
       0.041158535 0.04115148 0.04081121 0.04677175
000160 be 84 3f 3d e1 6f 3e 3d 61 49 98 3d 5a d8 95 3d
       0.046757452 0.046493415 0.07435871 0.073166564
000170 cd da 95 3d 43 45 98 3d 9e d3 95 3d 52 d6 95 3d
       0.073171236 0.074350856 0.073157534 0.07316269
000180 5e 95 98 3d bc 75 96 3d cf 1e 96 3d d4 45 e7 3d
       0.074503645 0.07346675 0.07330095 0.112926155
000190 1a 70 e9 3d 5f c5 e9 3d 30 92 e7 3d b0 1b ea 3d
       0.11398335 0.11414599 0.1130718 0.11431062
0001a0 bf 11 ea 3d 97 79 e7 3d be 02 ea 3d b4 01 ea 3d
       0.11429166 0.11302488 0.11426304 0.11426106
0001b0 d9 fe 3a 2b 59 15 a6 2b 44 4a 84 2c dd de 3e 2c
       6.6434147e-13 1.1800935e-12 3.759911e-12 2.7124338e-12
0001c0 00 00 00 00 53 9a 38 2c 6a d2 cb 2c 7e ce 83 2a
       0.0 2.623364e-12 5.7929677e-12 2.3413557e-13
0001d0 aa 57 49 2c 28 91 53 2d 6c f2 07 2c bc d4 5a 2b
       2.8612481e-12 1.20261925e-11 1.9319225e-12 7.7744386e-13
0001e0 f7 56 54 2d 4a a3 90 2b bb 7a a0 2b ac 5f 6c 2d
       1.2070115e-11 1.0277137e-12 1.1402748e-12 1.343629e-11
0001f0 a8 a9 d1 2b 53 b0 96 2b 27 9d b6 2c 12 6d 91 2c
       1.4897432e-12 1.0707081e-12 5.1901985e-12 4.133257e-12
000200 2a db 4a 2c 70 de be 2c 4a a3 90 2c 4a 43 b8 2c
       2.8827587e-12 5.4248203e-12 4.110855e-12 5.237065e-12
000210 d1 c9 d2 2c fb c4 98 2c cf 12 d5 2c 07 6c 04 2d
       5.990965e-12 4.341969e-12 6.0559123e-12 7.527318e-12
000220 2c 03 18 2d 1b d2 c8 2d a0 ac 12 2d ac b7 22 2d
       8.640904e-12 2.2830673e-11 8.33747e-12 9.249417e-12
000230 c3 62 b0 2d e4 cb 15 2d 62 9e 0d 2d e2 84 a5 2d
       2.0052742e-11 8.514942e-12 8.05009e-12 1.881734e-11
000240 36 75 99 2d 4d 46 99 2d 59 7f 91 2d 11 29 8c 2d
       1.7446138e-11 1.7425306e-11 1.6541145e-11 1.5934394e-11
000250 4a a3 90 2d 2f 2a 9d 2d c1 b0 52 2d 1c f7 76 2d
       1.644342e-11 1.7867567e-11 1.1976365e-11 1.403835e-11
000260 3c fc 3b 2d 54 76 28 2c 3c 1f c7 2c 78 78 bf 2c
       1.0685727e-11 2.3939921e-12 5.659388e-12 5.4419212e-12
000270 32 a8 a1 2d e4 fe e1 2d f9 09 d4 2d 32 42 bf 2d
       1.8378275e-11 2.5692733e-11 2.4106038e-11 2.1743583e-11
000280 0a 54 de 2d 37 fd bf 2d ee c0 0f 3c 68 9f 0e 3c
       2.5275799e-11 2.1826636e-11 0.008774025 0.008704998
000290 42 bd 13 3c 9e f1 a4 38 00 00 00 00 8b 6a 93 37
       0.009017291 7.865134e-05 0.0 1.7573378e-05
0002a0 b6 c4 d4 38 99 c1 c2 37 a5 2d 0f 39 e5 1e 1e 39
       0.00010145588 2.3216753e-05 0.00013654547 0.00015079563
0002b0 bb b2 0a 39 9d 22 34 39 5a 31 8e 3a 3d 1a 89 3a
       0.00013227288 0.00017179032 0.0010848448 0.001046009
0002c0 2c 0b 90 3a f2 2a 75 3a c4 a4 70 3a 09 a6 72 3a
       0.0010989658 0.00093524077 0.00091798254 0.00092563085
0002d0 38 f4 9d 3a 3d 23 a9 3a 88 ff 9c 3a 8e dc 88 3b
       0.0012050932 0.0012904179 0.001197801 0.004176683
0002e0 3d 1a 89 3b 1e f0 85 3b 23 dd 77 3b 74 3b 7f 3b
       0.004184036 0.004087462 0.0037821017 0.003894535
0002f0 bb 42 79 3b 81 d1 8f 3b 8d c7 90 3b da 41 8a 3b
       0.003803416 0.0043889885 0.0044183196 0.004219276
000300 b5 57 19 3c 85 3d 1a 3c f5 80 19 3c d7 ee 2e 3c
       0.00935929 0.009414081 0.009369125 0.010677061
000310 df bd 2f 3c e8 63 2f 3c 87 26 8b 3c 5e c1 89 3c
       0.010726421 0.010704972 0.016986145 0.016815837
000320 db cd 89 3c 4c 7a 8a 3c 3d 1a 89 3c c4 25 89 3c
       0.016821792 0.016904019 0.016736144 0.01674164
000330 54 5d 8d 3c 3d 28 8c 3c da 98 89 3c cb 47 d4 3c
       0.017256416 0.01710903 0.016796518 0.02591314
000340 29 d0 d5 3c f6 44 d3 3c d7 82 d4 3c be 38 d6 3c
       0.026100235 0.02578972 0.025941296 0.026150104
000350 b6 7e d3 3c cd 00 d4 3c 65 b6 d5 3c f1 88 d5 3c
       0.025817256 0.025879288 0.026087949 0.026066275
000360 86 80 0f 2d 18 99 b8 2b 4b 20 b9 2b 1c a3 11 2d
       8.157147e-12 1.3116478e-12 1.3154004e-12 8.278513e-12
000370 00 00 00 00 74 55 3d 28 7f 65 0f 2d 7f 42 5d 29
       0.0 1.0510137e-14 8.1511456e-12 4.9129534e-14
000380 8c 36 59 29 ad 46 57 2c b5 82 57 2c 3e 62 64 2c
       4.823099e-14 3.059257e-12 3.0625895e-12 3.2455284e-12
000390 d5 f7 e1 2a f8 c2 d2 2a b4 fe 6d 2b c7 93 35 2b
       4.0139997e-13 3.743878e-13 8.4552786e-13 6.45092e-13
0003a0 74 b2 13 2b 3b 93 d3 2a 03 cc b9 2a 99 b3 35 2a
       5.2472545e-13 3.758329e-13 3.3004163e-13 1.613834e-13
0003b0 83 c0 bf 2c 79 17 d3 2b f8 c2 d2 2b 0e 07 c6 2c
       5.4499196e-12 1.4998967e-12 1.4975512e-12 5.6282817e-12
0003c0 33 fe bf 2b 7e d6 fa 2b 94 37 cd 2c 43 dd e8 2a
       1.3641921e-12 1.7823102e-12 5.832621e-12 4.136501e-13
0003d0 e1 57 51 2c 83 8e 63 2c 8d 0e dc 2a 91 1b 6d 2c
       2.974947e-12 3.233775e-12 3.9089947e-13 3.3695028e-12
0003e0 99 fa 65 2c 58 73 19 2b 2d 73 64 2c cf 37 67 2c
       3.2681967e-12 5.451659e-13 3.2464684e-12 3.2858054e-12
0003f0 db 0a 09 2c 65 82 d6 2c 72 bd e3 2c 68 5f 96 2b
       1.9474897e-12 6.0967225e-12 6.4727607e-12 1.0684622e-12

exp_avg f4 [128]
000000 09 15 88 b9 bb 84 75 b9 04 00 00 00 65 45 1b 38
       -0.00025955614 -0.00023414467 6e-45 3.701951e-05
000010 04 00 00 80 04 00 00 00 21 da 37 b8 69 71 d3 b7
       -6e-45 6e-45 -4.383375e-05 -2.520597e-05
000020 97 79 a0 b9 ce 9d 58 39 e2 c8 09 39 7e ee 08 38
       -0.0003060817 0.00020658152 0.00013140173 3.264704e-05
000030 20 28 78 39 90 c4 a4 b8 1f 17 85 b9 80 e5 c4 37
       0.00023666071 -7.856742e-05 -0.00025384963 2.347189e-05
000040 86 c0 49 b9 92 5e 44 ba a3 f3 b5 39 c8 f1 c4 b8
       -0.00019240574 -0.0007490899 0.00034704534 -9.3910436e-05
000050 04 00 00 00 48 40 2a b8 a8 43 07 38 e0 9e df b6
       6e-45 -4.0591025e-05 3.2249518e-05 -6.6644134e-06
000060 92 05 19 b9 f8 b2 e2 b8 04 00 00 00 20 f9 75 b6
       -0.00014593292 -0.00010809855 6e-45 -3.6652855e-06
000070 c4 d9 08 b9 04 da 07 ba 4b c9 07 b4 b6 3e 11 38
       -0.00013051095 -0.0005182328 -1.2646085e-07 3.4629098e-05
000080 75 73 dc 39 5c 56 a4 b6 ce 7e 18 b9 34 47 02 39
       0.00042047692 -4.8976344e-06 -0.00014543088 0.00012424291
000090 04 00 00 00 37 2b 3e 39 04 00 00 80 23 6e 79 b9
       6e-45 0.00018135911 -6e-45 -0.0002378752
0000a0 04 00 00 00 04 00 00 80 32 ae 41 b8 5a 79 c1 38
       6e-45 -6e-45 -4.6177018e-05 9.225561e-05
0000b0 1f 15 ce 39 5a 85 85 38 4e 50 93 b9 ae 96 bb b7
       0.00039307118 6.366773e-05 -0.00028097857 -2.2362303e-05
0000c0 70 ec 37 b9 04 00 00 80 e2 0e 53 b6 04 00 00 80
       -0.0001754032 -6e-45 -3.1450113e-06 -6e-45
0000d0 0a f0 1a ba 04 00 00 00 15 ae 88 39 04 00 00 80
       -0.00059104024 6e-45 0.00026069643 -6e-45
0000e0 00 e9 62 39 1e c2 bd 36 6c a2 14 b9 87 c5 ad b9
       0.00021639839 5.655237e-06 -0.00014174887 -0.000331443
0000f0 9e f4 7a 39 7b c6 db 33 5a 7d da b9 dc 9c be b8
       0.00023932985 1.02340856e-07 -0.00041673594 -9.089123e-05
000100 d6 9d dd 39 62 f7 7f 38 ea 5d 20 39 04 00 00 00
       0.00042270002 6.102713e-05 0.00015293775 6e-45
000110 28 cd 73 b7 62 b7 be b9 b0 9c d5 37 01 0f 86 39
       -1.4531695e-05 -0.00036376255 2.5464542e-05 0.0002556965
000120 13 95 71 b5 04 00 00 00 b6 ef 88 38 db fe 36 39
       -8.999643e-07 6e-45 6.529635e-05 0.00017451814
000130 51 38 8b b9 00 00 00 00 1c 01 ef 37 fe 6c cd b9
       -0.00026554105 0.0 2.8491537e-05 -0.00039181852
000140 04 00 00 00 23 78 20 3a 6d 62 fc 39 04 00 00 00
       6e-45 0.00061214174 0.00048138518 6e-45
000150 11 ec 15 b9 5e 8a 0e 39 a9 24 7e b9 fe f7 e7 b9
       -0.00014297689 0.00013593721 -0.00024236985 -0.00044244522
000160 e4 8d 95 b9 f9 0c 04 39 ec 8e 60 ba 04 00 00 80
       -0.0002852521 0.00012593334 -0.0008566219 -6e-45
000170 95 cf 2c b9 04 00 00 80 89 fd 8d b8 14 fd 34 39
       -0.00016480529 -6e-45 -6.7706285e-05 0.00017260417
000180 78 0e 3a ba 04 00 00 00 a9 36 1e b9 04 00 00 80
       -0.0007097493 6e-45 -0.00015088417 -6e-45
000190 4c 6a 87 b6 a8 7b 27 b9 04 00 00 80 04 00 00 00
       -4.035688e-06 -0.00015972427 -6e-45 6e-45
0001a0 00 bf d4 b6 04 00 00 80 f4 ae 46 b9 f3 d8 7e b9
       -6.3403277e-06 -6e-45 -0.00018947927 -0.00024304148
0001b0 80 d8 00 35 08 9c 94 b6 00 00 00 00 1b a7 05 39
       4.7998765e-07 -4.428908e-06 0.0 0.0001274612
0001c0 fe 83 1d 39 9b 51 1d b7 a2 dd 9e b9 04 00 00 80
       0.00015021858 -9.3769295e-06 -0.00030301238 -6e-45
0001d0 b7 58 4c b9 04 00 00 00 89 2c c9 38 f7 68 85 b7
       -0.00019488005 6e-45 9.592722e-05 -1.5903714e-05
0001e0 f9 c5 b9 b9 e1 0a 8c b9 04 00 00 80 dc 40 3d b8
       -0.0003543345 -0.00026710986 -6e-45 -4.5121516e-05
0001f0 9e 29 2e b9 f2 71 54 38 a7 cb d3 b9 f6 25 dd b9
       -0.00016609437 5.065086e-05 -0.0004039679 -0.00042180688

exp_avg_sq f4 [128]
000000 9a 16 b1 39 9e d3 95 3b 4a a3 90 2b 3d 1a 89 3a
       0.0003377691 0.004572346 1.0277137e-12 0.001046009
000010 f8 c2 d2 2a c8 70 2d 30 0f 6d 1e 3a 2f 95 85 3a
       3.743878e-13 6.3097305e-10 0.00060434727 0.0010191555
000020 29 b3 a9 3c 8f 01 1f 3b 42 60 6a 3b d9 be b3 3c
       0.020715313 0.0024262404 0.003576294 0.02194159
000030 1f 26 05 3d fe 1e 71 3b 92 63 32 39 13 06 7a 3b
       0.03250706 0.0036792154 0.00017012496 0.0038150593
000040 3f 7e 93 3a 9c 62 93 3c 14 a6 e7 3c e2 90 ab 3b
       0.0011252834 0.017991357 0.028277434 0.0052357772
000050 2f 72 23 27 48 75 94 39 d7 c6 db 39 4a 5d 36 3b
       2.2682693e-15 0.0002831614 0.00041919082 0.00278266
000060 82 a2 c6 3a 1e 97 21 3a ee 1f 43 2e 67 a4 87 3a
       0.0015154632 0.0006164181 4.4366226e-11 0.0010348678
000070 6c 79 05 3a a1 eb 54 3c 48 cf 11 34 d7 b7 e2 3b
       0.00050916406 0.012995631 1.3579586e-07 0.006918888
000080 73 54 0f 3d d5 f7 a9 35 67 df 36 3c 6b a4 d4 3b
       0.034992646 1.266361e-06 0.011161662 0.0064893267
000090 4b 1e 6c 28 5e 00 7e 3a 33 1e 06 31 48 e6 c8 3b
       1.31072004e-14 0.0009689386 1.9516733e-09 0.0061309673
0000a0 69 95 2c 1c 08 3f bb 25 3d a9 cc 3a e2 99 0e 3c
       5.7103134e-22 3.248204e-16 0.0015614402 0.008703681
0000b0 4f 36 90 3a d6 9e a9 3a aa fb 05 3c 46 ea 8b 37
       0.0011002513 0.0012941014 0.008177677 1.6679183e-05
0000c0 aa 2c 87 39 5b e8 d0 37 71 3c c9 37 8c 4c 54 2f
       0.00025782484 2.4903731e-05 2.3989212e-05 1.9308483e-10
0000d0 30 ee 93 3c a0 00 dc 25 75 6f 89 38 4c 95 2a 1a
       0.018057913 3.816434e-16 6.5534296e-05 3.5275777e-23
0000e0 de 8e c4 3a 0d b3 e8 3b b4 b0 5f 38 4c a4 92 3a
       0.0014996191 0.0071014226 5.333191e-05 0.001118788
0000f0 2d 67 81 3a 9d dc be 36 14 d9 4d 3c de 13 05 3b
       0.0009872668 5.688124e-06 0.0125639625 0.0020306031
000100 76 76 41 3c bc ec 97 3b e8 d3 9d 3b 4d e9 f4 25
       0.011808028 0.0046363752 0.004816521 4.2485344e-16
000110 69 59 d4 3b 41 ca 49 3b 26 d1 80 3b a8 77 80 3b
       0.006480385 0.0030790719 0.0039311824 0.003920514
000120 fd 22 08 36 49 9a a8 1f c7 0d 3c 3c e7 fa 56 3a
       2.0285945e-06 7.140601e-20 0.011477894 0.00082008395
000130 de c9 3b 3a 00 00 00 00 9f 24 11 3c 81 cd 1d 3b
       0.00071635644 0.0 0.008858829 0.0024078789
000140 fe 74 2c 33 46 1e 9a 3c e8 79 77 37 e3 58 22 1b
       4.0153274e-08 0.018813264 1.4750731e-05 1.3429047e-22
000150 6c b0 97 39 21 62 5b 39 2b a6 2a 3d dd e8 5d 3b
       0.0002893241 0.00020922023 0.041662376 0.003386072
000160 ff 07 d9 3c 08 99 86 3a f2 02 27 3d 02 e3 ca 2f
       0.02649307 0.0010268996 0.040774293 3.6904885e-10
000170 a0 17 6c 3c ab 10 29 32 73 c6 01 3a 2c 40 9b 3a
       0.0144099295 9.8408846e-09 0.0004950531 0.0011844686
000180 41 eb d3 3c 8d ea ba 21 85 02 75 39 d4 c6 27 27
       0.025869014 1.2665935e-18 0.0002336596 2.328369e-15
000190 44 40 48 37 ea 8e 34 3a 70 78 c3 27 01 6e 05 2f
       1.1935892e-05 0.0006887751 5.425395e-15 1.2135361e-10
0001a0 0c 8f 8b 38 6b 20 4b 34 0f 83 d5 3b 55 4b 83 3b
       6.654681e-05 1.8917642e-07 0.0065158675 0.004006783
0001b0 70 e9 af 3a 20 1b a3 32 00 00 00 00 d8 b3 36 3a
       0.001342101 1.8988032e-08 0.0 0.0006969548
0001c0 12 5e ad 3b 45 aa 52 37 ec 2d 82 39 d1 28 1b 33
       0.005290755 1.2556619e-05 0.00024829747 3.6125872e-08
0001d0 c5 0d e8 3a 00 ee fe 29 4b 5e ad 3a c8 e9 82 3a
       0.0017704299 1.13211523e-13 0.0013226954 0.0009987885
0001e0 a1 d4 ad 3b 63 f1 f4 3a ad 98 13 30 29 48 18 3a
       0.0053048884 0.0018687662 5.3695254e-10 0.00058090925
0001f0 52 68 22 3a d6 43 53 3a 33 b9 8d 3c 04 3d cb 3c
       0.00061953545 0.00080591196 0.017300224 0.024809368
