RL_methods/REINFORCE_TOP_DOWN/policy_net.pth (torch, 309858 bytes, 18 tensors)

weight f4 [128, 54]
0.121223494 0.11003632 0.20627123 0.241156 0.055027485 0.008479378 -0.2746053 -0.10795402
-0.15882187 -0.21260457 0.014193848 -0.047112435 -0.050533425 -0.28239402 0.20703197 -0.23674381
0.16717623 -0.24831825 0.25522703 0.21276066 0.084658876 0.08459572 0.0058805044 0.34778076
0.017361531 0.17922749 -0.15887967 0.0919491 -0.18190779 -0.043102637 -0.2800183 -0.13999367
-0.12362374 -0.09294387 0.14377666 -0.048839975 0.088727556 -0.28301588 -0.13601208 -0.22355047
0.063041106 -0.13662016 0.057845015 -0.16110912 -0.29710972 0.00020631746 0.2194506 -0.07857134
0.10487989 -0.26564437 0.18276162 -0.112554155 -0.032283865 0.2088993 -0.21574801 0.22319798
-0.1451286 0.090488076 0.20915028 -0.14222634 -0.124937624 0.08109795 -0.16732723 0.20354776
0.33710968 -0.19176432 0.17216589 0.040656522 -0.0914334 0.25586754 0.34617063 0.27377155
-0.18942955 0.33678767 -0.28938216 0.18593003 0.3046176 -0.17942338 0.03316701 -0.3221408
0.058785874 0.27018374 0.11701019 0.25713867 0.22018193 -0.09537424 -0.22692074 0.14170668
0.06594623 0.3479112 -0.069779254 -0.24357156 0.05616649 -0.053839758 0.3047602 0.11291084
0.18572594 -0.048990913 -0.11124721 -0.19884042 0.22036593 -0.0254738 -0.08135305 -0.19460045
0.020417511 -0.03138794 0.11952437 -0.22161071 0.29047826 0.15642354 -0.0378437 -0.15350814
-0.15839283 -0.1343009 -0.21931732 0.15480402 -0.046584018 -0.21324779 -0.08134543 0.03243151
0.03797783 -0.1761688 -0.252551 0.20156999 -0.31732178 -0.14081675 0.2396021 0.23796974
0.3056182 -0.11196595 -0.033707157 -0.10094339 0.2708536 0.29976657 -0.05460782 -0.26608366
0.0074580926 -0.15817606 -0.07892203 -0.012000232 -0.08320596 0.03261578 -0.33371127 -0.32007658
-0.20433918 -0.10323119 -0.3019246 -0.25724578 -0.16765477 -0.09614254 -0.07229926 0.29545355
0.29849494 -0.25118333 0.08267367 -0.15919355 -0.21046688 -0.14800479 0.2035943 -0.28832096
-0.020712791 0.051214885 -0.06952391 0.1824422 0.20715019 -0.10693613 -0.120866865 -0.18867916
-0.14235666 0.0731452 -0.14647575 -0.32114834 0.34980434 0.35116416 -0.31637663 0.13371624
-0.11730687 0.2704562 -0.23410542 -0.2977615 -0.21037236 -0.055165112 -0.08697096 0.32366642
-0.078419976 -0.2937526 0.2653464 0.011152181 -0.16315788 0.2797574 -0.163279 -0.21221635
0.31919876 0.24571006 -0.2255557 0.09650546 0.32708043 0.24820863 -0.14961793 -0.29143006
-0.27960908 0.18981606 0.13195202 0.18937635 -0.08784491 -0.26871803 -0.0086594485 0.040792894
0.025328523 0.1532136 0.1835001 0.015286774 0.09474502 0.110844515 0.09778143 0.13704316
-0.06890373 -0.24184522 -0.09634404 0.22196893 0.19922438 0.20806743 0.07342391 0.14199536
0.056319125 -0.08369866 0.112725675 0.30752346 -0.3021586 -0.023799764 -0.007359583 -0.19723675
0.2574625 0.0515337 -0.13595425 -0.13231619 -0.14956002 0.121039696 -0.28639835 0.17022154
-0.30843866 0.17441116 -0.24926996 -0.2963058 -0.07125773 0.31842825 0.2057674 -0.10059393
0.28926855 -0.32626355 -0.11191082 -0.21632072 -0.17760131 0.01710224 -0.17040414 0.08985046
00000000: 0644 f83d b95a e13d c438 533e 99f1 763e
00000010: 8064 613d 17ed 0a3c 1199 8cbe ff16 ddbd
00000020: 33a2 22be 03b5 59be 508d 683c f8f8 40bd
00000030: 23fc 4ebd f395 90be 3000 543e f86c 72be
00000040: 3f30 2b3e 2447 7ebe 1ead 823e eedd 593e
00000050: a261 ad3d 8540 ad3d 3fb1 c03b 5210 b23e
00000060: c539 8e3c 6987 373e 5ab1 22be cf4f bc3d
00000070: 0946 3abe 648c 30bd 8f5e 8fbe 805a 0fbe
00000080: 722e fdbd 5b59 bebd 303a 133e 6d0c 48bd
00000090: cbb6 b53d 75e7 90be c046 0bbe 6aea 64be
000000a0: b21b 813d 28e6 0bbe e5ee 6c3d caf9 24be
000000b0: c41e 98be ec56 5839 a8b7 603e 03ea a0bd
000000c0: 45cb d63d 8a02 88be dd25 3b3e cb82 e6bd
000000d0: 163c 04bd b3e9 553e 0ced 5cbe 038e 643e
000000e0: 979c 14be d051 b93d 7e2b 563e c8a3 11be
000000f0: 4cdf ffbd af16 a63d d457 2bbe d36e 503e
00000100: a499 ac3e de5d 44be 414c 303e 7487 263d
00000110: 6f41 bbbd 1201 833e 473d b13e c92b 8c3e
00000120: d2f9 41be 6f6f ac3e e629 94be 7164 3e3e
00000130: d7f6 9b3e c3ba 37be 21da 073d a4ef a4be
00000140: 75c9 703d 8655 8a3e 0aa3 ef3d aea7 833e
00000150: 5f77 613e 9253 c3bd e95d 68be 8e1b 113e
00000160: d10e 873d 6b21 b23e 6de8 8ebd d36a 79be
00000170: d50e 663d 1487 5cbd 8709 9c3e cc3d e73d
00000180: f12e 3e3e b2aa 48bd 94d5 e3bd d39c 4bbe
00000190: 9ba7 613e 6eae d0bc 6e9c a6bd 5745 47be
000001a0: a042 a73c a490 00bd 31c9 f43d ebed 62be
000001b0: 91b9 943e 7e2d 203e ff01 1bbd 3d31 1dbe
000001c0: bb31 22be 2d86 09be b894 60be f284 1e3e
000001d0: e2ce 3ebd a15d 5abe 6f98 a6bd e7d6 043d
000001e0: a48e 1b3d 9865 34be 5d4e 81be 5d68 4e3e
000001f0: 0078 a2be 4432 10be 415a 753e 57ae 733e
00000200: fd79 9c3e 674e e5bd 8410 0abd 68bb cebd
00000210: 53ad 8a3e 017b 993e 73ac 5fbd 1e3c 88be
00000220: 0463 f43b e8f8 21be e0a1 a1bd 9f9c 44bc
00000230: e367 aabd 2098 053d 34dc aabe 14e1 a3be
00000240: 4a3e 51be e06a d3bd dc95 9abe b8b5 83be
00000250: b1ad 2bbe 61e6 c4bd a211 94bd b045 973e
00000260: 54d4 983e 1a9b 80be d050 a93d a203 23be
00000270: a184 57be 918e 17be 067b 503e ce9e 93be
00000280: dfad a9bc b3c6 513d 8d62 8ebd 21d2 3a3e
00000290: 2e1f 543e 5401 dbbd 0c89 f7bd 1c35 41be
000002a0: f2c5 11be 27cd 953d bdfd 15be 8e6d a4be
000002b0: 8e19 b33e cacb b33e 1efc a1be e9ec 083e
000002c0: 963e f0bd 3c79 8a3e 55b9 6fbe 3274 98be
000002d0: da6b 57be d0f4 61bd d51d b2bd 9bb7 a53e
000002e0: a79a a0bd be66 96be 7cdb 873e a3b7 363c
000002f0: dc12 27be 5d3c 8f3e 9c32 27be 3e4f 59be
00000300: 056e a33e 6b9b 7b3e 13f8 66be a8a4 c53d
00000310: 1677 a73e 672a 7e3e 7135 19be 5236 95be
00000320: ec28 8fbe 245f 423e 6e1e 073e e0eb 413e
00000330: 08e8 b3bd 6995 89be 5ce0 0dbc 7316 273d
00000340: c37d cf3c 07e4 1c3e 73e7 3b3e 6175 7a3c
00000350: ad09 c23d 7302 e33d a141 c83d 0b55 0c3e
00000360: 661d 8dbd 46a6 77be 0650 c5bd d34b 633e
00000370: 7a01 4c3e a10f 553e 465f 963d 3b67 113e
00000380: e2ae 663d 346a abbd b8dc e63d b773 9d3e
00000390: 88b4 9abe b9f7 c2bc a828 f1bb 6ef8 49be
000003a0: 20d2 833e 0015 533d 9737 0bbe e57d 07be
000003b0: 4326 19be a9e3 f73d cea2 92be 8e4e 2e3e
000003c0: aceb 9dbe d798 323e a040 7fbe 65b5 97be
000003d0: 93ef 91bd 0709 a33e b0b4 523e 3104 cebd
000003e0: 021b 943e 040c a7be 8031 e5bd 2e83 5dbe
000003f0: 1edd 35be ff19 8c3c 6c7e 2ebe 8503 b83d

bias f4 [128]
0.021845253 0.045225896 -0.0015653169 0.029695632 0.008139926 0.009952438 0.045426343 -0.018751184
-0.003272986 0.17929809 0.00068868324 -0.0067959996 0.1304127 -0.0029354366 0.104630515 -0.028470967
-0.03313704 0.10080022 0.0047046873 0.01926572 0.07017765 -0.016238911 0.01 0.0030726476
-0.05590102 0.044106476 -0.018835787 0.031245016 0.0307976 0.08836581 -0.025909213 0.11438883
0.025338877 0.112706 0.02742716 -0.0026327043 0.055112123 -0.00035278537 0.066495016 0.056643147
-0.018713495 0.04966161 0.024443652 -0.008525334 0.019158706 0.00068787154 0.11591449 -0.015082609
0.03326084 0.016246444 -0.00092011027 -0.0081072515 -0.0014797549 0.048431482 0.007263778 0.08779619
0.0064404546 0.011511803 0.0029887194 0.023175713 0.07938376 0.044978425 0.0024070835 0.004168134
-0.011199483 -0.022055328 0.053733155 0.084327556 0.008009821 0.05931688 -0.007687864 -0.006362573
0.14876458 0.012612802 0.016230064 0.0180738 0.06259667 0.028005429 0.009285469 -0.0061588404
0.12191413 0.064520955 0.070841886 0.04750258 0.069526345 0.05272461 0.006926411 0.037182838
-0.0011053158 0.08634312 0.05538987 -0.0030318408 -0.015527906 0.016465452 0.030272832 0.14885332
0.07439034 0.013685124 0.044557072 0.0010207787 0.071947865 0.05700366 -0.008327309 0.004499618
0.094586134 -0.0037334317 0.06254484 0.022081133 0.06511943 0.0054206545 0.018300239 0.08307823
0.04184107 0.053712424 0.030074263 -0.022100812 -0.028965244 0.1043074 0.12236027 0.0034313858
-0.001145764 0.07284468 -0.012962027 0.03547493 0.005705201 -0.015928643 -0.05250884 -0.008806001
00000000: d1f4 b23c ca3e 393d 522b cdba 4144 f33c
00000010: 535d 053c 8d0f 233c f910 3a3d 159c 99bc
00000020: 987f 56bb eb99 373e c088 343a fab0 debb
00000030: e88a 053e 7460 40bb 8648 d63d f23b e9bc
00000040: b4ba 07bd 5970 ce3d c729 9a3b 25d3 9d3c
00000050: 4db9 8f3d 7707 85bc 0ad7 233c 795e 493b
00000060: 78f8 64bd fea8 343d 824d 9abc 8cf5 ff3c
00000070: 404b fc3c 22f9 b43d 8f3f d4bc b144 ea3d
00000080: 7a93 cf3c 67d2 e63d ecae e03c 7389 2cbb
00000090: 40bd 613d 0df6 b8b9 8a2e 883d a502 683d
000000a0: 0b4d 99bc f969 4b3d 0e3e c83c d8ad 0bbc
000000b0: b8f2 9c3c 4752 343a 9364 ed3d 0c1d 77bc
000000c0: 853c 083d 4317 853c 8e33 71ba 47d4 04bc
000000d0: 56f4 c1ba 1760 463d fc04 ee3b 7dce b33d
000000e0: 730a d33b 009c 3c3c 64de 433b feda bd3c
000000f0: f493 a23d 4c3b 383d 29c0 1d3b d894 883b
00000100: 097e 37bc 60ad b4bc 4c17 5c3d edb3 ac3d
00000110: a03b 033c 42f6 723d 7aea fbbb 217d d0bb
00000120: be55 183e eda5 4e3c e9f4 843c 810f 943c
00000130: af32 803d a46b e53c 1422 183c 19d0 c9bb
00000140: 1eae f93d 9023 843d 8d15 913d 1192 423d
00000150: d463 8e3d c3f5 573d f2f6 e23b 084d 183d
00000160: 3ee0 90ba a9d4 b03d 7de0 623d d9b1 46bb
00000170: c268 7ebc 8ee2 863c bbfe f73c 016d 183e
00000180: f659 983d 9237 603c 7a81 363d a6cb 853a
00000190: 6759 933d ab7c 693d 446f 08bc 8871 933b
000001a0: 60b6 c13d 97ac 74bb 8217 803d 7ee3 b43c
000001b0: 565d 853d bf9f b13b 62ea 953c eb24 aa3d
000001c0: 8b61 2b3d 8f01 5c3d 4d5e f63c c30c b5bc
000001d0: 8548 edbc 1e9f d53d 0598 fa3d 1ae1 603b
000001e0: 762d 96ba 972f 953d af5e 54bc 294e 113d
000001f0: b2f2 ba3b c97c 82bc 8213 57bd 0c47 10bc

weight f4 [128, 128]
-0.090628296 -0.17887874 0.04715224 0.03426951 -0.05005083 -0.1658052 0.20712845 0.14619382
0.22327152 0.121311456 -0.1294711 -0.17553954 0.17043577 0.063223004 0.16534851 -0.042904016
0.0058039795 -0.13585192 0.077909395 -0.03453876 0.07962481 -0.2325995 -0.1944157 0.08127166
-0.18290645 0.24907091 0.19191264 -0.095005766 -0.14704558 -0.1958196 0.14109829 0.005049453
-0.13439174 -0.013117121 -0.1848855 -0.17883533 -0.11885912 -0.032533888 -0.009473238 -0.14284332
0.014637347 0.03606214 0.18964237 -0.057215095 -0.06905382 0.101245046 -0.123900406 0.21219623
0.067033894 -0.14299265 -0.10066168 -0.17008065 0.17571752 0.5178795 0.16721998 0.01233986
0.14397229 0.16151957 0.14334862 0.095208116 0.011610195 0.13292229 -0.08433876 -0.029153477
0.19422321 0.010317044 -0.14312823 0.15859336 -0.109523766 0.084123224 -0.0029580484 -0.1830472
0.12199831 -0.09253853 -0.039143942 0.04510375 0.099284485 -0.18215677 -0.1514259 0.21946217
0.20879793 0.17068838 -0.14344457 0.082894474 0.04472904 0.12594464 0.029692313 -0.09595439
0.054714065 -0.07228649 -0.13249716 0.043760903 -0.15551125 -0.084113054 0.0069569363 -0.14980774
-0.07250029 0.0029397816 0.1905282 0.15491626 -0.10656069 0.32064894 0.19505526 0.024247602
-0.19188692 0.095425636 -0.18768263 -0.19510053 0.07775511 -0.033097625 -0.032616828 0.22191197
0.11265942 0.045748685 -0.057493143 0.038309287 0.1778096 0.10368593 0.03432059 -0.056127008
0.16458054 0.11380612 -0.10288928 -0.029700186 -0.10205104 0.16519365 -0.20610827 0.117361166
0.15035875 0.25449538 0.011698077 -0.057134096 0.03405654 0.06994693 0.14417647 0.104708076
-0.079830006 0.19282347 0.11501899 0.047145512 0.16288476 -0.0865757 0.15287493 -0.14234318
-0.0936767 0.048348963 0.18814324 0.101661585 0.07132375 -0.012850817 0.08642219 -0.13877179
-0.034329124 -0.22555967 0.03774322 0.19430807 -0.11154653 0.19884022 0.0023249257 -0.12514593
-0.16011555 -0.10928318 -0.061930664 -0.08973739 -0.16198732 -0.2164494 0.058021978 -0.11142442
-0.1900291 -0.022116479 0.041424423 0.21290524 -0.1882407 0.08448728 0.18422718 -0.11701985
0.00799386 0.07255851 -0.027862847 -0.15265058 0.108306475 -0.024830425 -0.17826858 -0.019505963
0.12775062 0.047413632 -0.10179274 -0.113385044 0.12841305 -0.17786969 -0.09558137 -0.04336151
-0.22073062 0.12736626 0.18615206 0.14477079 -0.057120916 -0.019964198 -0.019270059 0.1786343
-0.076474115 -0.111260094 0.10702493 -0.080637135 -0.032186277 0.17137147 -0.0700566 0.10585266
0.21735963 0.26061028 0.02957883 0.18240644 -0.04541526 -0.18906926 -0.101749115 -0.019890195
0.10754829 0.074330755 0.16445443 0.19724247 0.08020039 -0.18044433 0.053073198 0.14794977
0.19538502 0.032317437 -0.13904981 -0.12946394 -0.10905333 0.11996015 0.06709492 0.09309434
0.06092717 0.1307351 -0.1435686 -0.13745612 0.13409024 0.22085811 0.099702656 -0.13198875
-0.16940258 -0.13844272 0.12808345 -0.18428177 -0.20126301 0.23290199 0.16699272 -0.16197674
0.034950238 0.21943581 0.26443067 0.015698493 -0.042476024 0.1719118 0.18602642 0.06133086
00000000: 549b b9bd fd2b 37be b522 413d 305e 0c3d
00000010: 1902 4dbd d7c8 29be 7b19 543e d5b3 153e
00000020: 4aa1 643e 2472 f83d 1294 04be a3c0 33be
00000030: b786 2e3e 107b 813d 1f51 293e 1fbc 2fbd
00000040: 4f2f be3b c41c 0bbe f68e 9f3d 8478 0dbd
00000050: 5512 a33d 902e 6ebe e914 47be c271 a63d
00000060: d44b 3bbe 720c 7f3e bf84 443e 6292 c2bd
00000070: 1e93 16be ef84 48be 127c 103e e275 a53b
00000080: fd9d 09be 31e9 56bc a052 3dbe 9c20 37be
00000090: 696c f3bd 4142 05bd a435 1bbc 8545 12be
000000a0: 7cd1 6f3c e5b5 133d 9c31 423e 605a 6abd
000000b0: 176c 8dbd 9059 cf3d 7fbf fdbd f849 593e
000000c0: 1149 893d aa6c 12be b627 cebd 9f29 2ebe
000000d0: 4bef 333e c093 043f b73b 2b3e 202d 4a3c
000000e0: 796d 133e 6365 253e fbc9 123e 79fc c23d
000000f0: b038 3e3c c81c 083e cdb9 acbd 46d3 eebc
00000100: 73e2 463e d208 293c 3590 12be 4c66 223e
00000110: ff4d e0bd cc48 ac3d d1db 41bb ba70 3bbe
00000120: 40da f93d d784 bdbd 6655 20bd b6be 383d
00000130: aa55 cb3d 4e87 3abe 640f 1bbe b1ba 603e
00000140: 20cf 553e efc8 2e3e 22e3 12be 94c4 a93d
00000150: cc35 373d a2f7 003e 4b3d f33c bc83 c4bd
00000160: db1b 603d f00a 94bd 56ad 07be a23e 333d
00000170: 573e 1fbe 7743 acbd 03f7 e33b 3367 19be
00000180: 087b 94bd 5aa9 403b d319 433e 5ea2 1e3e
00000190: 7e3c dabd 192c a43e 91bc 473e e8a2 c63c
000001a0: 017e 44be 846e c33d e02f 40be 6fc8 47be
000001b0: 123e 9f3d 6091 07bd 3999 05bd e43c 633e
000001c0: fbb9 e63d f962 3b3d ee7d 6bbd 33ea 1c3d
000001d0: b813 363e 4a59 d43d bf93 0c3d 6fe5 65bd
000001e0: cd87 283e 2f13 e93d 9db7 d2bd ce4d f3bc
000001f0: 2300 d1bd 8628 293e 0c0e 53be 0d5b f03d
00000200: a5f7 193e 384d 823e 4ba9 3f3c 7105 6abd
00000210: df7e 0b3d 5640 8f3d ffa2 133e 3071 d63d
00000220: ea7d a3bd 8473 453e 148f eb3d a71b 413d
00000230: 43cb 263e 9a4e b1bd 3f8b 1c3e 69c2 11be
00000240: 92d9 bfbd 9009 463d 9fa8 403e f333 d03d
00000250: 3012 923d 3c8c 52bc 1efe b03d 311a 0ebe
00000260: b29c 0cbd 1df9 66be a298 1a3d b2f8 463e
00000270: 8272 e4bd c59c 4b3e c85d 183b 4126 00be
00000280: 55f5 23be dccf dfbd 02ab 7dbd 3dc8 b7bd
00000290: 01e0 25be e9a4 5dbe 74a8 6d3d 7c32 e4bd
000002a0: fd96 42be 9e2d b5bc a8ac 293d d503 5a3e
000002b0: 2cc2 40be ab07 ad3d 0da6 3c3e 1aa8 efbd
000002c0: aef8 023c 8e99 943d a040 e4bc 6f50 1cbe
000002d0: c9cf dd3d 2d69 cbbc 0a8c 36be f8ca 9fbc
000002e0: 0fd1 023e cc34 423d b678 d0bd 6b36 e8bd
000002f0: b67e 033e 7923 36be 2ac0 c3bd d79b 31bd
00000300: 3507 62be 4d6c 023e a59e 3e3e cb3e 143e
00000310: 9ff7 69bd f58b a3bc 3edc 9dbc e9eb 363e
00000320: 769e 9cbd 55dc e3bd e32f db3d 1525 a5bd
00000330: c2d5 03bd 017c 2f3e d679 8fbd 48c9 d83d
00000340: 8693 5e3e b66e 853e 4d4f f23c c1c8 3a3e
00000350: 5a05 3abd 5f9b 41be d761 d0bd c3f0 a2bc
00000360: 4742 dc3d b93a 983d be66 283e eef9 493e
00000370: 1a40 a43d 66c6 38be 4863 593d 2580 173e
00000380: 0313 483e 4a5f 043d 1363 0ebe 3292 04be
00000390: 5a57 dfbd abad f53d 1069 893d 3fa8 be3d
000003a0: c58e 793d 6cdf 053e a603 13be 4cc1 0cbe
000003b0: f44e 093e a128 623e e830 cc3d 0f28 07be
000003c0: df77 2dbe eec3 0dbe 4f28 033e 5cb4 3cbe
000003d0: e417 4ebe dc7d 6e3e 2400 2b3e 3bdd 25be
000003e0: fb27 0f3d c8b3 603e 7563 873e 209a 803c
000003f0: 57fb 2dbd a609 303e b67d 3e3e 1136 7b3d

bias f4 [128]
0.0068243914 0.07954422 0.04274908 0.07983893 0.071467504 5.504839e-05 0.0011494075 0.023767048
0.0033949877 0.06163471 0.01 0.06606887 0.12179946 0.103264146 0.015474334 0.05046669
0.04347466 -0.042400584 0.011706762 -0.025478376 -0.005894339 0.0071590315 0.020793024 0.031584077
0.021060688 0.09768493 0.021612523 0.027851848 0.012885166 0.033353668 0.05808848 -0.00954829
0.010087871 -0.0021086172 0.049409468 -0.025508527 0.021231536 0.06684495 0.02970748 0.0062974035
0.0055610184 0.05024374 0.0038837844 0.004664048 0.047152825 0.045929607 0.085717045 0.0026367842
-0.012709475 0.0015156913 0.0029903941 0.04193866 0.04686112 -0.0206211 0.037484962 -0.01159806
0.044699516 0.013782799 0.057729103 0.04249166 0.029755803 0.0070109293 0.048495255 0.083084546
0.028932672 0.017418353 0.033664573 -0.018568944 0.00017505599 0.006899551 0.0027930147 0.013297898
0.37857476 0.01263689 0.05227609 0.07343578 0.044158895 0.0034547322 0.04180297 0.014814296
0.05480901 0.096038565 0.053923983 0.083131865 0.05670671 0.00985455 0.009043892 0.06620204
0.037959184 0.0025980335 0.1424525 0.07503218 -0.007408942 0.09606754 0.030453097 -0.016967045
-0.025197662 0.0067499285 -0.003661034 0.029232232 0.039766304 0.06469706 0.055593576 -0.00897814
0.078510664 -0.008552557 -0.04505465 -0.008504021 0.09045186 0.010947079 -0.011836177 0.05942461
0.012689314 0.048017282 -0.028437737 0.056114405 0.0023671617 0.10134767 0.012381704 -0.004815118
0.027030604 0.08084222 -0.025013454 0.006599484 0.02955897 0.02123548 0.018954558 0.018258665
00000000: 259f df3b 14e8 a23d a919 2f3d 9882 a33d
00000010: 8e5d 923d c2e3 6638 b7a7 963a 1db3 c23c
00000020: 717e 5e3b ad74 7c3d 0ad7 233c 1e4f 873d
00000030: ff71 f93d 277c d33d 1088 7d3c 29b6 4e3d
00000040: 7c12 323d 3cac 2dbd b8cd 3f3c 07b8 d0bc
00000050: 4d25 c1bb 4f96 ea3b 2256 aa3c 4e5e 013d
00000060: 7787 ac3c 090f c83d bf0c b13c 8f29 e43c
00000070: 4e1c 533c db9d 083d 30ee 6d3d 6e70 1cbc
00000080: 9947 253c ba30 0abb 9561 4a3d 42f7 d0bc
00000090: c2ed ad3c 01e6 883d 1a5d f33c 735a ce3b
000000a0: 3439 b63b 61cc 4d3d 1787 7e3b dfd4 983b
000000b0: 5223 413d af20 3c3d 6b8c af3d e6cd 2c3b
000000c0: 673b 50bc 29aa c63a 7dfa 433b dfc7 2b3d
000000d0: 72f1 3f3d 95ed a8bc d589 193d ca05 3ebc
000000e0: d716 373d 40d1 613c 5a75 6c3d bc0b 2e3d
000000f0: 71c2 f33c f0bb e53b f6a2 463d 3b28 aa3d
00000100: 3604 ed3c efb0 8e3c dde3 093d e61d 98bc
00000110: 3c8f 3739 a115 e23b 030b 373b 6ddf 593c
00000120: 8dd4 c13e f50a 4f3c 741f 563d 8065 963d
00000130: f5df 343d ca68 623b 9739 2b3d a9b7 723c
00000140: 6a7f 603d deaf c43d 65df 5c3d 0a41 aa3d
00000150: 4c45 683d fa74 213c d52c 143c ef94 873d
00000160: 177b 1b3d c543 2a3b 11df 113e 79aa 993d
00000170: b6c6 f2bb 0fbf c43d c678 f93c 79fe 8abc
00000180: 546b cebc 812e dd3b f5ed 6fbb 6f78 ef3c
00000190: fee1 223d e47f 843d 17b6 633d 0c19 13bc
000001a0: 33ca a03d 0620 0cbc 3a8b 38bd 7354 0bbc
000001b0: d33e b93d 615b 333c 86ec 41bc 3867 733d
000001c0: d7e6 4f3c c5ad 443d 42f6 e8bc 38d8 653d
000001d0: 6222 1b3b 5e8f cf3d a1dc 4a3c 23c8 9dbb
000001e0: 496f dd3c 9b90 a53d 04e9 ccbc 7c40 d83b
000001f0: a725 f23c 08f6 ad3c 9746 9b3c 3293 953c

weight f4 [12, 128]
0.06348101 0.043503247 -0.13112003 0.17659248 -0.026055295 0.17962022 -0.15948144 0.06496097
0.0137549555 -0.118508026 0.0014201403 0.14907318 -0.09969482 0.17811431 0.027862584 0.1066724
-0.07466122 0.05832819 0.010230552 0.15443698 0.028529692 -0.16679451 -0.029401705 0.11434203
-0.020932987 -0.11849806 0.14373347 0.12995896 0.15350002 -0.1702831 -0.02998124 0.16296266
-0.0024229267 -0.006384875 -0.011635276 0.058152914 0.11760416 -0.051109195 -1.4954342e-05 -0.09835111
0.12151937 0.13261381 0.016360836 0.15196554 -0.0570276 0.1739645 0.02261193 0.15972614
0.14054969 -0.0363811 0.21500395 -0.18162197 0.068751976 -0.07350526 -0.15370552 -0.03774369
0.1755724 -0.081198014 0.13199513 -0.10358685 -0.15367076 0.033750787 0.24259785 0.34316868
0.21510759 0.22748542 0.1491868 0.04098096 0.13263 0.11709566 0.03869783 -0.108887404
0.09288761 -0.043268077 0.16241507 0.098499894 0.055302862 -0.110985376 0.08158557 0.025112288
-0.1517089 -0.041351695 -0.035347342 0.055601966 -0.11129331 0.4515633 0.28788435 0.03476882
0.09526739 0.17199972 0.21152201 0.2254353 0.09984846 -0.17242515 -0.102185294 0.0991561
0.12254665 0.17664756 -0.16006164 0.301273 0.14226751 0.11351093 -0.084292 -0.13806392
0.13561131 -0.16569304 -0.12346451 -0.11415659 0.19188015 -0.13930081 -0.10512451 -0.18918034
-0.09838724 0.14036001 0.024623038 -0.16827573 -0.08017246 -0.0718691 -0.08125216 0.20936894
-0.120940365 -0.02692497 0.19282362 0.18345647 0.23939572 0.2625691 -0.044558894 0.17291282
0.26573545 0.031788457 0.11704315 -0.17105569 0.15439601 0.09678318 0.15431929 0.2280284
0.00095340266 0.11126446 0.1699398 -0.010152131 -0.01606945 0.41190276 0.25127646 0.34662217
0.14862491 0.3504482 0.33738235 0.48447487 0.15586531 -0.055808343 0.2741382 0.21589883
0.18560115 0.30741072 0.23449025 -0.048283264 -0.17264257 0.08737715 0.06475829 0.14732352
0.12584208 0.14719719 -0.060162496 0.30170488 0.25468045 -0.010085623 -0.079961866 0.167658
0.3207204 0.19841975 -0.08035703 -0.124875866 0.24074629 0.32299116 0.24141501 0.21430694
0.29880467 0.09757167 -0.023916302 0.041930903 0.12011405 -0.1341571 0.35568413 0.13922496
0.07070265 0.32381836 0.59617794 0.37365785 0.22907843 0.20879376 -0.0015170295 0.08325015
0.22704667 0.04073767 -0.008351645 -0.13626269 -0.15280978 0.30746526 0.107058145 0.22393826
0.19165513 -0.16064163 0.12667856 -0.06318747 0.34807402 0.39466137 0.18059042 0.23713408
0.21790002 0.27655533 0.12593238 -0.0091373 0.00038655874 0.18476513 0.18199588 0.031327993
0.11552831 0.07245637 0.23727302 0.2655394 -0.12867758 0.03650639 0.14341387 0.01946096
0.2895764 0.07949219 0.09213546 0.28398624 0.31113735 0.15895484 -0.053071637 -0.009685348
0.10944537 -0.053786106 0.23251697 0.09381424 0.3138733 0.26136974 0.029014427 0.22048186
0.08923937 0.11003394 -4.161816e-05 0.40026912 -0.053402558 0.08221074 0.22720024 0.14679818
0.38720134 0.22826679 -0.05773572 0.31564894 0.13682385 0.07218373 0.19669087 0.10027869
00000000: 5502 823d 7630 323d 5444 06be a9d4 343e
00000010: ea71 d5bc 5dee 373e 1a4f 23be 420a 853d
00000020: 775c 613c 56b4 f2bd 0024 ba3a a4a6 183e
00000030: cc2c ccbd 9963 363e 1340 e43c 0f77 da3d
00000040: fbe7 98bd 8ae9 6e3d 0c9e 273c ba24 1e3e
00000050: 1ab7 e93c 2ecc 2abe d8db f0bc 272c ea3d
00000060: a87b abbc 1caf f2bd de2e 133e f613 053e
00000070: 1c2f 1d3e b15e 2ebe 389b f5bc afdf 263e
00000080: f7c9 1ebb 3738 d1bb e2a1 3ebc c031 6e3d
00000090: 73da f03d e057 51bd 69e4 7ab7 4f6c c9bd
000000a0: 26df f83d eacb 073e 2907 863c db9c 1b3e
000000b0: c695 69bd c023 323e a73c b93c 408f 233e
000000c0: 42ec 0f3e 5904 15bd ff29 5c3e 1cfb 39be
000000d0: d6cd 8c3d ed89 96bd fb64 1dbe 2199 1abd
000000e0: 40c9 333e 254b a6bd bb29 073e 5825 d4bd
000000f0: de5b 1dbe 443e 0a3d 926b 783e ceb3 af3e
00000100: 2a45 5c3e f0f1 683e 6dc4 183e a7db 273d
00000110: 29d0 073e d9cf ef3d 9e81 1e3d 5c00 dfbd
00000120: dc3b be3d de39 31bd 2350 263e 50ba c93d
00000130: 4185 623d 4d4c e3bd 5616 a73d 49b8 cd3c
00000140: 9459 1bbe 6560 29bd 60c8 10bd e3be 633d
00000150: bfed e3bd 4e33 e73e 9465 933e c069 0e3d
00000160: 8d1b c33d b220 303e 3a99 583e 83d8 663e
00000170: 597d cc3d 3890 30be 8646 d1bd 5a12 cb3d
00000180: bdf9 fa3d 19e3 343e 33e7 23be 7440 9a3e
00000190: 93ae 113e 6b78 e83d 49a1 acbd a160 0dbe
000001a0: b1dd 0a3e 70ab 29be f6da fcbd eeca e9bd
000001b0: 3b7c 443e dfa4 0ebe 854b d7bd 7eb8 41be
000001c0: 407f c9bd 89ba 0f3e 41b6 c93c 7950 2cbe
000001d0: 7531 a4bd 1b30 93bd 8867 a6bd d064 563e
000001e0: 95af f7bd c191 dcbc 8e73 453e 03dc 3b3e
000001f0: 2724 753e 756f 863e 6383 36bd 0f10 313e
00000200: 7a0e 883e 9d34 023d 52b4 ef3d 3929 2fbe
00000210: fd19 1e3e 4336 c63d e005 1e3e 4780 693e
00000220: c5ed 793a 9fde e33d b304 2e3e 2055 26bc
00000230: 14a4 83bc ebe4 d23e 4fa7 803e 7678 b13e
00000240: 2131 183e f26d b33e 61bd ac3e 170d f83e
00000250: 289b 1f3e 4a97 64bd d85b 8c3e 9514 5d3e
00000260: 3a0e 3e3e f064 9d3e 361e 703e acc4 45bd
00000270: 37c9 30be cbf2 b23d ff9f 843d fadb 163e
00000280: bfdc 003e dcba 163e f36c 76bd 1079 9a3e
00000290: 7a65 823e 2b3e 25bc 0cc3 a3bd 8aae 2b3e
000002a0: 7735 a43e 8c2e 4b3e 3a92 a4bd ebbe ffbd
000002b0: 3286 763e 195f a53e 7f35 773e 4773 5b3e
000002c0: edfc 983e a8d3 c73d 1fec c3bc bdbf 2b3d
000002d0: 5bfe f53d 7b60 09be 3b1c b63e fd90 0e3e
000002e0: 8dcc 903d 85cb a53e 1e9f 183f 1550 bf3e
000002f0: 8993 6a3e 08ce 553e 10d7 c6ba 0e7f aa3d
00000300: ec7e 683e 8bdc 263d 57d5 08bc 7288 0bbe
00000310: 2b7a 1cbe 166c 9d3e 4d41 db3d 1250 653e
00000320: 3e41 443e 3d7f 24be 06b8 013e 6f68 81bd
00000330: c236 b23e 0e11 ca3e b2ec 383e 47d3 723e
00000340: 2f21 5f3e a998 8d3e 6bf4 003e 9db4 15bc
00000350: 09ab ca39 1233 3d3e 215d 3a3e c851 003d
00000360: 1b9a ec3d 0164 943d b3f7 723e c8f4 873e
00000370: 0ec4 03be b987 153d 16db 123e 976c 9f3c
00000380: 5c43 943e cdcc a23d 84b1 bc3d a566 913e
00000390: 654d 9f3e 0fc5 223e a561 59bd 4baf 1ebc
000003a0: e524 e03d d24e 5cbd ee18 6e3e ae21 c03d
000003b0: 00b4 a03e 41d2 853e aaaf ed3c ffc5 613e
000003c0: 21c3 b63d 7959 e13d 298f 2eb8 13f0 cc3e
000003d0: a4bc 5abd 1b5e a83d 2ea7 683e 4352 163e
000003e0: 413f c63e c5be 693e 4a7c 6cbd bd9c a13e
000003f0: 8d1b 0c3e 10d5 933d 5569 493e ea5e cd3d

bias f4 [12]
0.05359817 0.16076276 0.019688014 0.25868505 0.17951249 0.17002684 0.25307813 0.083880395
0.13223216 0.09779442 0.256982 0.20211393
00000000: c189 5b3d fe9e 243e c248 a13c 5e72 843e
00000010: 1fd2 373e 841b 2e3e 7593 813e 7cc9 ab3d
00000020: de67 073e 7148 c83d 2593 833e f4f6 4e3e

exp_avg f4 [128, 54]
6e-45 6e-45 6e-45 6e-45 0.0 6e-45 6e-45 6e-45
6e-45 6e-45 6e-45 6e-45 6e-45 6e-45 6e-45 6e-45
6e-45 6e-45 6e-45 6e-45 6e-45 6e-45 6e-45 6e-45
6e-45 6e-45 6e-45 6e-45 6e-45 6e-45 6e-45 6e-45
6e-45 6e-45 6e-45 6e-45 -6e-45 6e-45 6e-45 6e-45
6e-45 6e-45 6e-45 6e-45 6e-45 6e-45 6e-45 6e-45
6e-45 6e-45 6e-45 6e-45 6e-45 6e-45 -6e-45 -5.405271e-16
-2.162108e-16 -3.243162e-16 0.0 6e-45 -2.1258309e-16 -1.6959974e-16 -2.3586337e-16 -4.324216e-16
-2.162108e-16 -1.081054e-16 -4.324216e-16 -1.081054e-16 -6e-45 -1.1517493e-16 -1.512745e-16 -3.4849122e-16
-4.324216e-16 -1.081054e-16 -2.162108e-16 -3.243162e-16 -2.162108e-16 -1.08105346e-16 -8.661374e-17 -2.9556918e-16
-2.4679703e-16 -3.243162e-16 -3.243162e-16 -1.081054e-16 -6e-45 -3.243162e-16 -4.324216e-16 -1.2615518e-16
-1.4029425e-16 -2.499023e-16 -4.324216e-16 -2.1621069e-16 6e-45 -2.162108e-16 -4.324216e-16 -4.324216e-16
-5.405271e-16 -3.243162e-16 -1.081054e-16 -4.849216e-16 -4.29316e-16 -4.93494e-16 -5.34116e-16 -5.405271e-16
-4.4646037e-16 -5.373215e-16 -3.1979374e-16 -4.3016034e-16 6e-45 6e-45 6e-45 6e-45
0.0 6e-45 6e-45 6e-45 6e-45 6e-45 6e-45 6e-45
6e-45 6e-45 6e-45 6e-45 6e-45 6e-45 6e-45 6e-45
6e-45 6e-45 6e-45 6e-45 6e-45 6e-45 6e-45 6e-45
6e-45 6e-45 6e-45 6e-45 6e-45 6e-45 6e-45 6e-45
6e-45 6e-45 6e-45 6e-45 6e-45 6e-45 6e-45 6e-45
6e-45 6e-45 6e-45 6e-45 6e-45 6e-45 6e-45 6e-45
6e-45 6e-45 -6e-45 -3.4246045e-16 -1.3698415e-16 -2.0547624e-16 0.0 6e-45
-1.3413013e-16 -1.3719933e-16 -1.1473665e-16 -2.739683e-16 -1.3698415e-16 -6.849208e-17 -2.739683e-16 -6.849208e-17
6e-45 -9.337859e-17 -4.6244598e-17 -2.250847e-16 -2.7396857e-16 -6.849208e-17 -1.3698415e-16 -2.0547624e-16
-1.3698415e-16 -6.849208e-17 -7.0026636e-17 -2.0130283e-16 -1.6187062e-16 -2.0547638e-16 -2.0547624e-16 -6.849208e-17
6e-45 -2.0547624e-16 -2.739683e-16 -4.4925112e-17 -9.469803e-17 -1.8322887e-16 -2.7396857e-16 -1.3698429e-16
6e-45 -1.3698415e-16 -2.739683e-16 -2.739683e-16 -3.4246045e-16 -2.0547624e-16 -6.849208e-17 -2.975353e-16
-2.5261016e-16 -3.4246071e-16 -3.3718248e-16 -3.4246045e-16 -3.4246071e-16 -3.3982173e-16 -1.6362035e-16 -2.5304035e-16
-6e-45 -6e-45 -6e-45 -6e-45 0.0 -6e-45 -6e-45 -6e-45
-6e-45 -6e-45 -6e-45 -6e-45 -6e-45 -6e-45 -6e-45 -6e-45
-6e-45 -6e-45 -6e-45 -6e-45 -6e-45 6e-45 -6e-45 -6e-45
6e-45 -6e-45 -6e-45 6e-45 6e-45 -6e-45 -6e-45 -6e-45
-6e-45 6e-45 -6e-45 -6e-45 -6e-45 6e-45 -6e-45 -6e-45
00000000: 0400 0000 0400 0000 0400 0000 0400 0000
00000010: 0000 0000 0400 0000 0400 0000 0400 0000
00000020: 0400 0000 0400 0000 0400 0000 0400 0000
00000030: 0400 0000 0400 0000 0400 0000 0400 0000
00000040: 0400 0000 0400 0000 0400 0000 0400 0000
00000050: 0400 0000 0400 0000 0400 0000 0400 0000
00000060: 0400 0000 0400 0000 0400 0000 0400 0000
00000070: 0400 0000 0400 0000 0400 0000 0400 0000
00000080: 0400 0000 0400 0000 0400 0000 0400 0000
00000090: 0400 0080 0400 0000 0400 0000 0400 0000
000000a0: 0400 0000 0400 0000 0400 0000 0400 0000
000000b0: 0400 0000 0400 0000 0400 0000 0400 0000
000000c0: 0400 0000 0400 0000 0400 0000 0400 0000
000000d0: 0400 0000 0400 0000 0400 0080 dccb 1ba6
000000e0: 2a46 79a5 a0f4 baa5 0000 0000 0400 0000
000000f0: 7417 75a5 0289 43a5 4af7 87a5 2a46 f9a5
00000100: 2a46 79a5 2a46 f9a4 2a46 f9a5 2a46 f9a4
00000110: 0400 0080 a4c9 04a5 5a68 2ea5 3ae4 c8a5
00000120: 2a46 f9a5 2a46 f9a4 2a46 79a5 a0f4 baa5
00000130: 2a46 79a5 2246 f9a4 bab7 c7a4 5062 aaa5
00000140: d044 8ea5 a0f4 baa5 a0f4 baa5 2a46 f9a4
00000150: 0400 0080 a0f4 baa5 2a46 f9a5 7072 11a5
00000160: 8ebf 21a5 120f 90a5 2a46 f9a5 2246 79a5
00000170: 0400 0000 2a46 79a5 2a46 f9a5 2a46 f9a5
00000180: dccb 1ba6 a0f4 baa5 2a46 f9a4 e6c4 0ba6
00000190: dc7b f7a5 6e3d 0ea6 cef2 19a6 dccb 1ba6
000001a0: f6ae 00a6 54df 1aa6 3a59 b8a5 76f8 f7a5
000001b0: 0400 0000 0400 0000 0400 0000 0400 0000
000001c0: 0000 0000 0400 0000 0400 0000 0400 0000
000001d0: 0400 0000 0400 0000 0400 0000 0400 0000
000001e0: 0400 0000 0400 0000 0400 0000 0400 0000
000001f0: 0400 0000 0400 0000 0400 0000 0400 0000
00000200: 0400 0000 0400 0000 0400 0000 0400 0000
00000210: 0400 0000 0400 0000 0400 0000 0400 0000
00000220: 0400 0000 0400 0000 0400 0000 0400 0000
00000230: 0400 0000 0400 0000 0400 0000 0400 0000
00000240: 0400 0000 0400 0000 0400 0000 0400 0000
00000250: 0400 0000 0400 0000 0400 0000 0400 0000
00000260: 0400 0000 0400 0000 0400 0000 0400 0000
00000270: 0400 0000 0400 0000 0400 0000 0400 0000
00000280: 0400 0000 0400 0000 0400 0080 3e6a c5a5
00000290: 96ee 1da5 e2e5 6ca5 0000 0000 0400 0000
000002a0: 3aa4 1aa5 182e 1ea5 4848 04a5 96ee 9da5
000002b0: 96ee 1da5 96ee 9da4 96ee 9da5 96ee 9da4
000002c0: 0400 0000 fe50 d7a4 fc43 55a4 a4c0 81a5
000002d0: a0ee 9da5 96ee 9da4 96ee 1da5 e2e5 6ca5
000002e0: 96ee 1da5 96ee 9da4 6e78 a1a4 1c16 68a5
000002f0: c69f 3aa5 ece5 6ca5 e2e5 6ca5 96ee 9da4
00000300: 0400 0000 e2e5 6ca5 96ee 9da5 362e 4fa4
00000310: da5b daa4 9e3f 53a5 a0ee 9da5 a0ee 1da5
00000320: 0400 0000 96ee 1da5 96ee 9da5 96ee 9da5
00000330: 3e6a c5a5 e2e5 6ca5 96ee 9da4 7684 aba5
00000340: ae9e 91a5 486a c5a5 5a5f c2a5 3e6a c5a5
00000350: 486a c5a5 d6e4 c3a5 34a4 3ca5 2ade 91a5
00000360: 0400 0080 0400 0080 0400 0080 0400 0080
00000370: 0000 0000 0400 0080 0400 0080 0400 0080
00000380: 0400 0080 0400 0080 0400 0080 0400 0080
00000390: 0400 0080 0400 0080 0400 0080 0400 0080
000003a0: 0400 0080 0400 0080 0400 0080 0400 0080
000003b0: 0400 0080 0400 0000 0400 0080 0400 0080
000003c0: 0400 0000 0400 0080 0400 0080 0400 0000
000003d0: 0400 0000 0400 0080 0400 0080 0400 0080
000003e0: 0400 0080 0400 0000 0400 0080 0400 0080
000003f0: 0400 0080 0400 0000 0400 0080 0400 0080

exp_avg_sq f4 [128, 54]
7e-43 7e-43 7e-43 7e-43 0.0 7e-43 7e-43 7e-43
7e-43 7e-43 7e-43 7e-43 7e-43 7e-43 7e-43 7e-43
7e-43 7e-43 7e-43 7e-43 7e-43 7e-43 7e-43 7e-43
7e-43 7e-43 7e-43 7e-43 7e-43 7e-43 7e-43 7e-43
7e-43 7e-43 7e-43 7e-43 7e-43 7e-43 7e-43 7e-43
7e-43 7e-43 7e-43 7e-43 7e-43 7e-43 7e-43 7e-43
7e-43 7e-43 7e-43 7e-43 7e-43 7e-43 7e-43 2.921964e-31
4.674854e-32 1.0519046e-31 0.0 7e-43 4.519393e-32 2.8766186e-32 5.563392e-32 1.8699416e-31
4.674854e-32 1.1687135e-32 1.8699416e-31 1.1687135e-32 7e-43 1.3266359e-32 2.2884965e-32 1.2144776e-31
1.8699416e-31 1.1687135e-32 4.674854e-32 1.0519046e-31 4.674854e-32 1.1687135e-32 7.5023216e-33 8.73668e-32
6.091196e-32 1.0519046e-31 1.0519046e-31 1.1687135e-32 7e-43 1.0519046e-31 1.8699416e-31 1.5915663e-32
1.9683171e-32 6.245775e-32 1.8699416e-31 4.674854e-32 7e-43 4.674854e-32 1.8699416e-31 1.8699416e-31
2.921964e-31 1.0519046e-31 1.1687135e-32 2.3516065e-31 1.8432575e-31 2.435538e-31 2.852844e-31 2.921964e-31
1.9933114e-31 2.887404e-31 1.022752e-31 1.8504282e-31 7e-43 7e-43 7e-43 7e-43
0.0 7e-43 7e-43 7e-43 7e-43 7e-43 7e-43 7e-43
7e-43 7e-43 7e-43 7e-43 7e-43 7e-43 7e-43 7e-43
7e-43 7e-43 7e-43 7e-43 7e-43 7e-43 7e-43 7e-43
7e-43 7e-43 7e-43 7e-43 7e-43 7e-43 7e-43 7e-43
7e-43 7e-43 7e-43 7e-43 7e-43 7e-43 7e-43 7e-43
7e-43 7e-43 7e-43 7e-43 7e-43 7e-43 7e-43 7e-43
7e-43 7e-43 7e-43 1.1728645e-31 1.8766274e-32 4.2222828e-32 0.0 7e-43
1.7991906e-32 1.8825048e-32 1.3164971e-32 7.5065094e-32 1.8766274e-32 4.6915684e-33 7.5065094e-32 4.6915684e-33
7e-43 8.719708e-33 2.1386006e-33 5.066739e-32 7.5065094e-32 4.6915684e-33 1.8766274e-32 4.2222828e-32
1.8766274e-32 4.6915684e-33 4.9038946e-33 4.052422e-32 2.6203573e-32 4.2222828e-32 4.2222828e-32 4.6915684e-33
7e-43 4.2222828e-32 7.5065094e-32 2.0182946e-33 8.968035e-33 3.357402e-32 7.5065094e-32 1.8766274e-32
7e-43 1.8766274e-32 7.5065094e-32 7.5065094e-32 1.1728645e-31 4.2222828e-32 4.6915684e-33 8.853055e-32
6.3815467e-32 1.1728645e-31 1.1370115e-31 1.1728645e-31 1.1728645e-31 1.1548792e-31 2.6773697e-32 6.403294e-32
7e-43 7e-43 7e-43 7e-43 0.0 7e-43 7e-43 7e-43
7e-43 7e-43 7e-43 7e-43 7e-43 7e-43 7e-43 7e-43
7e-43 7e-43 7e-43 7e-43 7e-43 7e-43 7e-43 7e-43
7e-43 7e-43 7e-43 7e-43 7e-43 7e-43 7e-43 7e-43
7e-43 7e-43 7e-43 7e-43 7e-43 7e-43 7e-43 7e-43
00000000: f401 0000 f401 0000 f401 0000 f401 0000
00000010: 0000 0000 f401 0000 f401 0000 f401 0000
00000020: f401 0000 f401 0000 f401 0000 f401 0000
00000030: f401 0000 f401 0000 f401 0000 f401 0000
00000040: f401 0000 f401 0000 f401 0000 f401 0000
00000050: f401 0000 f401 0000 f401 0000 f401 0000
00000060: f401 0000 f401 0000 f401 0000 f401 0000
00000070: f401 0000 f401 0000 f401 0000 f401 0000
00000080: f401 0000 f401 0000 f401 0000 f401 0000
00000090: f401 0000 f401 0000 f401 0000 f401 0000
000000a0: f401 0000 f401 0000 f401 0000 f401 0000
000000b0: f401 0000 f401 0000 f401 0000 f401 0000
000000c0: f401 0000 f401 0000 f401 0000 f401 0000
000000d0: f401 0000 f401 0000 f401 0000 74a5 bd0c
000000e0: 78bb 720b 878b 080c 0000 0000 f401 0000
000000f0: 09a9 6a0b d25c 150b 156f 900b 78bb 720c
00000100: 78bb 720b 78bb 720a 78bb 720c 78bb 720a
00000110: f401 0000 08c4 890a aca6 ed0a f1a5 1d0c
00000120: 78bb 720c 78bb 720a 78bb 720b 878b 080c
00000130: 78bb 720b 78bb 720a 2fd1 1b0a 33d1 e20b
00000140: f122 9e0b 878b 080c 878b 080c 78bb 720a
00000150: f401 0000 878b 080c 78bb 720c 1747 a50a
00000160: d866 cc0a 4c26 a20b 78bb 720c 78bb 720b
00000170: f401 0000 78bb 720b 78bb 720c 78bb 720c
00000180: 74a5 bd0c 878b 080c 78bb 720a c4a0 980c
00000190: bd44 6f0c 5113 9e0c 0029 b90c 74a5 bd0c
000001a0: 915f 810c 3a67 bb0c c4c2 040c 0633 700c
000001b0: f401 0000 f401 0000 f401 0000 f401 0000
000001c0: 0000 0000 f401 0000 f401 0000 f401 0000
000001d0: f401 0000 f401 0000 f401 0000 f401 0000
000001e0: f401 0000 f401 0000 f401 0000 f401 0000
000001f0: f401 0000 f401 0000 f401 0000 f401 0000
00000200: f401 0000 f401 0000 f401 0000 f401 0000
00000210: f401 0000 f401 0000 f401 0000 f401 0000
00000220: f401 0000 f401 0000 f401 0000 f401 0000
00000230: f401 0000 f401 0000 f401 0000 f401 0000
00000240: f401 0000 f401 0000 f401 0000 f401 0000
00000250: f401 0000 f401 0000 f401 0000 f401 0000
00000260: f401 0000 f401 0000 f401 0000 f401 0000
00000270: f401 0000 f401 0000 f401 0000 f401 0000
00000280: f401 0000 f401 0000 f401 0000 1c3f 180c
00000290: 50e1 c20a c43b 5b0b 0000 0000 f401 0000
000002a0: b1d6 ba0a 907d c30a 7fb6 880a 50e1 c20b
000002b0: 50e1 c20a 50e1 c209 50e1 c20b 50e1 c209
000002c0: f401 0000 ec19 350a 01ab 3109 428a 830b
000002d0: 50e1 c20b 50e1 c209 50e1 c20a c43b 5b0b
000002e0: 50e1 c20a 50e1 c209 27b3 cb09 ed69 520b
000002f0: 860e 080b c43b 5b0b c43b 5b0b 50e1 c209
00000300: f401 0000 c43b 5b0b 50e1 c20b 61ac 2709
00000310: 4142 3a0a 8753 2e0b 50e1 c20b 50e1 c20a
00000320: f401 0000 50e1 c20a 50e1 c20b 50e1 c20b
00000330: 1c3f 180c c43b 5b0b 50e1 c209 a5d6 e50b
00000340: a7ac a50b 1c3f 180c b097 130c 1c3f 180c
00000350: 1c3f 180c 72e9 150c 5904 0b0b 303d a60b
00000360: f401 0000 f401 0000 f401 0000 f401 0000
00000370: 0000 0000 f401 0000 f401 0000 f401 0000
00000380: f401 0000 f401 0000 f401 0000 f401 0000
00000390: f401 0000 f401 0000 f401 0000 f401 0000
000003a0: f401 0000 f401 0000 f401 0000 f401 0000
000003b0: f401 0000 f401 0000 f401 0000 f401 0000
000003c0: f401 0000 f401 0000 f401 0000 f401 0000
000003d0: f401 0000 f401 0000 f401 0000 f401 0000
000003e0: f401 0000 f401 0000 f401 0000 f401 0000
000003f0: f401 0000 f401 0000 f401 0000 f401 0000

exp_avg f4 [128]
6e-45 -1.081054e-16 6e-45 -6.849208e-17 -6e-45 6e-45 -1.0771849e-16 -2.1212825e-17
6e-45 -1.5063827e-16 6e-45 -1.6507805e-17 -1.6434499e-16 -6e-45 -1.2858119e-16 6e-45
-6.1987583e-18 -2.499807e-16 6e-45 -1.4523113e-16 -1.4827971e-16 -6e-45 0.0 6e-45
6e-45 -8.5570154e-17 -6e-45 -9.548409e-17 -1.5044414e-16 -1.1744623e-16 6e-45 -9.033671e-17
-3.314874e-17 -1.2187028e-16 -1.1512943e-16 -6e-45 -6.594726e-17 -6e-45 -1.21989e-16 -1.378517e-16
-6e-45 -8.033393e-17 -6e-45 6e-45 -8.186342e-18 -6e-45 -1.1109525e-16 6e-45
-1.1639048e-16 -9.6992115e-17 6e-45 6e-45 6e-45 -2.7402458e-16 6e-45 -1.4400505e-16
6e-45 -6e-45 -6e-45 -9.5497406e-17 -1.3584587e-16 -8.1250577e-17 6e-45 6e-45
6e-45 6e-45 -1.4922698e-16 -1.368365e-16 -6e-45 -9.6844506e-17 6e-45 6e-45
-1.3482319e-16 -6e-45 -8.784338e-17 -2.2153687e-17 -1.2408699e-16 -9.321462e-18 6e-45 -7.0606814e-17
-1.0481919e-16 -1.3408272e-16 -7.5541006e-17 -1.0998773e-16 -4.7108022e-17 -8.4476356e-17 -6.052592e-17 -1.3690954e-16
6e-45 -1.0254672e-16 -9.727092e-17 -6e-45 -6e-45 6e-45 -6e-45 -1.5269299e-16
-1.0425628e-16 -1.6699416e-16 -1.00063695e-16 6e-45 -1.1417237e-16 -1.5194183e-16 6e-45 6e-45
-1.5060598e-16 -6e-45 -8.6525474e-17 -6.2209845e-17 -1.1146273e-16 6e-45 -5.93329e-17 -1.025648e-16
-1.10263507e-16 -1.00346736e-16 -5.731287e-17 6e-45 6e-45 -8.5892344e-17 -1.3964569e-16 6e-45
-6e-45 -5.1771627e-17 -4.2101144e-17 -1.1128661e-17 -1.4596011e-16 -9.9619876e-18 6e-45 -6e-45
00000000: 0400 0000 2a46 f9a4 0400 0000 96ee 9da4
00000010: 0400 0080 0400 0000 c661 f8a4 5ea7 c3a3
00000020: 0400 0000 92ac 2da5 0400 0000 f441 98a3
00000030: 147a 3da5 0400 0080 783e 14a5 0400 0000
00000040: 9eb1 e4a2 a41a 90a5 0400 0000 aa70 27a5
00000050: 72f4 2aa5 0400 0080 0000 0000 0400 0000
00000060: 0400 0000 b44f c5a4 0400 0080 dc2b dca4
00000070: 4673 2da5 0268 07a5 0400 0000 624d d0a4
00000080: 20df 18a4 c281 0ca5 36bc 04a5 0400 0080
00000090: 6410 98a4 0400 0080 cca4 0ca5 a4ee 1ea5
000000a0: 0400 0080 c83c b9a4 0400 0080 0400 0000
000000b0: e802 17a3 0400 0080 8815 00a5 0400 0000
000000c0: 6830 06a5 0aa6 dfa4 0400 0000 0400 0000
000000d0: 0400 0000 e4f6 9da5 0400 0000 ca06 26a5
000000e0: 0400 0000 0400 0080 0400 0080 b833 dca4
000000f0: a09e 1ca5 e059 bba4 0400 0000 0400 0000
00000100: 0400 0000 0400 0000 080c 2ca5 02c3 1da5
00000110: 0400 0080 e84e dfa4 0400 0000 0400 0000
00000120: c870 1ba5 0400 0080 948d caa4 ea54 cca3
00000130: 0410 0fa5 5cf3 2ba3 0400 0000 e8ce a2a4
00000140: 54b2 f1a4 3c96 1aa5 8a2f aea4 4c9d fda4
00000150: 563f 59a4 0aca c2a4 3290 8ba4 90d8 1da5
00000160: 0400 0000 e674 eca4 9e4a e0a4 0400 0080
00000170: 0400 0080 0400 0000 0400 0080 040b 30a5
00000180: 0c66 f0a4 fa87 40a5 2ebb e6a4 0400 0000
00000190: bca1 03a5 502d 2fa5 0400 0000 0400 0000
000001a0: 0aa3 2da5 0400 0080 a083 c7a4 3672 8fa4
000001b0: fe81 00a5 0400 0000 f6cf 88a4 927f eca4
000001c0: 1640 fea4 4262 e7a4 8c27 84a4 0400 0000
000001d0: 0400 0000 e40d c6a4 2200 21a5 0400 0000
000001e0: 0400 0080 26c1 6ea4 4228 42a4 9e49 4da3
000001f0: d247 28a5 28c4 37a3 0400 0000 0400 0080

exp_avg_sq f4 [128]
7e-43 1.1687135e-32 7e-43 4.6915684e-33 7e-43 7e-43 1.1604115e-32 4.5002268e-34
7e-43 2.2692475e-32 7e-43 2.7251385e-34 2.7011738e-32 7e-43 1.6534274e-32 7e-43
3.8426474e-35 6.249302e-32 7e-43 2.1093782e-32 2.1988639e-32 7e-43 0.0 7e-43
7e-43 7.3230565e-33 7e-43 9.117912e-33 2.263517e-32 1.3793868e-32 7e-43 8.161342e-33
1.0988718e-33 1.4853297e-32 1.3256073e-32 7e-43 4.3492013e-33 7e-43 1.4882684e-32 1.9004314e-32
7e-43 6.453914e-33 7e-43 7e-43 6.7020684e-35 7e-43 1.2343584e-32 7e-43
1.3547011e-32 9.408116e-33 7e-43 7e-43 7e-43 7.509448e-32 7e-43 2.073819e-32
7e-43 7e-43 7e-43 9.120116e-33 1.8454763e-32 6.602322e-33 7e-43 7e-43
7e-43 7e-43 2.2269292e-32 1.8725131e-32 7e-43 9.3794634e-33 7e-43 7e-43
1.8178519e-32 7e-43 7.716852e-33 4.9079814e-34 1.5398438e-32 8.689184e-35 7e-43 4.9854457e-33
1.0987707e-32 1.7978682e-32 5.7065475e-33 1.2097829e-32 2.2192332e-33 7.1364446e-33 3.6637323e-33 1.8745702e-32
7e-43 1.0516034e-32 9.4624834e-33 7e-43 7e-43 7e-43 7e-43 2.3315496e-32
1.0870156e-32 2.7887493e-32 1.0013504e-32 7e-43 1.3035665e-32 2.308774e-32 7e-43 7e-43
2.2683658e-32 7e-43 7.486893e-33 3.870181e-33 1.24244e-32 7e-43 3.520467e-33 1.05197076e-32
1.2158809e-32 1.0070075e-32 3.284998e-33 7e-43 7e-43 7.3781585e-33 1.9502436e-32 7e-43
7e-43 2.680437e-33 1.7725397e-33 1.2385897e-34 2.1305374e-32 9.924675e-35 7e-43 7e-43
00000000: f401 0000 78bb 720a f401 0000 50e1 c209
00000010: f401 0000 f401 0000 0f02 710a b28b 1508
00000020: f401 0000 f2a6 eb0a f401 0000 d41d b507
00000030: c240 0c0b f401 0000 a4b3 ab0a f401 0000
00000040: 684f 4c06 bc3d a20b f401 0000 e40c db0a
00000050: d457 e40a f401 0000 0000 0000 f401 0000
00000060: f401 0000 0c18 180a f401 0000 235f 3d0a
00000070: 9a0e eb0a 643e 8f0a f401 0000 2381 290a
00000080: d694 b608 d63e 9a0a b0a8 890a f401 0000
00000090: a4a8 b409 f401 0000 f68c 9a0a 225a c50a
000000a0: f401 0000 e50a 060a f401 0000 f401 0000
000000b0: ea2b b206 f401 0000 e02e 800a f401 0000
000000c0: 22ae 8c0a 2066 430a f401 0000 f401 0000
000000d0: f401 0000 d8f4 c20b f401 0000 915b d70a
000000e0: f401 0000 f401 0000 f401 0000 db6a 3d0a
000000f0: 2da5 bf0a f71f 090a f401 0000 f401 0000
00000100: f401 0000 f401 0000 ef41 e70a f073 c20a
00000110: f401 0000 c8cd 420a f401 0000 f401 0000
00000120: cbc6 bc0a f401 0000 d345 200a 7d18 2308
00000130: 12e8 9f0a 86ff e606 f401 0000 5a16 cf09
00000140: ac34 640a 89b3 ba0a 6c0a ed09 1843 7b0a
00000150: df5d 3809 d937 140a 7c2f 9809 a0aa c20a
00000160: f401 0000 d468 5a0a 3187 440a f401 0000
00000170: f401 0000 f401 0000 f401 0000 381f f20a
00000180: aac3 610a d6cc 100b ebf8 4f0a f401 0000
00000190: be5e 870a bec1 ef0a f401 0000 f401 0000
000001a0: 828f eb0a f401 0000 277f 1b0a d3c2 a009
000001b0: b805 810a f401 0000 073c 9209 5c7c 5a0a
000001c0: 5187 7c0a b425 510a 1774 8809 f401 0000
000001d0: f401 0000 053d 190a 5e86 ca0a f401 0000
000001e0: f401 0000 97ae 5e09 c041 1309 06a3 2407
000001f0: 663f dd0a ebeb 0307 f401 0000 f401 0000

exp_avg f4 [128, 128]
-6e-45 -4.6614493e-17 6e-45 -1.7692162e-17 -6e-45 0.0 -8.548724e-17 -1.4581205e-18
-6e-45 -2.7604698e-16 -6e-45 -7.609691e-18 -2.528692e-16 -6e-45 -1.6359234e-16 6e-45
-8.03376e-19 -1.9353903e-16 -6e-45 -1.0324667e-16 -1.4744628e-16 -6e-45 0.0 -6e-45
6e-45 -8.988932e-17 6e-45 -1.3118478e-16 -1.1635014e-16 -1.509531e-16 -6e-45 -1.4531118e-16
-1.3341704e-17 -1.7284835e-16 -8.600447e-17 -6e-45 -6.7934226e-17 -6e-45 -1.1102725e-16 -1.0477714e-16
-6e-45 -1.2681068e-16 -6e-45 6e-45 -1.7635482e-18 6e-45 -1.7381627e-16 -6e-45
-5.984764e-17 -6.577998e-17 -6e-45 -6e-45 -6e-45 -1.5377137e-16 0.0 -1.05254405e-16
-6e-45 0.0 0.0 -3.196077e-17 -1.4756492e-16 -4.1778636e-17 6e-45 -6e-45
6e-45 6e-45 -8.8064864e-17 -9.803075e-17 -6e-45 -7.439746e-17 6e-45 6e-45
-1.0633834e-16 6e-45 -2.1595538e-17 -9.6728135e-18 -1.04814755e-16 -1.2572497e-17 0.0 -1.4484879e-17
-8.159045e-17 -1.3305217e-16 -9.5724265e-17 -3.4929e-17 -2.8062896e-17 -8.574111e-17 -3.3576624e-17 -1.1385375e-16
-6e-45 -1.6177432e-16 -1.325525e-16 6e-45 6e-45 6e-45 -6e-45 -2.4204168e-16
-1.6137918e-16 -5.855585e-17 -1.0633564e-16 6e-45 -5.0746346e-17 -9.325395e-17 -6e-45 0.0
-1.9369642e-16 -6e-45 -1.1293535e-16 -1.8665562e-17 -1.0642196e-16 6e-45 -5.402083e-17 -1.369759e-16
-8.8923186e-17 -1.3106977e-16 -4.6521544e-17 -6e-45 6e-45 -1.0127597e-16 -1.6767089e-16 -6e-45
-6e-45 -4.1516764e-17 -5.7364554e-18 -1.4974308e-17 -7.074178e-17 -4.4366924e-18 -6e-45 6e-45
-6e-45 -1.1046024e-16 6e-45 -4.1924313e-17 6e-45 -6e-45 -2.0257526e-16 -3.4552414e-18
-6e-45 -6.541361e-16 -6e-45 -1.8032339e-17 -5.992127e-16 -6e-45 -3.8765728e-16 -6e-45
-1.903724e-18 -4.586206e-16 -6e-45 -2.446589e-16 -3.4939675e-16 -6e-45 0.0 -6e-45
-6e-45 -2.1300663e-16 6e-45 -3.1086268e-16 -2.757097e-16 -3.5770667e-16 -6e-45 -3.4433732e-16
-3.1615233e-17 -4.0959093e-16 -2.0380087e-16 -6e-45 -1.6098068e-16 -6e-45 -2.6309627e-16 -2.4828558e-16
-6e-45 -3.0049748e-16 -6e-45 6e-45 -4.178999e-18 6e-45 -4.118845e-16 -6e-45
-1.4181828e-16 -1.5587587e-16 -6e-45 -6e-45 6e-45 -3.643851e-16 -6e-45 -2.4941647e-16
-6e-45 0.0 -6e-45 -7.5735995e-17 -3.496779e-16 -9.9000946e-17 6e-45 6e-45
6e-45 6e-45 -2.0868332e-16 -2.32299e-16 -6e-45 -1.762963e-16 6e-45 6e-45
-2.5198515e-16 6e-45 -5.1173965e-17 -2.2921228e-17 -2.4837473e-16 -2.979247e-17 6e-45 -3.4324164e-17
-1.9334123e-16 -3.1528774e-16 -2.268334e-16 -8.2769664e-17 -6.649938e-17 -2.0317687e-16 -7.956502e-17 -2.6979402e-16
-6e-45 -3.8334927e-16 -3.1410375e-16 6e-45 6e-45 6e-45 -6e-45 -5.7355523e-16
-3.8241293e-16 -1.3875715e-16 -2.519787e-16 6e-45 -1.2025128e-16 -2.2097965e-16 -6e-45 6e-45
-4.589936e-16 -6e-45 -2.6761778e-16 -4.4230936e-17 -2.521832e-16 -6e-45 -1.2801074e-16 -3.2458557e-16
-2.1071723e-16 -3.105901e-16 -1.1024e-16 -6e-45 -6e-45 -2.3998905e-16 -3.9732214e-16 -6e-45
-6e-45 -9.838039e-17 -1.3593418e-17 -3.5483937e-17 -1.6763362e-16 -1.0513431e-17 -6e-45 6e-45
00000000: 0400 0080 aef8 56a4 0400 0000 702e a3a3
00000010: 0400 0080 0000 0000 c21e c5a4 3c2e d7a1
00000020: 0400 0080 5821 9fa5 0400 0080 c05f 0ca3
00000030: e8c4 91a5 0400 0080 f09b 3ca5 0400 0000
00000040: 601d 6da1 a422 5fa5 0400 0080 1412 eea4
00000050: 76fe 29a5 0400 0080 0000 0000 0400 0080
00000060: 0400 0000 4a45 cfa4 0400 0000 ea3e 17a5
00000070: 8024 06a5 7e09 2ea5 0400 0080 4a88 27a5
00000080: 6a1c 76a3 d447 47a5 1450 c6a4 0400 0080
00000090: 4aa5 9ca4 0400 0080 7601 00a5 8299 f1a4
000000a0: 0400 0080 e833 12a5 0400 0080 0400 0000
000000b0: 7c20 02a2 0400 0000 8265 48a5 0400 0080
000000c0: d0ff 89a4 a6ad 97a4 0400 0080 0400 0080
000000d0: 0400 0080 4c49 31a5 0000 0000 3cb3 f2a4
000000e0: 0400 0080 0000 0000 0000 0000 9e64 13a4
000000f0: 7a21 2aa5 82ab 40a4 0400 0000 0400 0080
00000100: 0400 0000 0400 0000 5210 cba4 240b e2a4
00000110: 0400 0080 828c aba4 0400 0000 0400 0000
00000120: 1433 f5a4 0400 0000 062f c7a3 926e 32a3
00000130: b6af f1a4 f0eb 67a3 0000 0000 7499 85a3
00000140: 8022 bca4 1266 19a5 a2b9 dca4 e214 21a4
00000150: d26a 01a4 9eb4 c5a4 48d8 1aa4 b243 03a5
00000160: 0400 0080 5a83 3aa5 98d2 18a5 0400 0000
00000170: 0400 0000 0400 0000 0400 0080 0c87 8ba5
00000180: ba0e 3aa5 4605 87a4 7c31 f5a4 0400 0000
00000190: b606 6aa4 6a07 d7a4 0400 0080 0000 0000
000001a0: 1851 5fa5 0400 0080 a234 02a5 d028 aca3
000001b0: 7064 f5a4 0400 0000 8a20 79a4 26ec 1da5
000001c0: fc0a cda4 f81c 17a5 f28a 56a4 0400 0080
000001d0: 0400 0000 c886 e9a4 b64f 41a5 0400 0080
000001e0: 0400 0080 5876 3fa4 4aa3 d3a2 161d 8aa3
000001f0: 941e a3a4 60af a3a2 0400 0080 0400 0000
00000200: 0400 0080 38b4 fea4 0400 0000 7e57 41a4
00000210: 0400 0000 0400 0080 aa8d 69a5 aaf3 7ea2
00000220: 0400 0080 ba8a 3ca6 0400 0080 a851 a6a3
00000230: 18b6 2ca6 0400 0080 1e78 dfa5 0400 0080
00000240: 5478 0ca2 3a30 04a6 0400 0080 4809 8da5
00000250: dc69 c9a5 0400 0080 0000 0000 0400 0080
00000260: 0400 0080 7694 75a5 0400 0000 3c33 b3a5
00000270: 92ef 9ea5 3034 cea5 0400 0080 387f c6a5
00000280: aecc 11a4 f41c eca5 66f7 6aa5 0400 0080
00000290: 1c99 39a5 0400 0080 28aa 97a5 7c20 8fa5
000002a0: 0400 0080 9a39 ada5 0400 0080 0400 0000
000002b0: 882d 9aa2 0400 0000 6c6f eda5 0400 0080
000002c0: 5e81 23a5 70b6 33a5 0400 0080 0400 0080
000002d0: 0400 0000 c00d d2a5 0400 0080 60c7 8fa5
000002e0: 0400 0080 0000 0000 0400 0080 a4a2 aea4
000002f0: 5a93 c9a5 d847 e4a4 0400 0000 0400 0000
00000300: 0400 0000 0400 0000 7298 70a5 48e9 85a5
00000310: 0400 0080 7c41 4ba5 0400 0000 0400 0000
00000320: 7242 91a5 0400 0000 8eff 6ba4 3869 d3a3
00000330: a42d 8fa5 be64 09a4 0400 0000 d24a 1ea4
00000340: 42e8 5ea5 42c0 b5a5 b4c2 82a5 96da bea4
00000350: 4e56 99a4 3a3f 6aa5 e676 b7a4 9286 9ba5
00000360: 0400 0080 5efc dca5 8811 b5a5 0400 0000
00000370: 0400 0000 0400 0000 0400 0080 e850 25a6
00000380: 3072 dca5 e2f9 1fa5 7e41 91a5 0400 0000
00000390: eaa3 0aa5 aec5 7ea5 0400 0080 0400 0000
000003a0: c04b 04a6 0400 0080 6a45 9aa5 acfa 4ba4
000003b0: ac5f 91a5 0400 0080 1a96 13a5 601c bba5
000003c0: c0f0 72a5 020b b3a5 3632 fea4 0400 0080
000003d0: 0400 0080 2258 8aa5 660a e5a5 0400 0080
000003e0: 0400 0080 88d9 e2a4 1ac1 7aa3 0aa4 23a4
000003f0: b644 41a5 46f0 41a3 0400 0080 0400 0000
