RL_methods/policy_net.pth (torch, 309858 bytes, 18 tensors)

weight f4 [128, 54]
-0.13277188 0.21109748 0.16914877 -0.30356413 0.11692774 -0.2107142 0.29869917 0.14859815
-0.026780795 -0.21517687 0.24984054 0.14364646 -0.21806596 -0.01694073 0.11469795 -0.047082704
0.22961557 -0.02372152 0.2936758 0.17988034 -0.013038588 -0.12193108 0.16480531 0.08167744
-0.21956727 -0.29345518 0.2202107 0.124298476 -0.14115661 -0.16920349 0.21014428 -0.13577296
0.10553635 0.22414123 -0.33139998 -0.21646248 0.11192499 -0.20784636 -0.13183442 -0.23939984
-0.20828383 0.015164463 -0.079145215 0.27975348 0.13884023 -0.032316856 -0.004558784 0.10286413
0.003926146 0.13585766 0.2460859 0.1593933 -0.07077501 0.08361633 -0.15926115 -0.16500592
0.09998628 -0.3516893 -0.21398482 0.20952334 -0.27082565 -0.07030664 0.10213262 -0.083847575
-0.3417661 -0.25937515 0.24713796 -0.14490014 -0.15305392 0.14194228 0.08268957 0.23556873
0.20204523 -0.29660395 0.15042116 -0.030661609 0.15651134 0.30202448 -0.094693825 -0.043893326
-0.14040846 0.29202893 -0.22523773 -0.0065776473 0.06674994 -0.18467875 0.2010817 0.1931307
-0.21357238 0.32514727 -0.09751919 -0.25539553 -0.31464288 0.061533805 -0.006051862 0.08791328
0.30219936 0.008265633 0.04993586 -0.15960227 0.02961795 -0.051312853 0.21685703 0.22226456
0.25134087 -0.1517584 0.061160143 -0.20443556 0.21056132 0.082825705 -0.0037511215 0.028285632
0.07370052 -0.13934371 -0.27629566 -0.022746956 0.15031531 -0.19403292 0.117593065 -0.1710129
0.26676628 0.18268922 0.22395445 0.041933753 -0.28240252 -3.9711023e-05 0.31376705 -0.3275273
-0.010912233 0.2882895 0.12673864 -0.2381385 -0.19640428 -0.25682163 0.17534672 0.10634523
-0.006402335 0.16130817 0.31825534 -0.06812087 0.0061822715 0.11410283 -0.26140964 0.2376117
-0.3032976 -0.12522356 0.15155192 -0.327551 -0.16152978 0.30971706 -0.0063005732 -0.2692499
-0.28946188 0.027723724 -0.25055328 0.17187746 0.22741272 0.15152952 -0.29341552 0.102003425
-0.086717226 -0.14283241 0.04153136 0.148283 0.1817408 0.18484835 -0.20393996 -0.12249476
0.22477676 -0.12202136 0.05856388 -0.08896218 -0.30908272 -0.17593661 0.26406395 -0.053809166
-0.07964282 0.1939009 -0.33725953 -0.014498126 0.016996069 0.3151345 -0.30210063 0.111141376
-0.33115453 0.10283019 -0.18910141 0.003888647 0.0076312576 0.31056997 -0.27256978 -0.10470493
-0.23396578 -0.16189541 0.032534137 0.2974353 0.17191538 -0.17699042 -0.119622156 -0.17346014
0.2632042 -0.21987379 0.17003536 -0.3076168 -0.23032965 0.29077873 0.25845182 -0.05873513
0.14400125 0.061065964 0.17301174 -0.105075635 -0.024148364 -0.115531534 -0.31042624 -0.33542666
0.32867017 -0.05926077 0.11736826 0.028076451 0.03084758 -0.32713607 0.29319498 -0.06181969
-0.29390264 -0.21839604 -0.06661193 -0.18793225 0.1965212 -0.07601382 0.25327075 0.245193
-0.08569829 -0.17542844 -0.12124873 0.07437192 0.03120841 0.26224995 -0.20939812 -0.2916237
0.099284016 0.25250253 0.05692073 -0.10100976 0.0700004 -0.014303021 0.3221863 -0.19553038
0.15694639 0.08193677 -0.23697154 0.13706627 0.32483974 -0.10226531 -0.04255094 -0.06097453
00000000: 5af5 07be f029 583e 5635 2d3e c26c 9bbe
00000010: d077 ef3d 77c5 57be 19ef 983e 1d2a 183e
00000020: 6663 dbbc 5357 5cbe 33d6 7f3e 0f18 133e
00000030: af4c 5fbe 49c7 8abc c2e6 ea3d cbd9 40bd
00000040: 5820 6b3e a253 c2bc ad5c 963e 8d32 383e
00000050: cd9f 55bc 01b7 f9bd b9c2 283e 8046 a73d
00000060: 3ed6 60be c23f 96be ea7e 613e 3390 fe3d
00000070: 5c8b 10be ae43 2dbe 1030 573e 1108 0bbe
00000080: 7123 d83d 4785 653e 42ad a9be 57a8 5dbe
00000090: ee38 e53d add5 54be 9aff 06be 3b25 75be
000000a0: 5b48 55be 5e74 783c e316 a2bd d93b 8f3e
000000b0: 222c 0e3e ae5e 04bd da61 95bb 6eaa d23d
000000c0: e6a6 803b 451e 0b3e f1fd 7b3e ff37 233e
000000d0: 7df2 90bd 0a3f ab3d 5b15 23be 50f7 28be
000000e0: 9bc5 cc3d 9f10 b4be d61e 5bbe 498d 563e
000000f0: a9a9 8abe edfc 8fbd e82a d13d 47b8 abbd
00000100: f7fb aebe d2cc 84be bc11 7d3e b460 14be
00000110: 2bba 1cbe 5159 113e 2659 a93d ee38 713e
00000120: f2e4 4e3e 79dc 97be 0108 1a3e 0e2e fbbc
00000130: 8244 203e f4a2 9a3e d6ee c1bd 7dc9 33bd
00000140: 3cc7 0fbe d184 953e b8a4 66be 4e89 d7bb
00000150: 31b4 883d 6d1c 3dbe 5ce8 4d3e 0ec4 453e
00000160: b8b2 5abe b479 a63e 24b8 c7bd 34c3 82be
00000170: df18 a1be df0a 7c3d b34e c6bb e10b b43d
00000180: e0b9 9a3e 946c 073c 8b89 4c3d c76e 23be
00000190: 58a1 f23c 6d2d 52bd c50f 5e3e 5299 633e
000001a0: c0af 803e 8e66 1bbe 0f83 7a3d 8e57 51be
000001b0: 639d 573e 86a0 a93d 60d5 75bb 45b7 e73c
000001c0: 4cf0 963d 1eb0 0ebe a076 8dbe d357 babc
000001d0: 42ec 193e 91b0 46be a2d4 f03d 011e 2fbe
000001e0: 9795 883e e212 3b3e 5154 653e bac2 2b3d
000001f0: 1097 90be 638f 26b8 13a6 a03e a9b1 a7be
00000200: 39c9 32bc ae9a 933e c6c7 013e 94da 73be
00000210: 341e 49be 207e 83be 178e 333e 87cb d93d
00000220: aeca d1bb f82d 253e 5df2 a23e f482 8bbd
00000230: a794 ca3b bfae e93d 7cd7 85be 7b50 733e
00000240: d349 9bbe 9b3a 00be 6d30 1b3e c4b4 a7be
00000250: 1068 25be 3c93 9e3e 0a75 cebb 1fdb 89be
00000260: 5934 94be dd1c e33c 8548 80be a500 303e
00000270: e1de 683e 8e2a 1b3e 8f3a 96be 2ce7 d03d
00000280: cd98 b1bd a942 12be ca1c 2a3d 80d7 173e
00000290: 431a 3a3e e348 3d3e a3d5 50be 88de fabd
000002a0: e12b 663e 56e6 f9bd aee0 6f3d ce31 b6bd
000002b0: 1740 9ebe ba28 34be 6433 873e 0067 5cbd
000002c0: c61b a3bd f58d 463e 48ad acbe 8c89 6dbc
000002d0: 573b 8b3c 4f59 a13e efac 9abe 179e e33d
000002e0: 168d a9be a298 d23d cda3 41be acd8 7e3b
000002f0: a10f fa3b 0703 9f3e 448e 8bbe 8a6f d6bd
00000300: ba94 6fbe e9c7 25be 8442 053d 7149 983e
00000310: 960a 303e fa3c 35be 76fc f4bd 899f 31be
00000320: b3c2 863e 9826 61be c01d 2e3e f37f 9dbe
00000330: 89db 6bbe f3e0 943e cc53 843e 3f94 70bd
00000340: 1075 133e 4e20 7a3d fd29 313e e531 d7bd
00000350: cad2 c5bc cc9b ecbd 30f0 9ebe 0bbd abbe
00000360: 7547 a83e 6cbb 72bd c55e f03d 9600 e63c
00000370: 10b4 fc3c 617e a7be a71d 963e a536 7dbd
00000380: 687a 96be 36a3 5fbe d66b 88bd 5071 40be
00000390: da3c 493e 22ad 9bbd b4ac 813e e013 7b3e
000003a0: 9682 afbd 83a3 33be 4151 f8bd 4e50 983d
000003b0: c8a8 ff3c a045 863e 766c 56be b44f 95be
000003c0: 6b55 cb3d 0348 813e b625 693d 34de cebd
000003d0: 5f5c 8f3d 3857 6abc 9af5 a43e 1e39 48be
000003e0: 8eb6 203e 77ce a73d aba8 72be 1a5b 0c3e
000003f0: 6551 a63e 7a70 d1bd e549 2ebd 6ec0 79bd

bias f4 [128]
0.020622967 0.0070476057 0.01184063 0.0047799572 0.009502991 0.017109497 0.024843179 0.022323342
0.0042406586 0.0016565865 0.010502634 0.008760282 0.018583175 0.0016531113 0.015008482 0.020775355
0.0048519326 0.014489336 0.014758618 0.015127387 0.0070723696 0.007592422 0.009400811 0.008282616
0.00854414 0.023563784 0.013570145 0.0058555054 -0.0033113107 0.0155396005 -3.0392239e-05 0.012587717
0.009287586 0.010150245 0.009278727 0.0391958 0.0067762965 0.012301236 -0.0012748787 0.018205766
0.019243468 0.00954168 0.028398817 0.01 0.006214058 0.024249565 0.0032834173 0.02957367
0.021922043 0.0011771731 0.021499634 0.01 0.0076542823 0.019124512 -0.0057973983 0.013463993
0.009656052 0.012242196 0.01 -0.0071808193 0.023868307 0.008325603 0.013168545 0.011965408
0.0074683335 0.01680683 0.01 0.0084249545 0.00076109415 0.0039614663 0.009787391 0.01566954
0.016745016 0.021140989 0.013740491 0.014694069 0.0065068677 0.011782459 0.009270642 0.005139993
-0.002333201 0.018032413 0.008250804 0.00018710375 0.024945308 0.031484745 -0.0025848164 0.008358937
0.019261539 0.0426874 0.048514374 0.02209347 0.005597219 0.024800029 0.00825137 0.0058231456
0.022974158 -0.0008673621 0.010216915 0.004626754 0.02035418 0.016590077 -0.0018130792 0.020260448
0.008248272 0.009644799 0.0057561835 0.015695527 0.009849544 -0.0024615938 0.0033597047 -7.2322495e-05
0.00611979 0.03915223 0.01071308 0.0062774294 0.030009903 0.009002577 0.0037951404 0.036330897
0.012098085 0.035850216 0.004399123 0.0028592772 0.01 -0.004916098 0.0053666933 0.00048118888
00000000: 7ff1 a83c 9aef e63b 34ff 413c 30a1 9c3b
00000010: 6fb2 1b3c 3729 8c3c ec83 cb3c 71df b63c
00000020: 39f5 8a3b d221 d93a 3d13 2c3c 4987 0f3c
00000030: be3b 983c 36ad d83a 23e6 753c 1431 aa3c
00000040: f6fc 9e3b ae64 6d3c 21ce 713c dcd8 773c
00000050: 56bf e73b dac9 f83b dc05 1a3c cfb3 073c
00000060: b8fc 0b3c d608 c13c 5055 5e3c 8adf bf3b
00000070: 9302 59bb cf99 7e3c d6f2 feb7 b63c 4e3c
00000080: f62a 183c 374d 263c cd05 183c c68b 203d
00000090: b20b de3b 208b 493c d519 a7ba 4224 953c
000000a0: 7aa4 9d3c b554 1c3c a3a4 e83c 0ad7 233c
000000b0: 4c9f cb3b 06a7 c63c 9a2e 573b 7b44 f23c
000000c0: db95 b33c 604b 9a3a 0020 b03c 0ad7 233c
000000d0: c6d0 fa3b 02ab 9c3c 1af8 bdbb 1498 5c3c
000000e0: 6b34 1e3c 7e93 483c 0ad7 233c 144d ebbb
000000f0: 7887 c33c 1c68 083c e2c0 573c 8f0a 443c
00000100: ecb8 f43b 7aae 893c 0ad7 233c d208 0a3c
00000110: 2a84 473a 30cf 813b 4b5b 203c 685d 803c
00000120: d82c 893c de2f ad3c cc1f 613c 64bf 703c
00000130: 9037 d53b 370b 413c e4e3 173c 636d a83b
00000140: 9ee8 18bb b6b8 933c 612e 073c 4831 4439
00000150: 1a5a cc3c 26f6 003d 0666 29bb ecf3 083c
00000160: 60ca 9d3c fcd8 2e3d 02b7 463d 5dfd b43c
00000170: e068 b73b 6e29 cb3c c130 073c 16d0 be3b
00000180: 4d34 bc3c af5f 63ba d964 273c 079c 973b
00000190: cfbd a63c eae7 873c d8a4 edba 3df9 a53c
000001a0: c323 073c 3805 1e3c 5e9e bc3b e893 803c
000001b0: fb5f 213c b152 21bb 7e2e 5c3b d8ab 97b8
000001c0: 8588 c83b 175e 203d ea85 2f3c e5b2 cd3b
000001d0: 54d7 f53c 8b7f 133c e4b7 783b b5cf 143d
000001e0: 0c37 463c add7 123d 8526 903b b662 3b3b
000001f0: 0ad7 233c 3817 a1bb 16db af3b 1448 fc39

weight f4 [128, 128]
0.19779924 0.22125939 -0.12619443 0.15299155 0.042120676 0.054097887 0.15621555 -0.21495642
0.018630786 0.13407274 0.13110648 -0.10797368 -0.0932044 0.09363473 0.17755261 -0.029116452
0.1069325 -0.022231992 0.038132958 -0.042255923 0.010504541 -0.06998932 -0.021925963 -0.20953332
-0.04488428 -0.27406016 -0.15065593 -0.20511106 0.08102338 0.020748572 -0.10035089 -0.11234833
0.08140482 0.005939102 -0.10313902 -0.13478245 0.18082935 0.1833864 -0.18708625 -0.011697111
-0.19069213 -0.0019442033 0.059323266 -0.08121368 0.009409101 0.22743915 -0.12593967 0.101745725
0.18537806 0.07523241 0.12836234 -0.0010530502 0.13796063 0.04525731 0.10010222 -0.05322179
-0.0988314 0.13827391 0.06814845 -0.082978144 -0.15534805 0.15648654 -0.14467074 -0.14998585
-0.1796213 -0.16097146 -0.17387268 0.00022091696 0.1445472 -0.022665106 0.14625458 0.1535361
-0.17581171 -0.05246409 -0.046717495 -0.20459911 0.18567781 -0.04986244 -0.20600441 0.12524061
0.027058268 0.20558973 -0.18541156 -0.2459946 -0.059209473 -0.090217255 -0.07790182 0.07558413
0.035841845 0.011373177 0.18285489 0.14281778 -0.049368802 -0.2084684 0.1567668 0.10503281
-0.08905739 0.14037605 0.21106058 -0.011845388 0.03852682 0.20890059 0.009231576 -0.13770129
0.19247387 0.1458634 -0.049609903 -0.13459468 0.15032525 0.15590808 -0.010168955 0.12870674
0.1337053 -0.0026799429 0.023074057 0.2608857 0.048651457 0.066182226 -0.026516782 -0.2084692
-0.08884775 0.17014062 0.0024698793 0.11452766 0.081541464 0.11858727 -0.20990321 0.13504632
-0.113162614 0.089162424 -0.1466484 0.015160306 -0.042600743 -0.16947085 0.12824067 0.091669835
0.01174914 -0.18054487 0.048262756 -0.027140772 0.054507837 0.031871453 -0.17542347 0.03033999
-0.18351516 0.028248785 -0.13403715 0.10747961 -0.16959459 0.1264653 0.012064258 0.04466112
-0.07479063 -0.020499488 -0.16728027 0.17827518 -0.1547621 -0.19665511 -0.17420325 0.16905619
0.014127188 0.16011898 -0.12301281 -0.08609607 -0.20996636 0.008780585 -0.16651453 0.15920925
0.119593814 -0.047889963 -0.14472148 -0.0800522 -0.12256895 -0.1751808 0.1550599 0.068545744
0.09726163 -0.015026003 0.07684994 0.004538089 -0.094623074 -0.16431122 -0.21115161 0.1253431
-0.14448757 0.19664784 -0.13126504 -0.01705582 -0.060611237 -0.14011407 -0.16457544 0.07690255
0.086348 0.13828588 -0.07255891 -0.13867258 -0.11199426 -0.07904993 -0.046371922 0.07263958
-0.012758982 -0.15400755 -0.055807587 -0.13665043 -0.2047052 0.14720002 0.11957318 -0.12229396
0.073333405 -0.034899738 0.18435445 0.10817368 0.14848159 -0.0481572 0.0068718954 -0.10589998
-0.19449018 0.05869847 -0.054405045 0.040040918 0.05918012 0.15115562 0.11838163 0.021375095
-0.046611506 -0.09365852 -0.11110528 -0.19313377 0.17639813 -0.10095523 0.12260649 0.08834325
0.043553367 -0.14867903 -0.13844585 -0.18561941 0.09748089 0.21481313 -0.08765671 0.16822693
0.13413309 -0.028960457 -0.17890972 0.19952078 -0.20339987 -0.101628296 0.13801551 0.07364691
0.04165822 0.15829268 -0.011029669 -0.14460178 -0.024634928 0.11648306 0.20577863 0.1728004
00000000: e28b 4a3e d291 623e 1d39 01be d1a9 1c3e
00000010: bb86 2c3d bf95 5d3d f8f6 1f3e 891d 5cbe
00000020: 979f 983c 5d4a 093e c740 063e 4e21 ddbd
00000030: f3e1 bebd 91c3 bf3d 5ad0 353e a085 eebc
00000040: 6dff da3d de1f b6bc 4e31 1c3d 8c14 2dbd
00000050: 3d1b 2c3c 9056 8fbd 149e b3bc e78f 56be
00000060: 94d8 37bd 9d51 8cbe 8c45 1abe a208 52be
00000070: 96ef a53d e9f8 a93c c484 cdbd e216 e6bd
00000080: 92b7 a63d cc9c c23b 8d3a d3bd 6904 0abe
00000090: 542b 393e a5c9 3b3e 8a93 3fbe 3da5 3fbc
000000a0: cc44 43be a3d4 feba f4fc 723d 5c53 a6bd
000000b0: a128 1a3c cfe5 683e 54f6 00be 1060 d03d
000000c0: bfd3 3d3e 7313 9a3d 6b71 033e 8006 8aba
000000d0: 8d45 0d3e bb5f 393d 6502 cd3d 17ff 59bd
000000e0: 1e68 cabd ad97 0d3e 6a91 8b3d 72f0 a9bd
000000f0: 8f13 1fbe 023e 203e 9124 14be e495 19be
00000100: a5ee 37be b4d5 24be ae0b 32be f2a5 6739
00000110: 2e04 143e 2cac b9bc c3c3 153e 9138 1d3e
00000120: fc07 34be 96e4 56bd d85a 3fbd 6e82 51be
00000130: 5322 3e3e 8f3c 4cbd d2f2 52be 133f 003e
00000140: 4da9 dd3c 1d86 523e 87dc 3dbe 02e6 7bbe
00000150: a285 72bd d3c3 b8bd fd8a 9fbd dacb 9a3d
00000160: e6ce 123d 9056 3a3c 503e 3b3e d33e 123e
00000170: f136 4abd be78 55be 7a87 203e 711b d73d
00000180: b963 b6bd bdbe 0f3e 4420 583e 2913 42bc
00000190: 4cce 1d3d 09ea 553e 0940 173c 9101 0dbe
000001a0: df17 453e 375d 153e c133 4bbd 30d3 09be
000001b0: ddee 193e 5ea6 1f3e b09b 26bc b3cb 033e
000001c0: 0bea 083e fba1 2fbb ce05 bd3c cf92 853e
000001d0: c046 473d 8c8a 873d b939 d9bc f378 55be
000001e0: cff5 b5bd 5839 2e3e b3dd 213b 7a8d ea3d
000001f0: 36ff a63d e2dd f23d def0 56be 9549 0a3e
00000200: cdc1 e7bd ca9a b63d 002b 16be ef62 783c
00000210: 1e7e 2ebd c489 2dbe 8651 033e 65bd bb3d
00000220: 777f 403c c1e0 38be 2baf 453d 5356 debc
00000230: 9c43 5f3d a48b 023d 36a2 33be 928b f83c
00000240: 66eb 3bbe ff69 e73c 0941 09be 451e dc3d
00000250: 34aa 2dbe 1f80 013e 2aa9 453c 94ee 363d
00000260: d42b 99bd 8bee a7bc 854b 2bbe c58d 363e
00000270: f579 1ebe f55f 49be 5662 32be 111d 2d3e
00000280: b975 673c 3bf6 233e 24ee fbbd 2353 b0bd
00000290: 6c01 57be 71dc 0f3c c982 2abe c007 233e
000002a0: 9aed f43d 4428 44bd de31 14be 68f2 a3bd
000002b0: 6e05 fbbd 9862 33be 06c8 1e3e b661 8c3d
000002c0: 1b31 c73d a02f 76bc 8063 9d3d 40b4 943b
000002d0: bec9 c1bd 3341 28be 2138 58be f159 003e
000002e0: 8df4 13be 0d5e 493e 586a 06be a6b8 8bbc
000002f0: 7d43 78bd 107a 0fbe 7786 28be 167f 9d3d
00000300: 38d7 b03d d09a 0d3e c499 94bd 2f00 0ebe
00000310: 3f5d e5bd eee4 a1bd 7cf0 3dbd 0fc4 943d
00000320: 0d0b 51bc 28b4 1dbe 7f96 64bd 17ee 0bbe
00000330: 3d9e 51be 9abb 163e c9e2 f43d 4175 fabd
00000340: d32f 963d 07f3 0ebd 6ac7 3c3e 2a8a dd3d
00000350: 8f0b 183e 7c40 45bd a32d e13b 17e2 d8bd
00000360: 6f28 47be cf6d 703d d3d7 5ebd f201 243d
00000370: da66 723d 8ac8 1a3e 1172 f23d d31a af3c
00000380: b5eb 3ebd 0ad0 bfbd 2a8b e3bd dcc4 45be
00000390: b6a1 343e 9ec1 cebd 1d19 fb3d 4eed b43d
000003a0: 0465 323d 513f 18be c0c4 0dbe 0413 3ebe
000003b0: 10a4 c73d f9f7 5b3e 5c85 b3bd ae43 2c3e
000003c0: 2f5a 093e 7b3e edbc 1c34 37be 2d4f 4c3e
000003d0: 0e48 50be 7f22 d0bd f053 0d3e 31d4 963d
000003e0: cfa1 2a3d 7a17 223e c9b5 34bc 7d12 14be
000003f0: 30cf c9bc ac8e ee3d a2b7 523e 97f2 303e

bias f4 [128]
0.014164711 0.007909021 0.013902216 0.0005978248 0.032858975 -0.0019491686 0.0047170976 0.010332024
0.0033891716 0.013672662 0.031316716 0.03558398 0.010804601 0.0095784925 0.0066536088 0.014038929
-0.003233294 0.0025821337 0.007288403 0.005642379 0.020597646 0.012936343 0.008741354 0.012782509
0.00709136 0.012132781 0.026657933 0.02525926 0.01178677 0.01 0.016708724 0.004436208
0.020995839 0.006599517 0.0046563526 0.0039959233 0.0079936925 0.012520362 0.009483893 0.009903502
0.011504125 0.011525392 0.008380302 0.0048683393 0.016808642 0.016219132 0.0093870945 0.009593815
0.01 0.0068270992 0.018972611 0.015757443 0.011663806 0.0075220233 0.017393379 0.023190139
0.01 0.01573422 0.017868396 0.011001296 0.015471998 0.008405973 0.0049505215 0.023765258
0.024581885 0.009732487 0.006236893 -0.00067982695 0.0065389667 0.019520158 0.02501409 0.0079887025
0.011155341 0.017797371 0.016350033 0.0322707 0.011870404 0.01207843 0.0056990343 0.0111266235
0.020880835 0.026472718 0.002592665 0.006471408 0.005144967 0.009698091 0.006419759 0.019612767
0.0038192065 0.01497148 0.023497026 0.010950556 0.02085949 0.009172574 0.0077076736 0.025199689
0.008065989 0.0061142165 0.019895574 0.008628183 0.008403809 0.0049764984 0.016530734 0.018413333
0.01733777 0.0070408434 0.009030122 0.010432178 0.012421743 0.007729575 0.009858989 0.006350666
0.022780428 0.012633459 0.002083179 0.007747667 -0.0021390808 0.003856217 0.0057662856 0.013397749
0.011354991 0.018711198 0.0099847205 0.004131747 0.010477511 0.006670391 0.013348614 0.004672312
00000000: 1b13 683c d794 013c 1fc6 633c 58b7 1c3a
00000010: 2297 063d 3f7b ffba e291 9a3b a647 293c
00000020: dd1c 5e3b 4d03 603c f545 003d 82c0 113d
00000030: c805 313c 1cef 1c3c 8406 da3b 8903 663c
00000040: ace5 53bb 0439 293b 8ed3 ee3b b5e3 b83b
00000050: 65bc a83c f5f2 533c e537 0f3c bb6d 513c
00000060: a45e e83b 92c8 463c bd61 da3c 82ec ce3c
00000070: 4c1d 413c 0ad7 233c bce0 883c 9c5d 913b
00000080: 77ff ab3c c340 d83b 5194 983b 3cf0 823b
00000090: faf7 023c 3422 4d3c 5562 1b3c 4c42 223c
000000a0: cc7b 3c3c ffd4 3c3c 894d 093c 9786 9f3b
000000b0: 47b2 893c fcdd 843c 54cc 193c 602f 1d3c
000000c0: 0ad7 233c dcb5 df3b 736c 9b3c c115 813c
000000d0: 8c19 3f3c 4e7b f63b 8f7c 8e3c 3ff9 bd3c
000000e0: 0ad7 233c 0de5 803c be60 923c c83e 343c
000000f0: 437e 7d3c 35b9 093c fc37 a23b 5caf c23c
00000100: f35f c93c 0275 1f3c da5e cc3b 6a36 32ba
00000110: d444 d63b bde8 9f3c 59ea cc3c 0ce3 023c
00000120: e4c4 363c cbcb 913c 81f0 853c 482e 043d
00000130: 157c 423c 9be4 453c f7be ba3b 714c 363c
00000140: 490e ab3c 50dd d83c b3e9 293b 1b0e d43b
00000150: 1d97 a83b bee4 1e3c d75c d23b f4aa a03c
00000160: a74b 7a3b f04a 753c d67c c03c f669 333c
00000170: 85e1 aa3c 9048 163c a790 fc3b 946f ce3c
00000180: 3627 043c c459 c83b 0bfc a23c 395d 0d3c
00000190: 21b0 093c e511 a33b 766b 873c 8fd7 963c
000001a0: f007 8e3c e0b6 e63b 14f3 133c baeb 2a3c
000001b0: 9184 4b3c 6048 fd3b 9987 213c 3f19 d03b
000001c0: 059e ba3c 91fc 4e3c f285 083b 24e0 fd3b
000001d0: d22f 0cbb 96b8 7c3b 1cf3 bc3b 3b82 5b3c
000001e0: 490a 3a3c 3a48 993c f496 233c 9b63 873b
000001f0: dea9 2b3c 4c93 da3b 25b4 5a3c 321a 993b

weight f4 [12, 128]
0.23249386 -0.16486645 0.04372251 -0.0050052786 -0.19501938 -0.007364116 -0.029976556 0.04768867
-0.07568372 -0.17501757 0.14612304 0.20186079 0.026223253 -0.18690687 -0.3315441 0.07638847
-0.14017566 -0.12872387 0.015325925 -0.026366496 0.14895833 -0.19224398 0.17043978 -0.0636887
-0.03502692 0.20959991 -0.0075967135 -0.1502946 -0.039779093 -0.20846853 0.12047343 -0.018161498
0.23308279 -0.04537558 0.08607313 -0.12531102 -0.13382348 -0.07080239 0.11384158 -0.00020721724
0.21581756 0.044509172 -0.05429883 -0.0024829006 0.03676559 -0.22526433 -0.11252745 0.1531494
0.11899288 0.1441941 -0.19829756 -0.06706717 0.004000329 -0.04999395 -0.099784404 -0.1392882
-0.13686249 0.17541859 -0.2535499 -0.035880156 0.008572687 -0.08898944 -0.10542578 -0.08209648
-0.19583188 -0.2125448 0.14582728 0.079929456 -0.040185988 -0.24752095 -0.08064824 0.07782951
-0.056448832 0.100889236 -0.034868576 0.13690044 -0.16820703 0.16032496 -0.12793984 -0.12083392
-0.24507059 -0.045826584 -0.1914482 -0.09447692 0.13741656 0.20699093 0.16852249 0.015991462
-0.074888416 0.18480042 -0.011240422 0.15286629 -0.04599199 -0.042626992 0.04843757 0.21179345
0.11041962 0.0771477 -0.18882243 0.029804628 0.08398579 -0.06192174 -0.15035316 0.15579964
0.05659171 -0.13498066 0.13204245 0.1751731 -0.13036504 -0.11789343 0.22207159 0.04565464
-0.056484047 0.029062035 0.06960672 0.20922782 0.030503755 -0.12545645 -0.06001023 0.027422141
0.181873 0.26652718 -0.13181888 0.07334237 0.13151704 -0.10815457 -0.1520257 0.02622991
-0.044044077 0.12532268 -0.15517652 -0.03300846 -0.017924692 -0.039342627 -0.021621147 -0.19996445
0.04380268 0.18825714 -0.019697972 0.19646122 -0.1810154 -0.21679951 -0.19706322 0.16639936
-0.08127607 -0.09683637 0.13875625 -0.18895099 0.19956554 0.222686 -0.12685856 0.15474275
-0.106792435 0.18740995 -0.008081407 0.04267057 0.0723605 0.14326371 0.1430091 0.0018838217
-0.026294468 0.056330923 0.07741599 0.052638464 0.06031079 0.12883912 -0.099333785 -0.024942309
-0.20552239 -0.24541906 0.18271661 -0.12048596 -0.20833373 -0.19779932 0.18788078 -0.021013467
-0.15664172 0.12049659 -0.15806593 0.14967953 -0.08360921 -0.17114688 0.21597652 0.10184895
-0.056527957 -0.20165746 0.054816756 0.20095533 0.1408549 -0.10798033 0.16022685 -0.12920618
-0.16130629 0.011725206 -0.03508725 -0.0503181 0.17327507 0.22144565 -0.2043974 -0.07910176
0.16739911 -0.057022117 0.13196416 -0.14370522 0.07474556 -0.12937818 -0.012345189 0.030499015
-0.22756761 -0.3088319 0.01767314 0.16843235 -0.06793312 0.0053644623 0.054950666 0.056172263
-0.08950083 -0.07787619 -0.25038457 -0.08351408 -0.30030945 0.038281217 -0.20092477 0.13552475
-0.19104713 0.18166275 -0.1288939 0.13064244 0.10216585 -0.06993673 -0.112802625 0.020514276
0.04699416 -0.17863789 0.06716756 -0.09554965 0.0026053735 -0.008618757 -0.10220324 0.19797292
-0.019428218 -0.1996261 0.112353116 -0.10827727 -0.15155374 -0.20384568 0.076772824 -0.120500855
-0.06674534 -0.18791832 -0.09920104 0.020561058 -0.29550797 0.32000503 -0.1219773 -0.10893834
00000000: df12 6e3e c0d2 28be 6016 333d 5203 a4bb
00000010: 29b3 47be af4e f1bb 6591 f5bc 3255 433d
00000020: 1100 9bbd ce37 33be 47a1 153e 98b4 4e3e
00000030: 26d2 d63c 8464 3fbe 26c0 a9be 8f71 9c3d
00000040: 358a 0fbe 31d0 03be 9719 7b3c 8dfe d7bc
00000050: 8888 183e 9bdb 44be c487 2e3e 396f 82bd
00000060: 6378 0fbd 5ca1 563e daed f8bb d4e6 19be
00000070: 67ef 22bd c678 55be c6ba f63d 6cc7 94bc
00000080: 41ad 6e3e bfdb 39bd 1c47 b03d 8851 00be
00000090: 0609 09be d800 91bd c625 e93d 7448 59b9
000000a0: 47ff 5c3e 404f 363d 7368 5ebd 29b8 22bb
000000b0: 8497 163d b1ab 66be cb74 e6bd 32d3 1c3e
000000c0: 8ab2 f33d 9ea7 133e 840e 4bbe 835a 89bd
000000d0: 3115 833b 75c6 4cbd c45b ccbd 91a1 0ebe
000000e0: ae25 0cbe eea0 333e 4bd1 81be 12f7 12bd
000000f0: 7574 0c3c 1840 b6bd 79e9 d7bd 3322 a8bd
00000100: 2788 48be 58a5 59be bf53 153e 0eb2 a33d
00000110: 109a 24bd 2276 7dbe e82a a5bd 1465 9f3d
00000120: e436 67bd 049f ce3d 5ad2 0ebd a12f 0c3e
00000130: 773e 2cbe 3a2c 243e a902 03be c677 f7bd
00000140: c9f3 7abe a8b4 3bbd ff0a 44be 1e7d c1bd
00000150: edb6 0c3e 6ef5 533e 2991 2c3e 8700 833c
00000160: 195f 99bd 523c 3d3e bf29 38bc fb88 1c3e
00000170: 1962 3cbd a499 2ebd 7966 463d 62e0 583e
00000180: af23 e23d 9dff 9d3d ab5a 41be d628 f43c
00000190: be00 ac3d a7a1 7dbd 2ef6 19be f189 1f3e
000001a0: b5cc 673d 5f38 0abe 2336 073e 9460 333e
000001b0: 6a7e 05be 1c72 f1bd bc66 633e 5c00 3b3d
000001c0: d15b 67bd 8113 ee3c f88d 8e3d d13f 563e
000001d0: 03e3 f93c a877 00be 49cd 75bd 66a4 e03c
000001e0: ea3c 3a3e 4076 883e 87fb 06be 8634 963d
000001f0: 67ac 063e 2580 ddbd a0ac 1bbe 1ce0 d63c
00000200: 9067 34bd 9754 003e 98e6 1ebe e133 07bd
00000210: ced6 92bc bc25 21bd d51e b1bc 7bc3 4cbe
00000220: 706a 333d 7bc6 403e a45d a1bc 212d 493e
00000230: 1a5c 39be b100 5ebe f1ca 49be 9864 2a3e
00000240: 1174 a6bd 2652 c6bd 1e16 0e3e 5e7c 41be
00000250: e95a 4c3e cc07 643e 36e7 01be e274 1e3e
00000260: feb5 dabd 65e8 3f3e e167 04bc 56c7 2e3d
00000270: be31 943d b9b3 123e fa70 123e 91ea f63a
00000280: 7f67 d7bc 41bb 663d 468c 9e3d 6e9b 573d
00000290: 7208 773d 67ee 033e 836f cbbd d053 ccbc
000002a0: 7674 52be 224f 7bbe 101a 3b3e 58c1 f6bd
000002b0: 7055 55be e88b 4abe d263 403e 6f24 acbc
000002c0: b066 20be ebc6 f63d 09dc 21be 9745 193e
000002d0: 4e3b abbd 2141 2fbe f328 5d3e 2f96 d03d
000002e0: dc89 67bd 4b7f 4ebe 8987 603d 3cc7 4d3e
000002f0: 443c 103e cb24 ddbd 8212 243e a04e 04be
00000300: 7a2d 25be 141b 403c a6b7 0fbd 5a1a 4ebd
00000310: 056f 313e a6c2 623e 8d4d 51be 1b00 a2bd
00000320: ac6a 2b3e 0690 69bd 9d21 073e 7627 13be
00000330: 3314 993d b77b 04be 7a43 4abc 12d9 f93c
00000340: 7c07 69be 371f 9ebe 43c7 903c 8879 2c3e
00000350: 8520 8bbd 5fc8 af3b f313 613d e314 663d
00000360: 364c b7bd 8d7d 9fbd 6832 80be 6e09 abbd
00000370: 29c2 99be c4cc 1c3d 39bf 4dbe 00c7 0a3e
00000380: dca1 43be cd05 3a3e c3fc 03be 22c7 053e
00000390: 543c d13d fd3a 8fbd 1005 e7bd 8e0d a83c
000003a0: f37c 403d daec 36be 258f 893d 89af c3bd
000003b0: eabe 2a3b b035 0dbc ef4f d1bd 6ab9 4a3e
000003c0: ed27 9fbc c96a 4cbe 6419 e63d 79c0 ddbd
000003d0: e730 1bbe ecbc 50be 123b 9d3d 27c9 f6bd
000003e0: c8b1 88bd a96d 40be ea29 cbbd aa6f a83c
000003f0: d24c 97be b3d7 a33e 3ccf f9bd 101b dfbd

bias f4 [12]
0.008178799 0.017083913 0.020181544 0.009112305 0.011374418 -0.009386812 -0.026998868 0.018732281
0.012334134 -0.0070543573 0.010785801 -0.013756807
00000000: 5f00 063c 90f3 8b3c c453 a53c c74b 153c
00000010: c45b 3a3c 25cb 19bc bb2c ddbc 7174 993c
00000020: 1c15 4a3c 3d28 e7bb eeb6 303c 3b64 61bc

exp_avg f4 [128, 54]
7.683484e-05 -8.301997e-06 -8.301997e-06 8.513684e-05 0.0 -6e-45 -0.0002296533 -0.00031479014
-0.00031479014 0.0005535492 8.080809e-05 9.8196746e-05 0.00055719446 8.44534e-05 0.000101842044 0.00028250748
-0.00019023361 -0.00017284494 0.00016795873 0.00016795873 8.367132e-05 0.0001689068 0.0001689068 8.4619336e-05
0.00024302649 0.00024302649 0.00015873907 0.00017345013 0.00026625558 -0.00020648549 0.00016055477 0.0002533602
-0.00021938086 0.00067591225 0.00076871767 0.00029597658 0.00043747952 0.00039560086 0.00039560086 0.00037969224
0.0003378136 0.0003378136 0.0006160627 0.0005741841 0.0005741841 0.00014316847 0.0001858965 0.0001858965
0.00037953895 0.00042226698 0.00042226698 0.00039716845 0.00043989642 0.00043989642 0.00014211635 8.752688e-06
-3.9795064e-05 0.00013336365 0.0 -4.854775e-05 0.0005380789 0.0004047153 0.0003561675 -0.0007957272
-9.2942515e-05 -0.0002897028 -0.0008014655 -9.868066e-05 -0.00029544096 -0.00037683477 0.00032595007 0.0001291898
-0.000210888 -0.00019162317 -0.00032498685 -0.00021662615 -0.00019736133 -0.00033072493 -0.00025514257 -0.00023587774
-0.0003692414 -6.6791254e-06 -0.0003162711 0.00036114518 1.3549899e-05 -0.0002960421 0.0003813742 -0.0007772797
-0.0010868717 -0.00040945542 -0.0004998163 -0.0005664983 -0.00052752777 -0.0003280408 -0.00039472265 -0.00035575218
-0.0006662081 -0.0007328899 -0.0006939195 -0.0001965492 -0.00012986758 -0.00010102533 -0.00056008523 -0.0004934033
-0.0004645613 -0.0005011413 -0.00043445948 -0.0004056174 6e-45 6e-45 -6e-45 6e-45
0.0 -6e-45 6e-45 6e-45 6e-45 -6e-45 -6e-45 -6e-45
-6e-45 -6e-45 -6e-45 -6e-45 -6e-45 -6e-45 -6e-45 -6e-45
-6e-45 -6e-45 -6e-45 -6e-45 -6e-45 -6e-45 -6e-45 -6e-45
-6e-45 -6e-45 -6e-45 -6e-45 -6e-45 -6e-45 -6e-45 -6e-45
-6e-45 -6e-45 -6e-45 -6e-45 -6e-45 -6e-45 -6e-45 -6e-45
-6e-45 6e-45 6e-45 6e-45 -6e-45 -6e-45 -6e-45 -6e-45
-6e-45 -6e-45 6e-45 6e-45 6e-45 6e-45 0.0 -6e-45
6e-45 -6e-45 -6e-45 6e-45 6e-45 6e-45 6e-45 6e-45
6e-45 6e-45 6e-45 6e-45 6e-45 6e-45 6e-45 6e-45
6e-45 6e-45 6e-45 6e-45 6e-45 6e-45 6e-45 6e-45
6e-45 6e-45 6e-45 6e-45 6e-45 6e-45 6e-45 6e-45
6e-45 6e-45 6e-45 6e-45 6e-45 6e-45 6e-45 6e-45
6e-45 6e-45 6e-45 6e-45 6e-45 6e-45 6e-45 6e-45
-3.776926e-05 -2.886785e-07 -4.63644e-06 -3.7480582e-05 0.0 -4.347761e-06 9.980555e-05 0.00013728612
0.00013293835 -0.0005731099 -7.9263045e-05 0.000100861915 -0.0005717338 -7.78869e-05 0.00010223805 -0.00043238286
6.146393e-05 0.00024158893 -0.00018438413 -0.00015749066 -0.00012098383 -0.00018266733 -0.0001557738 -0.000119267024
-0.00015101877 -0.00012412526 -8.7618464e-05 -0.00033348575 -0.00023027905 0.00025152534 -0.00033686735 -0.00023366076
0.00024814365 -0.0006451529 -0.0005419462 -6.0141843e-05 -0.00028769122 -0.00026960165 -0.00028768438 -0.00032963717
00000000: 6422 a138 ce48 0bb7 ce48 0bb7 7e8b b238
00000010: 0000 0000 0400 0080 17cf 70b9 6b0a a5b9
00000020: 6b0a a5b9 0f1c 113a 8377 a938 faee cd38
00000030: b010 123a 931c b138 0894 d538 831d 9439
00000040: 7279 47b9 b63d 35b9 141e 3039 141e 3039
00000050: b378 af38 931c 3139 931c 3139 a975 b138
00000060: edd4 7e39 edd4 7e39 3273 2639 2ae0 3539
00000070: 3898 8b39 0784 58b9 985a 2839 6ed5 8439
00000080: 9a09 66b9 b42f 313a c583 493a 4e2d 9b39
00000090: 825d e539 a668 cf39 a668 cf39 6e11 c739
000000a0: 931c b139 931c b139 457f 213a d884 163a
000000b0: d884 163a 7e1f 1639 36ed 4239 36ed 4239
000000c0: dbfc c639 b763 dd39 b763 dd39 0c3b d039
000000d0: e6a1 e639 e6a1 e639 1105 1539 82d8 1237
000000e0: a0e9 26b8 88d7 0b39 0000 0000 c09f 4bb8
000000f0: dd0d 0d3a f82f d439 febb ba39 5998 50ba
00000100: 22ea c2b8 40e3 97b9 7019 52ba c7f2 ceb8
00000110: 6ae5 9ab9 e891 c5b9 47e4 aa39 1f77 0739
00000120: d121 5db9 74ee 48b9 ff62 aab9 2426 63b9
00000130: c7f2 4eb9 2665 adb9 a8c4 85b9 f355 77b9
00000140: be96 c1b9 401d e0b6 30d1 a5b9 1658 bd39
00000150: 6054 6337 1936 9bb9 2ef3 c739 5cc2 4bba
00000160: 5d75 8eba 2dac d6b9 1b06 03ba 0f81 14ba
00000170: ca49 0aba e4fc abb9 c7f2 ceb9 4084 bab9
00000180: 78a4 2eba 691f 40ba 26e8 35ba c618 4eb9
00000190: 102d 08b9 90dd d3b8 afd2 12ba bc57 01ba
000001a0: 5d90 f3b9 065f 03ba 2ac8 e3b9 0ca9 d4b9
000001b0: 0400 0000 0400 0000 0400 0080 0400 0000
000001c0: 0000 0000 0400 0080 0400 0000 0400 0000
000001d0: 0400 0000 0400 0080 0400 0080 0400 0080
000001e0: 0400 0080 0400 0080 0400 0080 0400 0080
000001f0: 0400 0080 0400 0080 0400 0080 0400 0080
00000200: 0400 0080 0400 0080 0400 0080 0400 0080
00000210: 0400 0080 0400 0080 0400 0080 0400 0080
00000220: 0400 0080 0400 0080 0400 0080 0400 0080
00000230: 0400 0080 0400 0080 0400 0080 0400 0080
00000240: 0400 0080 0400 0080 0400 0080 0400 0080
00000250: 0400 0080 0400 0080 0400 0080 0400 0080
00000260: 0400 0080 0400 0000 0400 0000 0400 0000
00000270: 0400 0080 0400 0080 0400 0080 0400 0080
00000280: 0400 0080 0400 0080 0400 0000 0400 0000
00000290: 0400 0000 0400 0000 0000 0000 0400 0080
000002a0: 0400 0000 0400 0080 0400 0080 0400 0000
000002b0: 0400 0000 0400 0000 0400 0000 0400 0000
000002c0: 0400 0000 0400 0000 0400 0000 0400 0000
000002d0: 0400 0000 0400 0000 0400 0000 0400 0000
000002e0: 0400 0000 0400 0000 0400 0000 0400 0000
000002f0: 0400 0000 0400 0000 0400 0000 0400 0000
00000300: 0400 0000 0400 0000 0400 0000 0400 0000
00000310: 0400 0000 0400 0000 0400 0000 0400 0000
00000320: 0400 0000 0400 0000 0400 0000 0400 0000
00000330: 0400 0000 0400 0000 0400 0000 0400 0000
00000340: 0400 0000 0400 0000 0400 0000 0400 0000
00000350: 0400 0000 0400 0000 0400 0000 0400 0000
00000360: 6f6a 1eb8 acfb 9ab4 b792 9bb6 7834 1db8
00000370: 0000 0000 fce2 91b6 b24e d138 76f4 0f39
00000380: 5e65 0b39 c13c 16ba 063a a6b8 d485 d338
00000390: 68e0 15ba 3657 a3b8 a368 d638 72b1 e2b9
000003a0: 32e6 8038 0953 7d39 3d57 41b9 1424 25b9
000003b0: b3b8 fdb8 638a 3fb9 3657 23b9 ff1e fab8
000003c0: cb5a 1eb9 9f27 02b9 cebf b7b8 b3d7 aeb9
000003d0: 1077 71b9 29df 8339 929d b0b9 d502 75b9
000003e0: 4719 8239 7a1f 29ba 6511 0eba d040 7cb8
000003f0: 43d5 96b9 5259 8db9 58d4 96b9 27d3 acb9

exp_avg_sq f4 [128, 54]
2.563963e-05 1.9359868e-05 1.9561212e-05 6.136349e-06 0.0 1.797651e-07 0.0010424182 0.0010335984
0.0010337131 0.1044581 0.022126243 0.1134648 0.10458328 0.022053096 0.11348984 0.10641276
0.024234004 0.11553228 0.08807003 0.0880612 0.08805639 0.088226825 0.088212386 0.088196665
0.0872998 0.0872494 0.08722938 0.10715142 0.19823243 0.11623122 0.10715642 0.19847716
0.115970805 0.10452823 0.19542785 0.113689005 0.45547593 0.45552146 0.45550597 0.35286137
0.35284954 0.3528321 0.44571567 0.44581792 0.44578582 0.45872045 0.45884478 0.45875487
0.55107385 0.55132484 0.5512024 0.44797984 0.44815806 0.44804463 4.8357564e-05 4.2696433e-05
4.5794277e-05 6.100187e-06 0.0 3.1349646e-06 0.0019779175 0.0019683212 0.0019700015 0.07256168
0.008919513 0.013293615 0.072807774 0.008876861 0.013342456 0.07563153 0.012177671 0.016494952
0.035387404 0.035422027 0.0354332 0.035487507 0.035507444 0.035500858 0.03429047 0.034254007
0.034246005 0.075614505 0.07972275 0.019704543 0.07561751 0.07989107 0.019266056 0.07136914
0.075215474 0.015566728 0.14679505 0.14676133 0.14680062 0.1420618 0.14202978 0.1420682
0.21006879 0.21004024 0.2101113 0.15043071 0.15043548 0.15044314 0.22190371 0.22191986
0.22195052 0.21647465 0.21649268 0.2165232 1.5049274e-11 4.4742357e-13 2.4325169e-11 1.4992342e-11
0.0 2.3732493e-11 1.4582332e-11 7.9254886e-13 2.4381963e-11 2.558233e-11 3.8404223e-12 2.0821737e-11
2.5063092e-11 2.6391608e-12 4.078157e-11 2.5004889e-11 2.8947665e-12 4.117305e-11 4.1056415e-11 2.698306e-11
3.4424765e-11 2.463988e-11 1.0556643e-11 1.7369562e-11 2.3471705e-11 1.0522486e-11 1.7377566e-11 3.4711286e-11
2.2927238e-11 3.6333856e-11 4.450238e-11 2.3752347e-11 3.5207306e-11 4.3691634e-11 2.3240854e-11 3.5586388e-11
1.109821e-11 2.1430809e-11 1.2413277e-11 3.308451e-11 4.2226573e-11 2.4624943e-11 2.077147e-11 2.914099e-11
1.05556675e-11 3.1784332e-11 4.258796e-11 7.152154e-12 5.300357e-11 6.597882e-11 2.8452702e-11 1.5920671e-11
2.9445706e-11 1.2417035e-11 1.9148594e-09 1.185541e-13 6.046361e-12 4.279664e-09 0.0 5.995099e-12
3.782628e-09 5.5458485e-11 6.103742e-11 3.220868e-09 3.1533623e-10 2.4785307e-09 3.220885e-09 3.1530728e-10
2.4785642e-09 2.5572602e-09 4.8129345e-10 3.3083358e-09 1.2658934e-09 1.2612373e-09 3.9647814e-09 1.2659147e-09
1.2612291e-09 3.314779e-09 1.5425261e-09 1.5378501e-09 2.927558e-09 5.107861e-09 2.8003664e-09 1.6474991e-09
5.144914e-09 2.8377605e-09 1.6848434e-09 6.029797e-09 2.3399729e-09 1.1866854e-09 1.2981568e-09 4.035603e-09
4.0326302e-09 2.3074427e-09 5.0449165e-09 5.041916e-09 3.6060979e-09 6.992693e-09 6.990727e-09 2.82576e-09
5.547401e-09 5.543325e-09 4.1239225e-09 7.8827105e-09 7.875817e-09 8.288101e-10 3.261047e-09 3.2543268e-09
1.4765228e-05 1.0666089e-05 1.4603156e-05 3.9396314e-06 0.0 3.874621e-06 0.0005610254 0.00055631326
0.00056274876 0.03714531 0.006293035 0.025547672 0.03719433 0.0062764967 0.025552975 0.037659604
0.0069191777 0.026101993 0.025087109 0.025075343 0.025090275 0.025120322 0.025105987 0.02511961
0.024802808 0.024772676 0.024785185 0.037164684 0.056435265 0.027321987 0.03716457 0.05648856
0.02722715 0.036226373 0.05527837 0.026413977 0.122055285 0.122051336 0.1220382 0.10041745
00000000: b014 d737 0067 a237 6217 a437 d6e6 cd36
00000010: 0000 0000 7405 4134 c0a1 883a cf79 873a
00000020: a87d 873a 21ee d53d 1842 b53c 3c60 e83d
00000030: c22f d63d b2a8 b43c 5c6d e83d efee d93d
00000040: 6486 c63c 309c ec3d 0f5e b43d 6e59 b43d
00000050: e956 b43d 44b0 b43d b2a8 b43d 74a0 b43d
00000060: 3dca b23d d0af b23d 51a5 b23d 3472 db3d
00000070: 71fd 4a3e a20a ee3d d374 db3d 993d 4b3e
00000080: 1a82 ed3d e612 d63d 3d1e 483e c8d5 e83d
00000090: 2434 e93e 1c3a e93e 1438 e93e 3faa b43e
000000a0: b2a8 b43e 69a6 b43e d834 e43e 3f42 e43e
000000b0: 0a3e e43e 68dd ea3e b4ed ea3e ebe1 ea3e
000000c0: 2d13 0d3f a023 0d3f 9a1b 0d3f 9d5d e53e
000000d0: f974 e53e 1b66 e53e 8ad3 4a38 f214 3338
000000e0: 3b13 4038 35b0 cc36 0000 0000 4862 5236
000000f0: f39f 013b f3fe 003b 241b 013b 389b 943d
00000100: 2623 123c 76cd 593c 3e1c 953d 4170 113c
00000110: 519a 5a3c b4e4 9a3d db84 473c 6c20 873c
00000120: 62f2 103d b016 113d 6722 113d 595b 113d
00000130: 4170 113d 5969 113d 2a74 0c3d ee4d 0c3d
00000140: 8a45 0c3d c7db 9a3d ae45 a33d 6c6b a13c
00000150: 5add 9a3d ee9d a33d d9d3 9d3c fc29 923d
00000160: 920a 9a3d 970b 7f3c 7151 163e 9a48 163e
00000170: e752 163e a678 113e 4170 113e 547a 113e
00000180: 461c 573e ca14 573e 6b27 573e 820a 1a3e
00000190: c20b 1a3e c40d 1a3e ba3a 633e f63e 633e
000001a0: ff46 633e 88ab 5d3e 42b0 5d3e 42b8 5d3e
000001b0: f45f 842d 88e0 fb2a 69f7 d52d c1df 832d
000001c0: 0000 0000 d3c0 d02d 7e44 802d 2a15 5f2b
000001d0: 4d77 d62d 4906 e12d 731f 872c 6226 b72d
000001e0: 1175 dc2d e5b6 392c f75b 332e 01f2 db2d
000001f0: 7ab3 4b2c bc14 352e 6a91 342e 7358 ed2d
00000200: d766 172e 14bc d82d e5b6 392d c7c8 982d
00000210: 9575 ce2d 101d 392d cdda 982d 6fa9 182e
00000220: 8dab c92d 49cc 1f2e 3ab9 432e 88ed d02d
00000230: e7d7 1a2e 6828 402e c06d cc2d b682 1c2e
00000240: e53d 432d e481 bc2d 6e60 5a2d d981 112e
00000250: e5b6 392e 719a d82d 31b5 b62d d729 002e
00000260: 80b2 392d fac9 0b2e c84d 3b2e e0a4 fb2c
00000270: b71c 692e c616 912e ca45 fa2d 2a0a 8c2d
00000280: eb80 012e 5b71 5a2d 9096 0331 e57a 052a
00000290: c7bc d42c 530c 9331 0000 0000 0def d22c
000002a0: 59f8 8131 b4e8 732e 0339 862e 1c56 5d31
000002b0: a15b ad2f c652 2a31 6856 5d31 8e57 ad2f
000002c0: 5d53 2a31 ccbb 2f31 044c 0430 dc58 6331
000002d0: aafb ad30 d857 ad30 963a 8831 6afc ad30
000002e0: 8e57 ad30 35ca 6331 d000 d430 4a5c d330
000002f0: 252e 4931 3881 af31 9170 4031 396e e230
00000300: 24c7 b031 6902 4331 2890 e730 a82e cf31
00000310: 3dcd 2031 c818 a330 d56a b230 8aa9 8a31
00000320: 648f 8a31 f690 1e31 8e57 ad31 2a3d ad31
00000330: 25cf 7731 6144 f031 1633 f031 4c2f 4231
00000340: 759b be31 9a77 be31 68b2 8d31 876c 0732
00000350: 364e 0732 53d2 6330 f218 6031 b9a2 5f31
00000360: 2cb8 7737 81f2 3237 1400 7537 2d31 8436
00000370: 0000 0000 be02 8236 c711 133a 8dd5 113a
00000380: 6e85 133a ae25 183d ce35 ce3b 5a49 d13c
00000390: 1559 183d 12ab cd3b 7954 d13c f540 1a3d
000003a0: 45ba e23b d9d3 d53c 7b83 cd3c ce6a cd3c
000003b0: 1f8a cd3c 22c9 cd3c 12ab cd3c a4c7 cd3c
000003c0: 422f cb3c 11f0 ca3c 4d0a cb3c ff39 183d
000003d0: aa28 673d 5cd2 df3c e039 183d 8c60 673d
000003e0: 790b df3c 1b62 143d 926b 623d 2062 d83c
000003f0: 1ff8 f93d 0df6 f93d 2aef f93d aaa7 cd3d

exp_avg f4 [128]
8.44534e-05 -9.868066e-05 -6e-45 6e-45 -7.78869e-05 -0.00017577245 -0.0001596119 2.5593246e-05
-0.00012153027 3.9930578e-07 4.043648e-05 -9.379126e-06 -0.00012518946 -8.3378516e-05 -9.8963064e-05 2.1724072e-05
0.00011853461 -0.00013666193 -0.00027465308 1.1640934e-07 6e-45 -8.492452e-06 0.000141709 -6e-45
6e-45 8.610015e-06 -3.9938237e-05 0.00018661191 1.944587e-06 2.892546e-06 6e-45 -4.720234e-05
6e-45 6e-45 -6e-45 -0.00011880553 6e-45 -0.00010804016 0.000108813634 -0.00025148707
-0.000132517 1.6688082e-05 3.3185406e-06 0.0 -0.00035611476 -2.2286957e-05 -5.182752e-05 4.664599e-05
0.00040325438 -6.770062e-05 -9.462823e-06 0.0 4.2933152e-05 -4.9309674e-06 6e-45 -6e-45
0.00013519995 6e-45 0.0 -0.00021295488 -0.0001429677 6e-45 -2.56062e-05 6e-45
2.403349e-05 -6.9886795e-05 0.0 -0.00024260444 3.718309e-05 6e-45 -1.661776e-05 6e-45
-0.00012880328 -3.1745254e-05 -6e-45 -7.672635e-05 1.5546817e-05 6e-45 -2.4982073e-06 5.3023436e-05
-6.334485e-07 -0.00023933247 1.5298967e-05 1.4384286e-05 -0.00019739976 -0.00040878984 -9.021101e-05 -8.322747e-05
-9.013436e-05 -0.0001716003 -0.00011700624 -4.7135494e-05 7.2256375e-06 6.022006e-05 -2.487379e-05 -9.714652e-05
0.00015043514 6e-45 1.1331034e-05 6e-45 -1.8475455e-07 -0.0001800243 0.00016078766 -1.8610372e-05
6e-45 6e-45 0.000108039894 -0.00017589933 6e-45 0.00010855617 6e-45 6e-45
6e-45 9.97892e-05 -0.00010732383 8.174316e-06 0.0001694955 6e-45 4.354967e-05 -0.00020211445
-9.255798e-05 8.188097e-06 6e-45 -0.00012277461 0.0 -2.604811e-05 6e-45 -0.000118521304
00000000: 931c b138 c7f2 ceb8 0400 0080 0400 0000
00000010: 3657 a3b8 8f4f 38b9 7e5d 27b9 14b1 d637
00000020: 11de feb8 2b60 d634 579a 2938 0a5b 1db7
00000030: 4a45 03b9 80db aeb8 648a cfb8 173c b637
00000040: c995 f838 e84c 0fb9 50ff 8fb9 b6fc f933
00000050: 0400 0000 ce7a 0eb7 b897 1439 0400 0080
00000060: 0400 0000 bc73 1037 5b83 27b8 41ad 4339
00000070: c07f 0236 901d 4236 0400 0000 20fb 45b8
00000080: 0400 0000 0400 0000 0400 0080 3c27 f9b8
00000090: 0400 0000 9f93 e2b8 e032 e438 06da 83b9
000000a0: 43f4 0ab9 62fd 8b37 18b4 5e36 0000 0000
000000b0: eab4 bab9 e0f4 bab7 6061 59b8 c0a5 4338
000000c0: e36b d339 7efa 8db8 84c2 1eb7 0000 0000
000000d0: 1f13 3438 b074 a5b6 0400 0000 0400 0080
000000e0: 76c4 0d39 0400 0000 0000 0000 a44c 5fb9
000000f0: 9ae9 15b9 0400 0000 e5cc d6b7 0400 0000
00000100: 879b c937 3090 92b8 0000 0000 a263 7eb9
00000110: 0af5 1b38 0400 0000 5e66 8bb7 0400 0000
00000120: 5e0f 07b9 3526 05b8 0400 0080 25e8 a0b8
00000130: 896a 8237 0400 0000 e0a6 27b6 7b65 5e38
00000140: 400a 2ab5 52f5 7ab9 4856 8037 0a54 7137
00000150: 18fd 4eb9 d852 d6b9 ab2f bdb8 688a aeb8
00000160: 8406 bdb8 9bef 33b9 3f61 f5b8 5ab3 45b8
00000170: c173 f236 cc94 7c38 0fa8 d0b7 24bb cbb8
00000180: 20be 1d39 0400 0000 6c1a 3e37 0400 0000
00000190: f260 46b4 e8c4 3cb9 1c99 2839 781d 9cb7
000001a0: 0400 0000 0400 0000 7a93 e238 9e71 38b9
000001b0: 0400 0000 a6a8 e338 0400 0000 0400 0000
000001c0: 0400 0000 eb45 d138 0b13 e1b8 6b24 0937
000001d0: 9aba 3139 0400 0000 1aa9 3638 afee 53b9
000001e0: b01b c2b8 9c5f 0937 0400 0000 0fbd 00b9
000001f0: 0000 0000 e481 dab7 0400 0000 a48e f8b8

exp_avg_sq f4 [128]
0.022053096 0.008876861 2.6391608e-12 3.1530728e-10 0.0062764967 0.12433052 0.012545824 0.03592244
0.023935236 1.6855034e-05 0.0013225932 0.0070164287 0.0134846205 0.0041943067 0.026932567 1.7996525e-05
0.03354546 0.012659431 0.012343524 2.199549e-07 2.2039779e-17 0.025670927 0.022867363 3.9472938e-14
9.109227e-17 3.814369e-05 0.0025083555 0.05244483 0.0052941223 0.008260138 1.6348749e-12 0.012319924
1.8813657e-14 1.1390976e-10 1.6364926e-13 0.010968694 2.938993e-14 0.00556789 0.026802454 0.00814063
0.018587595 0.005438546 0.0020956674 0.0 0.0309532 9.7009935e-05 0.0010419675 0.010491476
0.048624817 0.006816037 0.010518015 0.0 0.057354603 0.005891712 4.24761e-10 8.474482e-15
0.01352894 8.630586e-14 0.0 0.0021780166 0.0082714055 8.4671384e-12 0.0016345462 4.5893886e-16
0.041753206 0.0032647063 0.0 0.068120755 0.013187391 3.1855722e-13 0.0026017565 1.408361e-11
0.0017979497 1.8936267e-07 1.0845403e-11 0.0044534286 0.015949383 2.2545196e-15 0.025876435 0.0076900944
0.0049519697 0.0034490866 0.0050549004 0.00011811211 0.0078118583 0.00058077596 0.014195982 0.002865525
0.003513262 0.018880518 0.016665734 0.00015442856 0.0073629953 0.03472647 0.014268735 0.0010121159
0.042486686 4.0390966e-10 0.0035866415 9.152128e-15 9.10256e-06 0.00042974058 0.06325211 0.0008649891
4.5514964e-15 1.2324824e-10 0.0029728436 0.0066424264 2.9433783e-10 5.0956452e-05 5.0049883e-17 3.3731597e-11
1.0089315e-13 4.6646757e-05 0.009994559 4.8405043e-05 0.002838764 3.092857e-14 0.005277352 0.0029876991
0.003658012 0.0118484525 3.2525655e-12 0.0026368224 0.0 3.4270983e-05 5.267237e-14 0.0062522176
00000000: b2a8 b43c 4170 113c e5b6 392c 8e57 ad2f
00000010: 12ab cd3b 00a1 fe3d 008d 4d3c 6923 133d
00000020: d413 c43c e963 8d37 dd5a ad3a 12ea e53b
00000030: 99ee 5c3c 6570 893b b0a1 dc3c 3ef7 9637
00000040: f766 093d 8169 4f3c 7e3c 4a3c be2c 6c34
00000050: f547 cb23 d64b d23c 5654 bb3c 33c5 3129
00000060: 630b d224 7afc 1f38 3963 243b 64d0 563d
00000070: 517a ad3b 8855 073c 9316 e62b 82d9 493c
00000080: 5775 a928 7e7d fa2e b040 382a 0ab6 333c
00000090: 485c 0429 d972 b63b d290 db3c 4760 053c
000000a0: 0345 983c d535 b23b 7757 093b 0000 0000
000000b0: 9191 fd3c d071 cb38 a192 883a 71e4 2b3c
000000c0: d12a 473d 1059 df3b c153 2c3c 0000 0000
000000d0: a9ec 6a3d 430f c13b cc83 e92f a6a9 1828
000000e0: 7da8 5d3c f157 c229 0000 0000 0ebd 0e3b
000000f0: ca84 073c 9af4 142d 453e d63a b647 0426
00000100: 6905 2b3d aff4 553b 0000 0000 e582 8b3d
00000110: ed0f 583c ef54 b32a 3b82 2a3b f1c2 772d
00000120: 2ea9 eb3a 9d53 4b34 5acb 3e2d 11ee 913b
00000130: 48a8 823c 8c74 2227 d1fa d33c 30fd fb3b
00000140: 2244 a23b 120a 623b 94a3 a53b f5b2 f738
00000150: 9efa ff3b 373f 183a 4496 683c 88cb 3b3b
00000160: c13e 663b 51ab 9a3c 9486 883c 1aee 2139
00000170: 4845 f13b 583d 0e3d 6ac7 693c f9a8 843a
00000180: 8506 2e3d 3b0d de2f dc0d 6b3b bede 2428
00000190: 33b7 1837 ce4e e139 528a 813d 70c0 623a
000001a0: 25fc a327 4c83 072f 0ad4 423b b6a8 d93b
000001b0: 5ed0 a12f 13ba 5538 79d0 6624 675a 142e
000001c0: f130 e329 93a6 4338 38c0 233c 8506 4b38
000001d0: 8f0a 3a3b 374a 0b29 a3ed ac3b 46cd 433b
000001e0: 42bb 6f3b 0320 423c 03e1 642c 8ace 2c3b
000001f0: 0000 0000 30be 0f38 1c37 6d29 67df cc3b

exp_avg f4 [128, 128]
0.0003001309 -0.000100752826 6e-45 -6e-45 -0.0002608447 0.00015495012 -0.000108642525 -0.00033583687
-0.0007126027 -1.0658278e-08 2.3168629e-07 -0.000112080896 -0.0005904305 -0.00017507744 -0.00025943425 7.634833e-05
-0.0009537054 -0.00023351276 -0.00029011027 -3.3064447e-07 -6e-45 -0.0003897132 -0.00025484996 -6e-45
6e-45 1.1016106e-05 1.2782992e-05 -0.00024427375 -0.0006008911 -0.0008038898 6e-45 -0.00087565626
6e-45 -6e-45 -6e-45 -0.00015646551 -6e-45 -0.00083837705 -1.637618e-05 -0.00036669057
-0.000210138 -0.0005173436 4.3090786e-06 0.0 -0.00031528436 -4.6334408e-06 -0.00012455968 -5.629467e-05
-0.00013868962 -0.00078711554 -0.0004984128 0.0 -1.0018171e-05 -0.00051799807 6e-45 -6e-45
0.00023995893 6e-45 0.0 -0.000834621 0.00037305854 -6e-45 -0.0010482136 -6e-45
-0.00064392254 0.0004269855 0.0 -0.00039175575 -0.0015158611 -6e-45 -0.00031026054 -6e-45
-0.00019604457 -4.388045e-05 -6e-45 2.0880148e-05 -0.00060212583 6e-45 -0.000502603 -0.0004884085
-0.00014384212 -0.00021673182 -0.00017679266 3.068624e-05 0.0002190929 0.00024216842 -0.00048983085 -0.00021608858
8.850907e-07 -0.00019017678 -0.0003120434 2.6809637e-05 -0.00025714538 -8.8054745e-05 -0.00060076744 0.00024830922
9.510159e-05 6e-45 -0.00020631895 -6e-45 -5.641526e-07 -0.00011218426 -0.000710004 -0.00079455157
6e-45 -6e-45 -0.0006614222 -9.692407e-05 -6e-45 -9.06742e-05 6e-45 6e-45
6e-45 0.0004662878 -0.0004889254 -1.1735585e-05 -3.73003e-05 -6e-45 1.0538443e-05 -2.1085054e-05
-0.00078439136 8.7114466e-05 6e-45 0.00023991418 0.0 -3.329162e-05 -6e-45 -0.001321979
6e-45 6e-45 -6e-45 -6e-45 6e-45 -6e-45 6e-45 6e-45
6e-45 -6e-45 6e-45 6e-45 6e-45 6e-45 6e-45 6e-45
6e-45 6e-45 6e-45 -6e-45 0.0 -6e-45 -6e-45 6e-45
0.0 6e-45 -6e-45 6e-45 6e-45 6e-45 -6e-45 6e-45
6e-45 -6e-45 0.0 6e-45 0.0 6e-45 -6e-45 6e-45
6e-45 -6e-45 -6e-45 0.0 6e-45 6e-45 6e-45 6e-45
-6e-45 6e-45 6e-45 0.0 6e-45 -6e-45 6e-45 0.0
6e-45 0.0 0.0 6e-45 6e-45 -6e-45 6e-45 0.0
6e-45 -6e-45 0.0 6e-45 6e-45 0.0 6e-45 -6e-45
-6e-45 6e-45 -6e-45 -6e-45 6e-45 -6e-45 6e-45 6e-45
6e-45 -6e-45 6e-45 -6e-45 6e-45 6e-45 -6e-45 6e-45
6e-45 6e-45 -6e-45 6e-45 6e-45 6e-45 6e-45 6e-45
-6e-45 -6e-45 6e-45 0.0 -6e-45 6e-45 6e-45 6e-45
6e-45 -6e-45 6e-45 -6e-45 6e-45 -6e-45 0.0 -6e-45
0.0 6e-45 6e-45 -6e-45 6e-45 0.0 6e-45 -6e-45
6e-45 6e-45 -6e-45 6e-45 0.0 6e-45 -6e-45 6e-45
00000000: e35a 9d39 434b d3b8 0400 0000 0400 0080
00000010: fcc1 88b9 1b7a 2239 03d7 e3b8 4313 b0b9
00000020: f5cd 3aba 9a1b 37b2 71c5 7834 f90c ebb8
00000030: 1fc7 1aba fe94 37b9 ad04 88b9 331d a038
00000040: 1602 7aba 1bdb 74b9 f119 98b9 6e83 b1b4
00000050: 0400 0080 6c52 ccb9 629d 85b9 0400 0080
00000060: 0400 0000 d1d1 3837 8876 5637 de11 80b9
00000070: 1e85 1dba 22bc 52ba 0400 0000 4c8c 65ba
00000080: 0400 0000 0400 0080 0400 0080 e410 24b9
00000090: 0400 0080 88c6 5bba 945f 89b7 6040 c0b9
000000a0: 7d58 5cb9 579e 07ba b496 9036 0000 0000
000000b0: c04c a5b9 f478 9bb6 3c9c 02b9 f11d 6cb8
000000c0: 366d 11b9 6e56 4eba eba7 02ba 0000 0000
000000d0: b813 28b7 43ca 07ba 0400 0000 0400 0080
000000e0: 7c9d 7b39 0400 0000 0000 0000 78ca 5aba
000000f0: 1297 c339 0400 0080 3664 89ba 0400 0080
00000100: e9cc 28ba 06dd df39 0000 0000 9164 cdb9
00000110: dcaf c6ba 0400 0080 77aa a2b9 0400 0080
00000120: 5091 4db9 460c 38b8 0400 0080 c727 af37
00000130: fbd7 1dba 0400 0000 1ec1 03ba 8a08 00ba
00000140: 53d4 16b9 8142 63b9 6b61 39b9 19b5 0038
00000150: 4dbc 6539 97ee 7d39 fe67 00ba d695 62b9
00000160: f896 6d35 316a 47b9 c299 a3b9 42e5 e037
00000170: 78d1 86b9 08aa b8b8 d27c 1dba 802f 8239
00000180: 4771 c738 0400 0000 5257 58b9 0400 0080
00000190: 4570 17b5 7744 ebb8 901f 3aba 7449 50ba
000001a0: 0400 0000 0400 0080 4b63 2dba b743 cbb8
000001b0: 0400 0080 5728 beb8 0400 0000 0400 0000
000001c0: 0400 0000 1778 f439 3a2b 00ba f4e3 44b7
000001d0: e472 1cb8 0400 0080 45ce 3037 cfdf b0b7
000001e0: 9d9f 4dba 39b1 b638 0400 0000 7991 7b39
000001f0: 0000 0000 9ba2 0bb8 0400 0080 4146 adba
00000200: 0400 0000 0400 0000 0400 0080 0400 0080
00000210: 0400 0000 0400 0080 0400 0000 0400 0000
00000220: 0400 0000 0400 0080 0400 0000 0400 0000
00000230: 0400 0000 0400 0000 0400 0000 0400 0000
00000240: 0400 0000 0400 0000 0400 0000 0400 0080
00000250: 0000 0000 0400 0080 0400 0080 0400 0000
00000260: 0000 0000 0400 0000 0400 0080 0400 0000
00000270: 0400 0000 0400 0000 0400 0080 0400 0000
00000280: 0400 0000 0400 0080 0000 0000 0400 0000
00000290: 0000 0000 0400 0000 0400 0080 0400 0000
000002a0: 0400 0000 0400 0080 0400 0080 0000 0000
000002b0: 0400 0000 0400 0000 0400 0000 0400 0000
000002c0: 0400 0080 0400 0000 0400 0000 0000 0000
000002d0: 0400 0000 0400 0080 0400 0000 0000 0000
000002e0: 0400 0000 0000 0000 0000 0000 0400 0000
000002f0: 0400 0000 0400 0080 0400 0000 0000 0000
00000300: 0400 0000 0400 0080 0000 0000 0400 0000
00000310: 0400 0000 0000 0000 0400 0000 0400 0080
00000320: 0400 0080 0400 0000 0400 0080 0400 0080
00000330: 0400 0000 0400 0080 0400 0000 0400 0000
00000340: 0400 0000 0400 0080 0400 0000 0400 0080
00000350: 0400 0000 0400 0000 0400 0080 0400 0000
00000360: 0400 0000 0400 0000 0400 0080 0400 0000
00000370: 0400 0000 0400 0000 0400 0000 0400 0000
00000380: 0400 0080 0400 0080 0400 0000 0000 0000
00000390: 0400 0080 0400 0000 0400 0000 0400 0000
000003a0: 0400 0000 0400 0080 0400 0000 0400 0080
000003b0: 0400 0000 0400 0080 0000 0000 0400 0080
000003c0: 0000 0000 0400 0000 0400 0000 0400 0080
000003d0: 0400 0000 0000 0000 0400 0000 0400 0080
000003e0: 0400 0000 0400 0000 0400 0080 0400 0000
000003f0: 0000 0000 0400 0000 0400 0080 0400 0000
