RL_methods/policy_net.pth (torch, 309858 bytes, 18 tensors)

weight f4 [128, 54]
0	0xbdbb568d	-0.091473676
1	0xbd471c80	-0.048611164
2	0xbd048c5d	-0.032360423
3	0x3e0a8310	0.13526559
4	0xbe45f4e8	-0.19331706
5	0xbebf198a	-0.37324172
6	0xbe079221	-0.13239338
7	0xbdf5a38a	-0.11994083
8	0x3e1bfbdc	0.15232795
9	0x3d215cc3	0.039395105
10	0xbe4c46d5	-0.19948895
11	0x3d3bf000	0.04588318
12	0x3cde9609	0.027171152
13	0x3e937c2f	0.28805682
14	0xbe02a843	-0.12759499
15	0x3cd8a6cd	0.026446724
16	0x3e161101	0.14654924
17	0xbe88f309	-0.2674792
18	0xbe229bcd	-0.15879746
19	0x3e93ede9	0.2889245
20	0xbd95bedd	-0.07311795
21	0x3cf828f1	0.03029296
22	0x3cbc1654	0.022959866
23	0x3e563432	0.20918348
24	0x3e2f4539	0.1711625
25	0xbebf89e2	-0.37409884
26	0x3e4b272b	0.1983916
27	0x3e000438	0.1250161
28	0xbd7976b5	-0.060904223
29	0x3e3be330	0.18348384
30	0xbe3b5b7d	-0.18296619
31	0x3e2dec21	0.16984607
32	0x3dfc9dbe	0.123347744
33	0xbe0b55d9	-0.13606967
34	0x3e8ac81e	0.27105802
35	0x3d03abb7	0.032146182
36	0x3c044cb2	0.008074926
37	0x3e17c356	0.14820608
38	0x3d415969	0.04720441
39	0xbe1b00bb	-0.15136997
40	0x3e065e62	0.13121942
41	0xbedd871b	-0.4326714
42	0x3c663eb2	0.014053034
43	0x3bd65f28	0.006542105
44	0xbe09be0d	-0.13451405
45	0x3e573985	0.21018036
46	0x3d51c93f	0.051217314
47	0xbd9a649d	-0.07538722
48	0x3f1a57f8	0.6029048
49	0xbe89c5c6	-0.26908702
50	0x3e001743	0.12508874
51	0xbe4480da	-0.19189778
52	0xbde10aeb	-0.109884106
53	0x3c713b14	0.014723558
54	0x3dd892fb	0.10574909
55	0x3ea68727	0.32524988
56	0x3e9d95e7	0.3077843
57	0xbe4bf026	-0.19915828
58	0xbe295e28	-0.16539824
59	0xbe0b21ae	-0.13587067
60	0xbd554efd	-0.052077282
61	0xbc95f6de	-0.018306192
62	0x3d9e7f84	0.077391654
63	0xbb0d6a2d	-0.0021578178
64	0x3e104704	0.1408959
65	0x3e682e66	0.2267395
66	0x3db38914	0.0876638
67	0xbda54e5d	-0.08071587
68	0xbedfc5e6	-0.43705672
69	0x3d9180a5	0.07104615
70	0x3da048a1	0.07826353
71	0x3dcfc768	0.101454556
72	0x3c205bb4	0.009787489
73	0x3f08020f	0.5312814
74	0xbdfd2c52	-0.12361969
75	0xbc453129	-0.0120356465
76	0x3e91cb82	0.28475577
77	0xbdbdc6c0	-0.09266424
78	0xbdadeaf4	-0.084920794
79	0x3d2c3e96	0.042051874
80	0xbd3f4250	-0.0466941
81	0xbd6d8243	-0.057985555
82	0xbcaf002b	-0.021362385
83	0x3e3a2885	0.1817952
84	0xbe3aa4a9	-0.18226875
85	0x3e11d9c9	0.14243235
86	0xbe59c769	-0.21267475
87	0x3d9086ec	0.07056984
88	0x3eae04b3	0.3398796
89	0x3e5f33be	0.21797082
90	0xbdafb078	-0.085785806
91	0x3ed48c58	0.41513324
92	0xbd65ce1f	-0.056104776
93	0xbe420b67	-0.18949662
94	0x3c26170e	0.010137333
95	0xbe5307f6	-0.20608506
96	0x3e206527	0.15663587
97	0xbad468ba	-0.0016205527
98	0xbcadfc4f	-0.021238474
99	0xbbb7677f	-0.0055970545
100	0xbdfe3844	-0.124130756
101	0xbdfed5ce	-0.12443124
102	0xbe639c77	-0.22227655
103	0xbe10de49	-0.14147295
104	0x3e28cdd1	0.16484763
105	0x3da36177	0.07977574
106	0xbd95438b	-0.072882734
107	0x3d94aa1a	0.07259007
108	0xbdf88c07	-0.12136083
109	0xbc58535a	-0.013203466
110	0xbd2ae17d	-0.04171895
111	0x3c9c0530	0.019045442
112	0x3e9b90c7	0.30383894
113	0xbd854208	-0.06506735
114	0xbc51d201	-0.0128064165
115	0x3d3485e9	0.04407302
116	0xbbd73d6a	-0.0065686004
117	0x3d607737	0.054801192
118	0xbddd7958	-0.1081416
119	0x3ca6dbf8	0.020368561
120	0xbd919914	-0.071092755
121	0xbd09c623	-0.033636224
122	0xbde08e30	-0.1096462
123	0xbd63b291	-0.055590216
124	0xbd9b37d4	-0.07579008
125	0x3cdfec0f	0.027334241
126	0xbd048c29	-0.03236023
127	0xbf099e99	-0.53757626
128	0x3f019dcc	0.50631404
129	0xbd2b0eed	-0.04176228
130	0x3d4184bc	0.047245726
131	0xbc36052f	-0.011109634
132	0xbdabb565	-0.08384208
133	0x3de844ed	0.113412715
134	0xbdfbc624	-0.12293652
135	0xbe70cea1	-0.23516323
136	0x3e06409a	0.13110581
137	0x3851b7f1	5.000079e-05
138	0x3e4289cf	0.18997882
139	0xbe939181	-0.28821948
140	0x3d869b95	0.06572644
141	0x3d6f48cd	0.058419038
142	0xbe074b0c	-0.13212222
143	0xbdc63dc9	-0.09679753
144	0xbecef22c	-0.40419137
145	0x3e44c5c3	0.19216065
146	0xbdc6c24c	-0.09705028
147	0x3f826a80	1.0188751
148	0x3d570286	0.05249264
149	0xbbe72642	-0.0070541212
150	0x3d585aa6	0.052820824
151	0xbde5c0b0	-0.11218393
152	0xbb3e8119	-0.0029068647
153	0xbcc6272c	-0.0241886
154	0xbcd55cae	-0.02604517
155	0xbdc387a2	-0.09547354
156	0xbdb2ebb3	-0.08736362
157	0xbd69e60a	-0.057104148
158	0xbe149abe	-0.14512154
159	0xbdc88652	-0.097912446
160	0x3da5fae9	0.08104498
161	0x3d82984b	0.06376704
162	0xbe0caad4	-0.13737041
163	0xbe04a5cd	-0.12953873
164	0x3e0cfb91	0.1376784
165	0x3d604ddc	0.054761752
166	0xbe972bae	-0.29525512
167	0x3df01934	0.11723557
168	0x3d80537b	0.06265923
169	0xbf0ab2b3	-0.54178923
170	0xbe846f3d	-0.25866118
171	0xbe2891ca	-0.16461864
172	0x3e081bee	0.13291904
173	0xbe597c32	-0.21238783
174	0x3cc64297	0.024201674
175	0x3e37d42d	0.17952032
176	0xbe028c55	-0.12748845
177	0x3ea2bc55	0.3178431
178	0x3e106b9d	0.14103551
179	0x3cada603	0.021197325
180	0x3e5e30e3	0.21698336
181	0x3ebf3d95	0.3735167
182	0xbe469749	-0.19393648
183	0xbdf5bb2a	-0.11998589
184	0xbe16f759	-0.14742793
185	0xbd6ef9c7	-0.058343675
186	0xbc11b37c	-0.00889289
187	0x3e4cb97a	0.19992629
188	0x3d5d18ea	0.053978838
189	0x3db70b57	0.0893771
190	0xbe2b5c90	-0.16734529
191	0xbd0a3f78	-0.033751935
192	0xbe5d87fb	-0.21633904
193	0x3dddca1c	0.10829565
194	0xbbfdab53	-0.0077413707
195	0x3d7edc2c	0.06222169
196	0x3d3792d1	0.04481775
197	0xbe02657d	-0.12734027
198	0xbe091d72	-0.13390139
199	0x3e99c15a	0.30030328
200	0x3bfb48dd	0.007668598
201	0x3c91cd27	0.01779802
202	0x3eb9f8c8	0.36322618
203	0xbcacc21c	-0.021088652
204	0x3c85d873	0.016338563
205	0xbeee0cc7	-0.46494123
206	0x3e738eda	0.23784962
207	0xbd378746	-0.04480674
208	0xbeb61c24	-0.35568345
209	0xbe0c9c0f	-0.13731407
210	0xbad76121	-0.0016432145
211	0xbddd0fcb	-0.10794028
212	0x3e85ddf5	0.26145902
213	0xbe1bc6c5	-0.15212543
214	0x3e83c509	0.25736263
215	0xbde79f6e	-0.11309706
216	0xbd9fee04	-0.0780907
217	0x3d4fffc3	0.050781023
218	0x3e37f70a	0.17965332
219	0xbc62b1c8	-0.013836332
220	0x3e4d11ba	0.20026293
221	0x3e20f7b4	0.15719491
222	0x3d9eed1a	0.07760067
223	0x3bab3e24	0.0052259136
224	0x3e719628	0.23592436
225	0xbe53519d	-0.20636602
226	0x3de08b53	0.10964074
227	0x3e25fd85	0.16209991
228	0x3edcc0fa	0.4311598
229	0x3e670da8	0.22563803
230	0x3d37d6a0	0.044882417
231	0xbd96595e	-0.07341264
232	0xbe26ae28	-0.16277373
233	0x3e2d91cf	0.16950153
234	0xbdd1e899	-0.102494426
235	0xbd7be254	-0.06149514
236	0x3e023b3f	0.12717913
237	0x3e14e66e	0.14541027
238	0x3e581f2a	0.21105638
239	0x3d810007	0.06298833
240	0x3c4c66e3	0.012475702
241	0xbe13479a	-0.14382783
242	0xbe379c0b	-0.1793062
243	0x3db01223	0.08597209
244	0xbed21bb3	-0.41036758
245	0x3d5e8055	0.054321606
246	0xbec095eb	-0.37614378
247	0xbdad7b30	-0.08470762
248	0x3d205b4d	0.03914957
249	0x3e06a3ac	0.13148373
250	0xbdc5c3de	-0.09656499
251	0x3e10535b	0.14094298
252	0xbe187639	-0.14888848
253	0xbe009ba2	-0.12559369
254	0xbe6b5163	-0.22980265
255	0xbea1684b	-0.31524882

bias f4 [128]
0	0xbcf2966c	-0.029612742
1	0xbc3b45b4	-0.011430193
2	0x3c889b10	0.016675502
3	0x3d325e69	0.043547068
4	0xbc9c8fe0	-0.019111574
5	0x3c917fe2	0.017761175
6	0x3d164eca	0.036696233
7	0x3cade4bb	0.021227231
8	0x3ab980dc	0.0014152783
9	0x3b8cd340	0.004297644
10	0x3c9e0710	0.019290477
11	0xbcb48ce3	-0.022039836
12	0x3cf50ac3	0.029912358
13	0x3cb86bb5	0.022512296
14	0xbced09d7	-0.028935356
15	0x3b64ac7b	0.0034892845
16	0xbd1ce9d3	-0.03830893
17	0xbce15d50	-0.027510315
18	0x3cfb07bf	0.030643342
19	0x3d273965	0.04082622
20	0xba7b69e9	-0.0009590672
21	0xba900996	-0.0010989185
22	0x3d224e47	0.039625432
23	0x3d3611f9	0.044450734
24	0x3bd1cbed	0.0064024837
25	0x3c1f116d	0.0097087445
26	0x3cb6245e	0.022234138
27	0xbc6f08b5	-0.014589478
28	0xbba02473	-0.0048871576
29	0x3cb84076	0.022491675
30	0xbbde28e9	-0.006779779
31	0x3bc95616	0.0061442954
32	0x3c368f6e	0.011142595
33	0x3c41f61e	0.011838464
34	0x3c7a8ee6	0.015292859
35	0xbb4ab368	-0.0030929688
36	0x3cf00ece	0.029303934
37	0x3cda30f2	0.026634667
38	0x3cd1745b	0.025568178
39	0xbc91e390	-0.017808706
40	0xbc7573c4	-0.014981214
41	0xbc48191c	-0.012213018
42	0x3d142da9	0.036176357
43	0xbda93a08	-0.08263022
44	0xbd767983	-0.060174476
45	0x3c55b803	0.01304436
46	0x3cca36a8	0.024684265
47	0xbce31fe8	-0.027725175
48	0xbc9b2831	-0.018940063
49	0xbc3c2b4f	-0.011484935
50	0xbd7b6f2f	-0.06138533
51	0x3cb0d0f6	0.021584015
52	0xbd2d9da6	-0.042386673
53	0xbce8e5dc	-0.028429918
54	0xbc126c33	-0.0089369295
55	0x3c077629	0.008267918
56	0xbba7b188	-0.005117599
57	0x3c19aada	0.009379113
58	0xbb4859b7	-0.0030571052
59	0xbbe3b163	-0.0069486364
60	0x3cf568ea	0.029957253
61	0x3cb20e9c	0.021735482
62	0x3c4a7ab4	0.012358356
63	0x3b5dbdf3	0.0033835142
64	0xbc9c7bdb	-0.019102028
65	0x3cd706fa	0.026248444
66	0x3d06d2c2	0.032915838
67	0xbd64363e	-0.055715792
68	0xbcbfccf7	-0.023413165
69	0xbc686c20	-0.014185935
70	0x3d245afd	0.040125836
71	0x3c41de9b	0.011832858
72	0x3aa60d04	0.0012668674
73	0xbc3091b1	-0.010776923
74	0x3c5aea39	0.013361507
75	0x3c9e1804	0.01929856
76	0x3c811e10	0.015761405
77	0xbcfb748e	-0.030695226
78	0x3d1a85eb	0.03772537
79	0xbcbac2ad	-0.022797907
80	0x3cc716b5	0.02430282
81	0xbd7ccdcb	-0.061719697
82	0xbd071a1f	-0.032983895
83	0x3c84d4fd	0.016214842
84	0xbc0f38eb	-0.008741598
85	0x3c3915e3	0.011296722
86	0xbc05593c	-0.008138951
87	0x3d02fc39	0.03197882
88	0xbd219727	-0.03945079
89	0xbc4a4954	-0.012346584
90	0x3d2d319f	0.04228365
91	0x3cb40802	0.021976475
92	0x3bee20b5	0.0072670826
93	0x3ceffc99	0.029295253
94	0xbc3d8fa3	-0.01156989
95	0xbc2514ac	-0.010075729
96	0xbc87db3a	-0.016584028
97	0x3ccbb09d	0.02486449
98	0x3c945ec4	0.018111594
99	0x3cebc85c	0.028782062
100	0xbd042b1b	-0.03226767
101	0x3c275e5a	0.010215366
102	0xbce469e8	-0.027882531
103	0x3d154e7b	0.036451798
104	0x3d487a18	0.048944563
105	0xbc7419f3	-0.014898765
106	0x3cdb4b8b	0.02676942
107	0x3d187409	0.037220035
108	0x3c1ef6ab	0.009702365
109	0xbc44a483	-0.012002113
110	0xbcbd1e31	-0.023085685
111	0x3c662766	0.014047479
112	0x3bd9415f	0.0066301073
113	0xbb432643	-0.0029777444
114	0x3bb42c20	0.005498424
115	0x3cbcc6c6	0.023044001
116	0xbb886e71	-0.0041635563
117	0x3c1990b1	0.009372876
118	0x3cb0a5b3	0.021563387
119	0x3c407326	0.0117462035
120	0xbc26975c	-0.010167923
121	0x3d1a1987	0.037622
122	0x3cb5c8b7	0.022190435
123	0x3d202692	0.039099284
124	0x3d2c23fc	0.042026505
125	0x3c006378	0.007836215
126	0xbcc52642	-0.024066094
127	0x3ba6b555	0.0050875344

weight f4 [128, 128]
0	0xbb17a535	-0.0023139243
1	0x3d896b69	0.0670994
2	0x3de378f1	0.11107052
3	0x3c3e92e0	0.011631697
4	0x3e62d668	0.22152102
5	0x3e898695	0.2686049
6	0x3d5da1b6	0.054109298
7	0xbdcc9c90	-0.099907994
8	0x3e832f41	0.2562199
9	0xbdc93e9c	-0.09826395
10	0xbe34a9cb	-0.17642896
11	0xbe1f3b5b	-0.15549986
12	0x3dd7822a	0.10522874
13	0xbd516c33	-0.051128577
14	0xbda3f4fc	-0.080057114
15	0x3e019797	0.12655483
16	0xbe9e40e4	-0.30908883
17	0xbe00f9b1	-0.1259525
18	0x3e17861f	0.14797257
19	0xbdf53cb9	-0.119744726
20	0xbc3544a2	-0.011063727
21	0x3c76a7d2	0.01505466
22	0x3df5df84	0.12005523
23	0xbe2ed0f9	-0.17071904
24	0xbe53f283	-0.2069798
25	0xbde9d232	-0.11417045
26	0xbeabb5eb	-0.3353723
27	0x3d50f9bc	0.051019415
28	0x3d2646e4	0.04059495
29	0xbc795de9	-0.015220144
30	0x3d8f1c1e	0.06987785
31	0xbe911893	-0.2833906
32	0x3e428fac	0.19000119
33	0x3d15520b	0.036455195
34	0xbd4252c2	-0.047442205
35	0xbc27574f	-0.010213687
36	0xbdaa5cf8	-0.08318514
37	0x3dd9fdb5	0.10644094
38	0xbd9cc4c1	-0.07654715
39	0x3dbdd88c	0.09269819
40	0x3cd5db00	0.026105404
41	0x3ea1db57	0.31612656
42	0xbe133d9c	-0.14378971
43	0x3d2fdddf	0.042936202
44	0x3dcb45ce	0.099254236
45	0xbe418520	-0.1889844
46	0x3c741a71	0.014898882
47	0xbda85ccf	-0.08220827
48	0x3e3b22ae	0.18274948
49	0xbb8f198e	-0.00436706
50	0xbe1d863b	-0.15383236
51	0x3cb47ee5	0.022033164
52	0x3e0e2223	0.1388021
53	0xbd3db850	-0.046318352
54	0x3c2beb67	0.010493136
55	0x3c857796	0.016292375
56	0x3e535b65	0.20640333
57	0x3db6a7a2	0.08918692
58	0x3dc8f028	0.09811431
59	0xbdcad5d6	-0.09904067
60	0xbe0b89d2	-0.13626793
61	0xbcdce8b0	-0.026966423
62	0x3d59610c	0.053071067
63	0xbe6ff26e	-0.23432323
64	0x3c7b2f9a	0.015331173
65	0xbe59bb7d	-0.21262927
66	0xbd2e8be8	-0.042613894
67	0x3dbae3d6	0.091254875
68	0xbc3bbf07	-0.011459119
69	0x3ea699dc	0.3253926
70	0xbdc8f17f	-0.09811687
71	0x3e49fe2b	0.19725864
72	0xbddfd42b	-0.1092914
73	0xbd0772f9	-0.03306863
74	0x3eba07c3	0.36334047
75	0xbdcf7378	-0.10129446
76	0x3e45933c	0.19294447
77	0x3ed82413	0.42215022
78	0xbcc28ffd	-0.0237503
79	0x3c8bc6ca	0.017062563
80	0xbcec96fa	-0.028880585
81	0xbdb62b62	-0.08894993
82	0x3d976a6d	0.07393346
83	0xbe5f51ff	-0.21808623
84	0x3e0424f0	0.12904716
85	0xbe078924	-0.13235909
86	0x3c86b409	0.01644327
87	0xbe5a9443	-0.2134562
88	0x3d603548	0.054738313
89	0xbe53492d	-0.20633383
90	0xbe760ac3	-0.24027543
91	0xbd77c088	-0.060486346
92	0xbce76989	-0.028248565
93	0xbb3c00e4	-0.0028687054
94	0x3e1f5255	0.15558751
95	0x3e2b394d	0.16721077
96	0x3c88dae6	0.016705941
97	0xbd1112d0	-0.03541833
98	0x3d7c5f4e	0.061614327
99	0x3e0e077b	0.13870041
100	0xbda1a84a	-0.07893427
101	0xbdacf348	-0.0844484
102	0x3dc57c12	0.09642805
103	0x3db48814	0.08815017
104	0xbe8eb617	-0.278733
105	0xbe0d22a2	-0.13782743
106	0xbdf6b706	-0.12046628
107	0x3d718a25	0.058969636
108	0x3e730519	0.23732413
109	0x3d3732c9	0.044726167
110	0xbd51f7a8	-0.051261574
111	0xbf138289	-0.57621056
112	0x3dcd9258	0.100376785
113	0xbe3d640b	-0.18495195
114	0x3e3905d6	0.18068632
115	0x3dd6afa1	0.10482717
116	0xbeccf290	-0.4002881
117	0x3de68743	0.11256268
118	0x3d0f3015	0.034957964
119	0xbe753a91	-0.23948123
120	0xbc326c61	-0.010890097
121	0xbe8dfc01	-0.27731326
122	0x3ea83156	0.3285014
123	0xbe8216ea	-0.25408107
124	0x3dbbbaed	0.09166513
125	0xbdd0b5a7	-0.101908974
126	0x3e8766c1	0.26445583
127	0xbd068a91	-0.03284699
128	0x3a90504d	0.001101026
129	0xbd82e925	-0.06392125
130	0xbe113f2a	-0.14184251
131	0xbdcefb8b	-0.10106572
132	0xbd0ea622	-0.034826405
133	0xbc6d5788	-0.014486201
134	0xbd7e84bb	-0.0621383
135	0x3da5408f	0.08068954
136	0xbcf5f8da	-0.030025888
137	0xbdcb513f	-0.09927606
138	0x3d3aed4b	0.045636456
139	0x3e1c8680	0.15285683
140	0x3e21990e	0.15781042
141	0xbda5d67f	-0.080975525
142	0x3da2328e	0.07919799
143	0x3e03c7ef	0.12869237
144	0xbe1bb9a1	-0.1520753
145	0xbd8596d7	-0.06522911
146	0x3cb18a25	0.021672318
147	0xbe3dad60	-0.18523169
148	0x3e89fce7	0.26950762
149	0xbe302e53	-0.17205171
150	0xbe43332d	-0.19062491
151	0xbdd44b02	-0.10365869
152	0xbdaff847	-0.08592277
153	0xbd2aff1d	-0.0417472
154	0xbc876f64	-0.016532607
155	0x3e65b11d	0.22430845
156	0xbd33a5f3	-0.043859433
157	0xbcb3bf15	-0.021941701
158	0xbb77ac20	-0.0037791803
159	0x3c4080a9	0.011749425
160	0xbd85dc93	-0.06536212
161	0x3e02bd1e	0.12767455
162	0x3e6946d7	0.2278093
163	0xbdb2fc04	-0.087394744
164	0xbe46b0f5	-0.19403441
165	0xbda8af31	-0.0823654
166	0xbd7f4b47	-0.06232765
167	0x3dec922b	0.11551317
168	0x3d355ae3	0.04427613
169	0xbe41f37d	-0.1894054
170	0xbe89df9b	-0.2692841
171	0x3d921e9c	0.071347445
172	0x3dc2cda3	0.09511878
173	0x3d3c6579	0.04599521
174	0xbe8036fa	-0.25041944
175	0x3e33f747	0.17574798
176	0x3d9b9803	0.07597353
177	0x3c85a279	0.016312825
178	0xbe567fdf	-0.20947216
179	0x3e1c1b00	0.15244675
180	0xbc40017d	-0.011719105
181	0xbd0478bf	-0.032341715
182	0x3e930597	0.28715202
183	0x3dbec35c	0.093146056
184	0x3d67b33a	0.05656741
185	0x3e0d92eb	0.13825576
186	0xbe0c5299	-0.13703384
187	0x3dfe0971	0.124041446
188	0x3e87df9a	0.26537782
189	0x3c0954a9	0.008382001
190	0x3d45c5ff	0.048284527
191	0xbde1203f	-0.109924786
192	0x3de83925	0.113390245
193	0x3e868f11	0.26281026
194	0x3cf12b00	0.02943945
195	0x3da18dc0	0.07888365
196	0xbe8aa68b	-0.27080187
197	0x3ec1ba16	0.37837285
198	0xbed0151c	-0.40641105
199	0x3e002e02	0.1251755
200	0x3dce57e9	0.10075361
201	0xbe3fd7e1	-0.18734695
202	0x3eec182b	0.4611219
203	0x3dc26537	0.094919614
204	0xbcdf11cf	-0.027230171
205	0x3e8d29a9	0.27570847
206	0x3d2fcc06	0.04291918
207	0x3c360fd3	0.011112171
208	0x3d59c2ef	0.05316442
209	0x3e1c6062	0.15271142
210	0xbdd07adf	-0.10179686
211	0x3c8de8f9	0.017323004
212	0x3dc9225f	0.09821009
213	0xbe0178d8	-0.12643754
214	0x3e239584	0.15975004
215	0x3da54786	0.08070283
216	0x3e201c74	0.15635854
217	0x3c5bcad8	0.013415061
218	0xbe5f6f92	-0.21819904
219	0x3e4a8fd5	0.1978143
220	0x3e5665dd	0.20937295
221	0xbdce869b	-0.10084268
222	0x3e909b77	0.2824361
223	0xbe284dc9	-0.16435923
224	0x3dd716b4	0.10502377
225	0x3c3b142d	0.0114183845
226	0xbe1f47a7	-0.15554677
227	0xbe4ea353	-0.20179491
228	0xbd8401bb	-0.064456426
229	0x3cfca602	0.030840877
230	0xbd67abd5	-0.056560356
231	0x3e658946	0.22415647
232	0x3dd26830	0.102737784
233	0xbda99f55	-0.08282343
234	0xbdd2c384	-0.10291198
235	0x3e474280	0.19458961
236	0x3c0e5662	0.008687587
237	0xbe358b36	-0.17728886
238	0xbe848923	-0.25885877
239	0x3d922a67	0.07136994
240	0xbd1e9a7f	-0.038721558
241	0x3dee9a36	0.11650507
242	0xbab41e21	-0.0013741889
243	0x3e86abe6	0.26303023
244	0x3d3140c0	0.04327464
245	0x3d9dc8be	0.07704304
246	0xbe210058	-0.15722787
247	0xbe23373c	-0.15939039
248	0xbda1336a	-0.078711346
249	0xbdeb1cc8	-0.11480099
250	0x3eb65792	0.35613686
251	0xbde42874	-0.11140528
252	0x3ca1b680	0.019740343
253	0x3bc26440	0.005932361
254	0xbde73206	-0.11288838
255	0xbd3ef105	-0.046616573

bias f4 [128]
0	0x3c3d05b3	0.011537003
1	0x3d23de5d	0.040006984
2	0x3d30322c	0.043016598
3	0x3d888e1e	0.06667732
4	0x3d860ca7	0.06545382
5	0x3d7731a3	0.06035007
6	0x3c017bf5	0.007903089
7	0xbd0a2817	-0.03372964
8	0xbc645b3e	-0.013937769
9	0x3dd63724	0.10459736
10	0x3da006b1	0.07813776
11	0xba73304c	-0.0009276911
12	0xbd477d6e	-0.048703603
13	0xbde9e6d4	-0.1142098
14	0x3d1c815c	0.038209304
15	0x3d277591	0.040883604
16	0x3d297c25	0.04137816
17	0x3d825262	0.063633695
18	0x3e0d3ebf	0.13793467
19	0x3d961c9a	0.07329674
20	0x3d2f4bee	0.04279702
21	0x3d364b86	0.04450562
22	0xbc6cc4d8	-0.014451228
23	0xbd185ab3	-0.037195873
24	0x3c9a2d65	0.018820474
25	0x3d1e2df0	0.03861803
26	0xbbdddf04	-0.0067709703
27	0xbcdf0fcf	-0.027229218
28	0x3da33085	0.07968239
29	0x3d14c02e	0.03631609
30	0xbc53cf10	-0.0129277855
31	0x3d7c242d	0.061557937
32	0x3def0f87	0.116728835
33	0xbd8c3222	-0.068454996
34	0xbdadf479	-0.08493895
35	0xbd5f57b0	-0.054526985
36	0xbdc95abe	-0.09831761
37	0xbd12d0dd	-0.03584372
38	0x3db61a5a	0.08891745
39	0x3c99c345	0.01876987
40	0x3bf90de5	0.0076005333
41	0x3d4daaa0	0.05021155
42	0x3d9d26f5	0.07673446
43	0x3d371434	0.044697
44	0x3cfd51ef	0.030922858
45	0x3d21631a	0.03940115
46	0xbde045a3	-0.10950782
47	0x3b985f2c	0.0046500172
48	0x3dd4fc33	0.10399666
49	0xbd63bb09	-0.055598292
50	0xbb3e2296	-0.0029012314
51	0xbbe12fde	-0.0068721613
52	0x3d00fac0	0.031489134
53	0x3d88879f	0.06666493
54	0xbd89032d	-0.06690059
55	0xbd4e0608	-0.05029872
56	0x3d5ee65c	0.054418907
57	0x3d7fc01c	0.06243907
58	0xbd04fc14	-0.032466963
59	0x3d9b0a14	0.075702816
60	0xbb329335	-0.0027248387
61	0xbcf91107	-0.030403627
62	0x3d853e78	0.065060556
63	0xbd231272	-0.039812513
64	0x3c6ec4ec	0.014573317
65	0xbe3ed409	-0.18635572
66	0x3c9f0dc2	0.01941574
67	0xbce622a5	-0.028092692
68	0xbd13300a	-0.035934485
69	0x3d795df7	0.060880627
70	0x3cf2abba	0.029622901
71	0x3bfdb12a	0.007742067
72	0xbd9b3b3a	-0.07579656
73	0x3cd08bde	0.025457319
74	0xbddf7611	-0.10911191
75	0x3d510222	0.051027425
76	0x3daed325	0.085363664
77	0x3df533f7	0.11972802
78	0x3d5fd748	0.054648668
79	0xbcade6f6	-0.021228295
80	0x3e0002ee	0.12501118
81	0xbd5228cd	-0.051308442
82	0x3d0b0bae	0.033946685
83	0x3dd25c8b	0.102715574
84	0x3d7d0d22	0.061780103
85	0x3d91bed4	0.07116476
86	0x3ce24a43	0.027623301
87	0x3dd11385	0.10208801
88	0x3d1d6589	0.03842691
89	0xbd5ac1d0	-0.05340749
90	0x3d30bbb8	0.043147773
91	0x3d56220a	0.052278556
92	0xbdc50555	-0.09620158
93	0xbd8b4555	-0.068003334
94	0x3d32d8ac	0.043663666
95	0x3b0a867c	0.0021137288
96	0xbd183a03	-0.0371647
97	0x3d28b371	0.041186754
98	0x3d75b8e7	0.05999079
99	0x3dd01a36	0.10161249
100	0xbd5875ce	-0.052846722
101	0x3c697c31	0.014250801
102	0x3c82ba85	0.01595808
103	0x3daa5b1a	0.083181575
104	0x3d6a8288	0.05725339
105	0x3cfc44a7	0.030794455
106	0x3da8d759	0.08244199
107	0x3d40935c	0.047015533
108	0x3d7b0b97	0.06129035
109	0x3d0dc60c	0.0346127
110	0x3d39c22c	0.045351192
111	0x3dfa4b79	0.122214265
112	0xbc23c767	-0.009996272
113	0xbb407277	-0.0029365101
114	0x3c451ca6	0.012030756
115	0xbd08760a	-0.033315696
116	0x3d3eb2da	0.046557285
117	0x3d1b5ebb	0.03793214
118	0xbd42318c	-0.047410533
119	0x3d599d57	0.053128567
120	0x3d5e9d78	0.054349393
121	0x3dd7f7df	0.105453245
122	0xbc319a59	-0.010840022
123	0x3dfcc9e3	0.12343194
124	0xbd4801de	-0.048829906
125	0xbd841126	-0.06448583
126	0xbe3bab6f	-0.18327115
127	0x3d2f465f	0.04279172

weight f4 [12, 128]
0	0xbe788f5f	-0.24273442
1	0xbc98d49c	-0.018656068
2	0xbf08d64a	-0.5345198
3	0xbe7cffba	-0.24706927
4	0xbf698dca	-0.9123198
5	0xbe0dd072	-0.13849047
6	0xbd5b17d5	-0.053489525
7	0xbe7f4881	-0.24930002
8	0xbeafbbe8	-0.3432305
9	0xbdf37002	-0.11886598
10	0xbe9f9f7b	-0.3117636
11	0xbce0bd46	-0.027434003
12	0xbfeeda2a	-1.8660328
13	0xbecc77a1	-0.3993502
14	0xbdcbd900	-0.09953499
15	0xbda26afb	-0.07930561
16	0xbe01b187	-0.12665378
17	0xbee91098	-0.45520473
18	0xbeab0dfd	-0.3340911
19	0xbe1ace43	-0.15117745
20	0xbecd53ac	-0.401029
21	0xbe7b7c59	-0.24559154
22	0xbe06af20	-0.13152742
23	0xbeedf1d2	-0.46473557
24	0xbdde8609	-0.10865409
25	0xbe2b1678	-0.1670779
26	0xbea12652	-0.3147455
27	0xbc4da10e	-0.012550605
28	0xbeaf0b94	-0.3418852
29	0xbde8dc54	-0.11370149
30	0xbdffa829	-0.12483246
31	0xbeab64a2	-0.33475214
32	0xbe21251a	-0.1573681
33	0xbe80c2fb	-0.25148758
34	0xbe011b51	-0.12608077
35	0xbedb8c80	-0.4288063
36	0xbeb82290	-0.3596387
37	0xbe20e63a	-0.15712824
38	0xbe95fae0	-0.29292965
39	0xbdc4b0a9	-0.09604008
40	0xbf0491ee	-0.5178517
41	0x3d7f8b47	0.062388685
42	0xbe969596	-0.29411
43	0xbe5bf91c	-0.21481746
44	0xbe530af3	-0.20609646
45	0xbf0df1e3	-0.55447215
46	0xbda319ed	-0.07963929
47	0xbe3eb57f	-0.18623923
48	0xbee89650	-0.4542718
49	0x3cf836c5	0.030299554
50	0xbe3479bd	-0.17624564
51	0xbee696dd	-0.45036975
52	0xbda761d5	-0.08172957
53	0xbdd8a63b	-0.10578581
54	0xbe116d69	-0.14201893
55	0xbe2c5580	-0.1682949
56	0x3e62e256	0.22156653
57	0xbda409a1	-0.08009649
58	0x3dd2e69a	0.1029789
59	0xbc025b72	-0.007956373
60	0x3d0f1061	0.03492773
61	0xbd11d2b3	-0.03560133
62	0xbe145b69	-0.14487995
63	0xbf1cb193	-0.61208457
64	0xbcccfcb5	-0.025022844
65	0xbd7f8a08	-0.062387496
66	0xbf35a442	-0.7095376
67	0xbe1f785f	-0.15573262
68	0xbdfb4b8f	-0.12270271
69	0xbe1cabd2	-0.15299919
70	0x3d7e78a1	0.06212676
71	0xbe28d776	-0.16488442
72	0xbdbaa43b	-0.09113356
73	0xbde97bb3	-0.11400547
74	0xbe062399	-0.13099517
75	0xbe94b92b	-0.29047522
76	0xbe890cee	-0.26767677
77	0xbe955f94	-0.29174483
78	0xbe58b6cc	-0.21163481
79	0xbd62c9e1	-0.055368308
80	0xbda955bc	-0.08268306
81	0xbe9d31ac	-0.3070196
82	0x3defe318	0.117132366
83	0xbde8cea8	-0.113675416
84	0xbee99b23	-0.45626172
85	0xbf847f90	-1.0351429
86	0xbddbb774	-0.1072835
87	0xbe758607	-0.23976909
88	0xbe81a8d3	-0.25324115
89	0xbf09c664	-0.53818345
90	0xbe9bd3f3	-0.30435142
91	0xbe4669a8	-0.19376242
92	0xbe17792f	-0.14792322
93	0x3d320269	0.04345933
94	0x3dfcd337	0.123449735
95	0x3d4a6f7f	0.049422737
96	0x3dd493c2	0.10379745
97	0xbe950b54	-0.29110205
98	0xbbef785c	-0.007308049
99	0xbf045e6a	-0.51706564
100	0xbe28335a	-0.16425839
101	0xbdeb59a6	-0.114917085
102	0xbdba1a93	-0.090871
103	0xbe268073	-0.16259937
104	0xbd2de8b4	-0.04245825
105	0xbe4129a3	-0.1886354
106	0xbe607eab	-0.2192332
107	0xbdec097e	-0.11525248
108	0xbdf78c88	-0.12087351
109	0xbe68c0ab	-0.22729747
110	0xbe843080	-0.25818253
111	0xbe81c66d	-0.253467
112	0xbf090e67	-0.535376
113	0xbecdba7e	-0.40181345
114	0xbeaff3e1	-0.34365752
115	0x3c8ad93e	0.016949292
116	0xbd504c38	-0.050853938
117	0x3a88b7f9	0.0010430805
118	0x3cef233a	0.029191602
119	0xbe56a752	-0.20962265
120	0xbeb3d2ae	-0.35121673
121	0xbdeefd2b	-0.11669382
122	0xbd8c925e	-0.06863855
123	0xbf3d888c	-0.7403648
124	0xbe06ee64	-0.13176876
125	0x3d4e940b	0.050434154
126	0xbdc07646	-0.09397559
127	0xbe5390e9	-0.20660748
128	0xbe3b02ee	-0.18262836
129	0x3d183f0e	0.03716951
130	0xbf163d86	-0.5868763
131	0xbe6f3b13	-0.23362379
132	0xbf672d30	-0.90303326
133	0xbe0793df	-0.13240002
134	0xbdddff73	-0.10839739
135	0xbe8324d0	-0.25614023
136	0xbea9f3aa	-0.33193713
137	0xbd915657	-0.07096546
138	0xbeb57356	-0.35439557
139	0xbd74253d	-0.059605826
140	0xbec48f26	-0.38390464
141	0xc01d6aeb	-2.4596508
142	0xbd077101	-0.033066753
143	0xbdc8ab15	-0.09798256
144	0xbe08a10a	-0.13342682
145	0xbf11974f	-0.56871504
146	0xbeae9b86	-0.3410303
147	0xbe378509	-0.17921843
148	0xbeb5a9f1	-0.35481218
149	0xbe592846	-0.2120677
150	0xbe14b1cf	-0.14520954
151	0xbf077643	-0.5291483
152	0xbe0f171b	-0.13973658
153	0xbe66fd21	-0.22557499
154	0xbe995f8c	-0.2995571
155	0xbc9e78f1	-0.019344779
156	0xbebcafdb	-0.36852917
157	0xbe16b072	-0.14715746
158	0xbcdf32a2	-0.027245823
159	0xbe736030	-0.23767161
160	0xbe3d1716	-0.18465838
161	0xbcbd1b4e	-0.023084309
162	0xbdc4b2ff	-0.09604453
163	0xbedf5a48	-0.43623567
164	0xbe9ce47c	-0.3064307
165	0xbe4a2f46	-0.19744596
166	0xbead4001	-0.33837894
167	0xbdcd05ac	-0.100108474
168	0xbf09bb46	-0.5380138
169	0x3c8723c0	0.01649654
170	0xbe99f4b0	-0.30069494
171	0xbe5403c6	-0.20704564
172	0x3e02da50	0.12778592
173	0xbefc8bfc	-0.4932555
174	0xbdda2b21	-0.106527574
175	0xbe5f8dd5	-0.21831448
176	0xbf05dba0	-0.52288246
177	0x3c699a18	0.01425793
178	0x3da406b7	0.08009093
179	0xbef90903	-0.48639688
180	0xbe9b4cca	-0.30332023
181	0xbe0cc65d	-0.13747545
182	0xbe5ebff9	-0.2175292
183	0xbdf7e5f4	-0.12104407
184	0xbea9d890	-0.33173037
185	0xbd853112	-0.065035
186	0x3d9785ea	0.07398589
187	0x3e39879e	0.1811814
188	0xbd6b61b7	-0.057466235
189	0x3ca7a3ae	0.02046379
190	0xbdb5be2c	-0.08874163
191	0xbf201b42	-0.6254159
192	0x3ca0ae1a	0.019614268
193	0xbda2a016	-0.0794069
194	0x3d960ff3	0.07327261
195	0xbe352038	-0.17688072
196	0xbe0306ad	-0.12795515
197	0xbe0d5d81	-0.138052
198	0xbdb5f5d7	-0.08884781
199	0x3d1f5f3f	0.038909193
200	0xbd85ec2d	-0.065391876
201	0xbdecde14	-0.115657955
202	0xbdca5766	-0.09879951
203	0xbe81802a	-0.25293094
204	0xbe8a90d5	-0.27063623
205	0xbe902956	-0.28156537
206	0xbe7fb55c	-0.24971527
207	0x3c89f9a8	0.016842678
208	0xbe062e73	-0.13103656
209	0xbe3f12cf	-0.18659519
210	0xbee4a3fa	-0.44656354
211	0xbe295064	-0.16534573
212	0xbef63a3c	-0.48091304
213	0xbf8f80f4	-1.1211228
214	0xbde5ec1b	-0.11226674
215	0xbe4d8f45	-0.20074184
216	0xbe5e8164	-0.21729046
217	0xbf0079a8	-0.5018563
218	0xbea3d6aa	-0.31999713
219	0xbe5a3b3e	-0.21311662
220	0xbe9317a0	-0.28728962
221	0xbe6281c3	-0.22119813
222	0xbe365e08	-0.17809308
223	0xbd28ff7e	-0.04125928
224	0xbdd901bb	-0.10596033
225	0xbe9d7136	-0.30750436
226	0x3c18321c	0.009289291
227	0xbf05678e	-0.52111137
228	0xbeea69a1	-0.45783713
229	0xbe68ccc7	-0.22734366
230	0x3d4133db	0.047168594
231	0xbe2eeb0b	-0.1708185
232	0xbde3033f	-0.110846035
233	0xbe8dd343	-0.27700242
234	0xbe637532	-0.22212675
235	0xbd91f5e2	-0.071269765
236	0xbdd2e547	-0.102976374
237	0xbe7450aa	-0.23858896
238	0xbe687065	-0.22699125
239	0xbe797b78	-0.24363506
240	0xbf0461da	-0.5171181
241	0x3e17a812	0.14810207
242	0xbea91cee	-0.33029884
243	0xbc7a3a20	-0.015272647
244	0xbe1cc6b8	-0.1531018
245	0x3d08afbc	0.03337072
246	0x3cfda771	0.030963631
247	0xbd6da36e	-0.058017187
248	0xbecbbcf9	-0.39792612
249	0xbe15e52a	-0.146382
250	0xbe002163	-0.12512736
251	0xbf34c0ab	-0.7060649
252	0xbdc854ce	-0.097818
253	0x3dd72e58	0.10506886
254	0xbdbb200d	-0.091369726
255	0xbe5aca68	-0.21366274

bias f4 [12]
0	0xbbc98e26	-0.0061509786
1	0xbdd3c4bd	-0.10340259
2	0xbc3563d9	-0.011071169
3	0xbd0aa5a0	-0.03384936
4	0x3d4186ff	0.047247883
5	0x3ca05036	0.019569498
6	0xbd9a55ce	-0.07535897
7	0xbd305efb	-0.04305933
8	0x3d056969	0.03257123
9	0x3c9de021	0.019271912
10	0x3d677af2	0.056513734
11	0x3e0b68aa	0.13614145

exp_avg f4 [128, 54]
0	0xc3734604	-243.2735
1	0xc2ce25de	-103.07396
2	0xc35d9dd2	-221.61649
3	0xc3bf238c	-382.2777
4	0x00000000	0.0
5	0xc39559f1	-298.70267
6	0x42e67205	115.222694
7	0xc1fca63c	-31.58117
8	0xc2de6a32	-111.20741
9	0xc269603a	-58.34397
10	0xc2b00788	-88.01471
11	0xc326b93e	-166.7236
12	0x430029b0	128.16284
13	0xc1f9a093	-31.203405
14	0xc24f312a	-51.79801
15	0xc2c51198	-98.53436
16	0xc2be776c	-95.233246
17	0xc29f1ec4	-79.56009
18	0xc1e6b7c8	-28.839737
19	0x42cda4f3	102.82217
20	0x4265328a	57.299355
21	0xc3607cc6	-224.4874
22	0xc279a093	-62.40681
23	0xc272e086	-60.71926
24	0xc3850ca0	-266.09863
25	0xc302af29	-130.68422
26	0xc211219e	-36.28283
27	0xc3579dab	-215.61589
28	0xc25cf086	-55.234886
29	0x40e89a60	7.2688446
30	0xc27bd266	-62.955467
31	0xc2bb3870	-93.61023
32	0x431cfdb2	156.991
33	0xc3158adc	-149.54242
34	0xc319eb8c	-153.9201
35	0xc1f5b9cf	-30.715727
36	0xc2412049	-48.28153
37	0xc2348814	-45.13289
38	0xc115f94a	-9.373362
39	0xc2f6bea3	-123.37234
40	0xc2f9a093	-124.81362
41	0x4136ff60	11.437347
42	0xc2ee534e	-119.162704
43	0xc290d29d	-72.411354
44	0x42d5f322	106.97487
45	0xc3507ce6	-208.48788
46	0xc34f64c1	-207.39357
47	0xc2fe436e	-127.1317
48	0xc322647c	-162.39252
49	0xc31c045a	-156.017
50	0x4246bf35	49.686726
51	0xc22904d6	-42.254723
52	0x41e0a704	28.08155
53	0x42cc2759	102.07685
54	0x413f6bb0	11.963791
55	0xc2893b7e	-68.616196
56	0xc2f7ed17	-123.963066
57	0xc2b2736b	-89.225426
58	0x00000000	0.0
59	0x42126f4c	36.60869
60	0x430813ec	136.07782
61	0x421d5cf7	39.340786
62	0x41ebd470	29.47873
63	0xc3145b4c	-148.35663
64	0xc3525cc4	-210.36237
65	0xc2c54d87	-98.65142
66	0xc3684b7a	-232.29483
67	0xc23e6dea	-47.607338
68	0xc32010e0	-160.06592
69	0xc2df538d	-111.663185
70	0x42167754	37.61653
71	0xc0ac4160	-5.3829803
72	0xc32bab9d	-171.67036
73	0x42ba4cca	93.14998
74	0xc219d244	-38.455338
75	0xc29eb77d	-79.358376
76	0xc2be6dea	-95.214676
77	0xc2f5a185	-122.81547
78	0xc31e4eaa	-158.30728
79	0xc31e3958	-158.224
80	0x429ef755	79.48307
81	0xc3a020be	-320.2558
82	0xc2d3b951	-105.861946
83	0xc2d8e551	-108.44788
84	0xc30ec786	-142.77939
85	0xc30ed26d	-142.82198
86	0xc32d5a83	-173.35356
87	0xc375825d	-245.50923
88	0xc34f8486	-207.51767
89	0xc38825f6	-272.29657
90	0xc3462270	-198.13452
91	0xc33ce8a1	-188.9087
92	0xc2cdad0e	-102.838
93	0xc3ba30c8	-372.3811
94	0xc33e6dea	-190.42935
95	0x41f2b1f4	30.336891
96	0xc34fb5bb	-207.70988
97	0xc2a34464	-81.633575
98	0xc2caae27	-101.34014
99	0xc3397f4c	-185.49725
100	0xc2c513b0	-98.53845
101	0xc386c788	-269.55884
102	0xc39abd29	-309.4778
103	0xc36e0963	-238.03667
104	0xc338eea5	-184.9322
105	0xc305a644	-133.64948
106	0xc2d64ace	-107.1461
107	0xc2df82fa	-111.75581
108	0xc297675f	-75.7019
109	0x42c4f4ad	98.47788
110	0x42285abc	42.088608
111	0x4290554a	72.16658
112	0x00000000	0.0
113	0x4282a270	65.31726
114	0xc25a8913	-54.63386
115	0xc309910a	-137.56656
116	0xc20b3598	-34.802338
117	0x41eba6ca	29.45644
118	0xc1863dd5	-16.780191
119	0x410e49c8	8.893013
120	0xc04aaba0	-3.1667252
121	0xc0f3a886	-7.6143217
122	0xc2c384a8	-97.759094
123	0xc256be28	-53.6857
124	0x41d17c26	26.18562
125	0x4269c0e6	58.438377
126	0x42a07e53	80.24673
127	0xc2485c29	-50.09
128	0xc2eeffa0	-119.49927
129	0x42c3da40	97.92627
130	0xc173a886	-15.228643
131	0xc2cb3904	-101.61136
132	0xc15dae5e	-13.85507
133	0xc25aefbc	-54.734116
134	0x42360942	45.50904
135	0x424adbee	50.714775
136	0xc29b371d	-77.60764
137	0x423d581a	47.336037
138	0xc28800fc	-68.00192
139	0xc1b6be58	-22.842941
140	0xc1d698de	-26.824642
141	0xc27ec10b	-63.68852
142	0x41ae59c1	21.793825
143	0x4226612f	41.594906
144	0xc23d1093	-47.266186
145	0xc27d8725	-63.381977
146	0xc229fb1f	-42.495235
147	0xc1568829	-13.408242
148	0xc1f3a886	-30.457287
149	0x40eac134	7.3360844
150	0xc302ba05	-130.72664
151	0xc29faea1	-79.84107
152	0xc300d4ed	-128.83174
153	0xc24ccc52	-51.19953
154	0x42b00c9f	88.02465
155	0xc2609094	-56.14119
156	0xc2d67be7	-107.242
157	0xc2184955	-38.071613
158	0xc2e7d960	-115.92456
159	0x4230515d	44.079456
160	0x429fb4a4	79.85281
161	0xc202c1c7	-32.689236
162	0x4358cb96	216.79526
163	0xc13d3a13	-11.826678
164	0x430bcff2	139.81229
165	0x43229881	162.59572
166	0x00000000	0.0
167	0x4321c455	161.76692
168	0x4384bc33	265.4703
169	0x42e2e638	113.449646
170	0x421cf91f	39.243282
171	0x425dd390	55.456604
172	0xc26b858a	-58.88041
173	0x4228b0e7	42.172756
174	0x42e28fea	113.28108
175	0x423142dd	44.315296
176	0x4233e23f	44.970943
177	0x436e990f	238.59789
178	0x4315cd73	149.80254
179	0x43020991	130.03737
180	0x42b6042d	91.008156
181	0x42f46d92	122.214005
182	0x430fe98f	143.91234
183	0x431a0373	154.01347
184	0x42b142dd	88.63059
185	0x43200efe	160.05856
186	0x431403fe	148.0156
187	0x431df79c	157.96722
188	0x43153197	149.19371
189	0x42a77056	83.719406
190	0x429e4b26	79.146774
191	0x431a2ff7	154.18736
192	0x41a95f66	21.171581
193	0x4304f224	132.94586
194	0x4308bd70	136.73999
195	0xc2109a4b	-36.150677
196	0x41ca01b5	25.250834
197	0x432bca4c	171.79022
198	0x413f453a	11.954401
199	0x42febdaf	127.370476
200	0x4318cd30	152.80151
201	0xc1d0599c	-26.043755
202	0x433142dd	177.26118
203	0x43363fff	182.24998
204	0x410e9652	8.911699
205	0x431cfbb7	156.98326
206	0x42e9e5b8	116.94867
207	0x4248597e	50.087395
208	0x43480bc4	200.04596
209	0x4298bef7	76.37298
210	0x4341a9eb	193.66374
211	0x435d9392	221.57645
212	0x4320f000	160.9375
213	0x42f4d9a2	122.425064
214	0x4303fce1	131.98781
215	0x42ac4eae	86.15367
216	0x42637af8	56.870087
217	0xc0b6fe78	-5.718563
218	0xc2c9dc8e	-100.93077
219	0xc2124e54	-36.576492
220	0x00000000	0.0
221	0xc290e62a	-72.44954
222	0xc30e7855	-142.47005
223	0xc14e5f58	-12.898277
224	0xc257fcd0	-53.996887
225	0xc3b6e716	-365.80536
226	0x4109b448	8.606514
227	0xc1e0a8b3	-28.082373
228	0xc3c91a06	-402.2033
229	0xc2a46dc1	-82.21436
230	0xc2f206c2	-121.0132
231	0xc3a4361f	-328.42282
232	0xc3363764	-182.21637
233	0xc3920676	-292.05048
234	0xc3a1a8c9	-323.31863
235	0xc375195c	-245.09906
236	0xc2aea020	-87.312744
237	0xc3969cda	-301.2254
238	0xc3246dc1	-164.42873
239	0xc35e3d90	-222.24048
240	0xc33f52d9	-191.32362
241	0xc38535a4	-266.41907
242	0xc38e9736	-285.18134
243	0xc3b4832c	-361.02478
244	0xc30bb4f0	-139.70679
245	0xc3c7a8cc	-399.31873
246	0xc39f8e8e	-319.1137
247	0xc376a4a4	-246.64313
248	0xc39f4fbb	-318.6229
249	0xc3871f6b	-270.24545
250	0xc360ae3e	-224.68063
251	0xc3ac0383	-344.02744
252	0xc36b96c0	-235.58887
253	0xc35a2f0f	-218.18382
254	0xc38e6982	-284.82428
255	0xc3ab7e8e	-342.9887

exp_avg_sq f4 [128, 54]
0	0x4911c2ad	597034.8
1	0x48b9bc15	380384.66
2	0x49214c0b	660672.7
3	0x490f40a9	586762.56
4	0x00000000	0.0
5	0x4900c7e1	527486.06
6	0x490e289d	582281.8
7	0x48c631d9	405902.78
8	0x4931a9f4	727711.25
9	0x49372371	750135.06
10	0x48cbde47	417522.22
11	0x492da60f	711264.94
12	0x4932c04f	732164.94
13	0x479f0d79	81434.945
14	0x491a9941	633236.06
15	0x4925a7d2	678525.1
16	0x48db5df3	449263.6
17	0x49168c47	616644.44
18	0x49309071	723207.06
19	0x49043d1f	541649.94
20	0x492002c9	655404.56
21	0x493d7a7d	776103.8
22	0x489f0d79	325739.78
23	0x4953af19	867057.56
24	0x49461d73	811479.2
25	0x48f6aed5	505206.66
26	0x494f09d5	848029.3
27	0x4946f104	814864.25
28	0x491e09a5	647322.3
29	0x494958e8	824718.5
30	0x4938b969	756630.56
31	0x4932ef2c	732914.75
32	0x4957bb21	883634.06
33	0x49312856	725637.4
34	0x49192cbd	627403.8
35	0x49334829	734338.56
36	0x4945b04b	809732.7
37	0x49679930	948627.0
38	0x493a7aca	763820.6
39	0x495d172c	905586.75
40	0x499f0d79	1.3029591e+06
41	0x49390674	757863.25
42	0x49350549	741460.56
43	0x495740f9	881679.56
44	0x4929bbb0	695227.0
45	0x49616313	923185.2
46	0x498cbcdb	1.1529234e+06
47	0x493f68ee	784014.9
48	0x49995e54	1.2563945e+06
49	0x49f88518	2.035875e+06
50	0x4987ef2c	1.1135735e+06
51	0x493a1400	762176.0
52	0x4980dc86	1.0556328e+06
53	0x4944c63b	805987.7
54	0x48dd81fd	453647.9
55	0x4882e43f	268065.97
56	0x48db8f4e	449658.44
57	0x48c265a5	398125.16
58	0x00000000	0.0
59	0x48c39b0f	400600.47
60	0x48cbdaeb	417495.34
61	0x488aab13	283992.6
62	0x48e94085	477700.16
63	0x48c3fe7e	401395.94
64	0x488e58e2	291527.06
65	0x48e525c2	469294.06
66	0x48c851a5	410253.16
67	0x47484864	51272.39
68	0x48c67e04	406512.12
69	0x48d6de47	440050.22
70	0x489a1a02	315600.06
71	0x48db1af9	448727.78
72	0x48d03694	426420.62
73	0x48c18334	396313.62
74	0x48eaa9cc	480590.38
75	0x48cf6a1b	424784.84
76	0x48484864	205089.56
77	0x48ded9f6	456399.7
78	0x48d7ce9c	441972.88
79	0x48ba2264	381203.12
80	0x48e811ef	475279.47
81	0x48d4d505	435880.16
82	0x48cb71cd	416654.4
83	0x48e74550	473642.5
84	0x49052040	545284.0
85	0x48e15175	461451.66
86	0x490775a4	554842.25
87	0x48eef528	489385.25
88	0x48d6c830	439873.5
89	0x48fdae06	519536.2
90	0x48f13c63	494051.1
91	0x4911ad49	596692.56
92	0x4900083a	524419.6
93	0x49028026	534530.4
94	0x49484864	820358.25
95	0x49100f2d	590066.8
96	0x48e304ea	464935.3
97	0x490a370f	566128.94
98	0x48fe9073	521347.6
99	0x48fafac0	514006.0
100	0x492ba248	703012.5
101	0x48f7c69c	507444.88
102	0x49221a65	663974.3
103	0x499c7896	1.2818108e+06
104	0x4922b1fd	666399.8
105	0x48f4f2c2	501654.06
106	0x491e88ac	649354.75
107	0x48fa6ad6	512854.7
108	0x48988701	312376.03
109	0x486ea5c8	244375.12
110	0x48c4764b	402354.34
111	0x488ac6b8	284213.75
112	0x00000000	0.0
113	0x48b77ba0	375773.0
114	0x48f14036	494081.7
115	0x48a0fc33	329697.6
116	0x4900ea14	528033.25
117	0x48ed1e47	485618.22
118	0x487c83aa	258574.66
119	0x49016e7e	530151.9
120	0x48ee54fa	488103.8
121	0x474722ff	50978.996
122	0x48ecdc78	485091.75
123	0x48c3567b	400051.84
124	0x488d13a9	288925.28
125	0x48f1e4dc	495398.88
126	0x48cdf39a	421788.8
127	0x4888d4e6	280231.2
128	0x491e7033	648963.2
129	0x48c6dc22	407265.06
130	0x484722ff	203915.98
131	0x48cb7b31	416729.53
132	0x48d24ec2	430710.06
133	0x48b26ede	365430.94
134	0x48ddc62d	454193.4
135	0x48d6387f	438723.97
136	0x489afe3f	317425.97
137	0x4903f2fb	540463.7
138	0x492a1b42	696756.1
139	0x48e00765	458811.16
140	0x491a2bf5	631487.3
141	0x490265a4	534106.25
142	0x489909ee	313423.44
143	0x48d2ca13	431696.6
144	0x4897d293	310932.6
145	0x490b69fd	571039.8
146	0x48eb9135	482441.66
147	0x494c1e10	836065.0
148	0x494722ff	815663.94
149	0x48ee6a11	488272.53
150	0x4904d6ae	544106.9
151	0x48fe36cb	520630.34
152	0x48e24fa5	463485.16
153	0x48e57ea9	470005.28
154	0x492596ad	678250.8
155	0x48e0a14f	460042.47
156	0x4930ad0d	723664.8
157	0x499b9341	1.2744721e+06
158	0x490f7d51	587733.06
159	0x48cf9f9c	425212.88
160	0x4916c4e2	617550.1
161	0x48ee3480	487844.0
162	0x489d4356	322074.7
163	0x4864a472	234129.78
164	0x48d2478e	430652.44
165	0x48b47a14	369616.62
166	0x00000000	0.0
167	0x48f34f21	498297.03
168	0x48b32e9f	366964.97
169	0x48068e46	137785.1
170	0x485e628f	227722.23
171	0x48ab834f	351258.47
172	0x48942137	303369.72
173	0x48964242	307730.06
174	0x489cb851	320962.53
175	0x4722da95	41690.582
176	0x487b6847	257441.11
177	0x4914e7bd	609915.8
178	0x48bb4bcb	383582.34
179	0x48d63fdc	438782.88
180	0x48d524ff	436519.97
181	0x48a108bf	329797.97
182	0x489d00be	321541.94
183	0x48d108b9	428101.78
184	0x4822da95	166762.33
185	0x48c31bde	399582.94
186	0x489a46be	315957.94
187	0x488c7b92	287708.56
188	0x48c1a934	396617.62
189	0x48de02f7	454679.72
190	0x48ae2cc7	356710.22
191	0x48dc852d	451625.4
192	0x48cc39d7	418254.72
193	0x48b735f3	375215.6
194	0x48d92f1f	444792.97
195	0x48d8d1e0	444047.0
196	0x48a93252	346514.56
197	0x48c05b6e	393947.44
198	0x48ac77d6	353214.7
199	0x48e98c66	478307.2
200	0x48b88f43	377978.1
201	0x48e24574	463403.62
202	0x4922da95	667049.3
203	0x48adc62f	355889.47
204	0x48b211a7	364685.22
205	0x48b6f9d6	374734.7
206	0x48bc005b	385026.84
207	0x48b86ddc	377710.88
208	0x48da25b9	446765.78
209	0x4897db96	311004.7
210	0x48f2ce6b	497267.34
211	0x497e7579	1.04226356e+06
212	0x48f06650	492338.5
213	0x48aa86b8	349237.75
214	0x4906336c	549686.75
215	0x48cbb5be	417197.94
216	0x492aa65f	698981.94
217	0x48ff3e08	522736.25
218	0x492c605c	706053.75
219	0x4904be40	543716.0
220	0x00000000	0.0
221	0x4910760a	591712.6
222	0x4936ae51	748261.06
223	0x4904111f	540945.94
224	0x493928d4	758413.25
225	0x4946e9b5	814747.3
226	0x48d72886	440644.2
227	0x4932f7a8	733050.5
228	0x4974dc96	1.0029534e+06
229	0x47a6def8	85437.94
230	0x491ebab5	650155.3
231	0x494ac73d	830579.8
232	0x48dbd4b0	450213.5
233	0x492e5048	713988.5
234	0x4930c2b1	724011.06
235	0x490eb74d	584564.8
236	0x49380fd4	753917.25
237	0x494b3c08	832448.5
238	0x48a6def8	341751.75
239	0x49330aa4	733354.25
240	0x49402eeb	787182.7
241	0x490c6dcf	575196.94
242	0x49346175	738839.3
243	0x4955c0fb	875535.7
244	0x491f6cbf	653003.94
245	0x494883e3	821310.2
246	0x49616e56	923365.4
247	0x493bbac1	768940.06
248	0x4970e65e	986725.9
249	0x494a6bb0	829115.0
250	0x49200c4c	655556.75
251	0x49467a6c	812966.75
252	0x493b7ff4	767999.25
253	0x495d789b	907145.7
254	0x4941fa42	794532.1
255	0x495bea2c	900770.75

exp_avg f4 [128]
0	0xc1f9a093	-31.203405
1	0xc23e6dea	-47.607338
2	0xc0f3a886	-7.6143217
3	0x423142dd	44.315296
4	0xc2a46dc1	-82.21436
5	0x42016e4f	32.357723
6	0xc2658bd7	-57.386562
7	0x41aa4210	21.282257
8	0xc20f0cab	-35.76237
9	0xc24dead3	-51.47932
10	0xc2506398	-52.09726
11	0xc137766c	-11.466412
12	0x41cbcc49	25.474749
13	0xc0bc57fc	-5.8857403
14	0xc285a7b6	-66.82756
15	0x40b9b66e	5.8035192
16	0x4188d78a	17.105244
17	0xc192833f	-18.314085
18	0xc1a8b21a	-21.086964
19	0xc25a387d	-54.555164
20	0xc264c7f8	-57.195282
21	0xc1ac372b	-21.526937
22	0xc129fc76	-10.624136
23	0xc11e6d44	-9.901676
24	0x4232c1b0	44.689148
25	0xc2117b61	-36.370487
26	0xc222f9cb	-40.74394
27	0xbf664180	-0.89943695
28	0x4226a049	41.65653
29	0xc1759d5c	-15.350918
30	0xc1cc73a4	-25.556465
31	0xc236ea9f	-45.729122
32	0x4240f436	48.238487
33	0x41275cdc	10.460171
34	0xc0ff0f18	-7.9705925
35	0xc0d0db74	-6.5267887
36	0x422a72e6	42.612206
37	0xc239e524	-46.47377
38	0xc2bc9924	-94.2991
39	0x00000004	6e-45
40	0x42bc3bdc	94.11691
41	0x3f7cb2c0	0.9871025
42	0xc26c3732	-59.0539
43	0x00000004	6e-45
44	0x00000004	6e-45
45	0xc2c2f1aa	-97.472
46	0x428848e2	68.14235
47	0x411549c6	9.330511
48	0xc1935d84	-18.420662
49	0x42482074	50.031693
50	0x00000004	6e-45
51	0xc2e903d5	-116.507484
52	0x40d0e974	6.5284977
53	0xc2a0448e	-80.133896
54	0x42fca130	126.31482
55	0x420eb9d2	35.681465
56	0x422f67b2	43.851265
57	0xc24f7c69	-51.871494
58	0xc1f5fa1c	-30.747124
59	0xc23e92fa	-47.64353
60	0xc0802cd0	-4.0054703
61	0x422c16ca	43.022255
62	0x42167860	37.617554
63	0x422740dc	41.81334
64	0x00000004	6e-45
65	0xc105d088	-8.363411
66	0xc15aee96	-13.6832485
67	0x42838482	65.758804
68	0xc2d34ea5	-105.6536
69	0x3fabb8c0	1.3415756
70	0xc00eeaf8	-2.2330914
71	0xbfb59520	-1.4186134
72	0x42cdcf2c	102.90463
73	0x00000004	6e-45
74	0x42aceb76	86.459885
75	0xc134b09f	-11.29312
76	0x42d0ade7	104.33965
77	0x414e6316	12.899191
78	0xc2561f15	-53.530354
79	0x405655c0	3.3489838
80	0xc28a062e	-69.01207
81	0xc212725c	-36.61168
82	0x4122d9d0	10.178177
83	0xc23618de	-45.524284
84	0xc1866d84	-16.803474
85	0x41bc57a8	23.5428
86	0xc234c298	-45.190033
87	0xc17840bc	-15.515804
88	0x00000004	6e-45
89	0x412f0b22	10.940218
90	0x4265bfcc	57.4373
91	0x42513956	52.305992
92	0xc293142d	-73.539406
93	0xc28e176c	-71.045746
94	0x42025a04	32.587906
95	0x00000004	6e-45
96	0x41812f9a	16.148243
97	0xc2053065	-33.29726
98	0x425ac23a	54.689674
99	0xc1f7718a	-30.930439
100	0xbc808400	-0.015687943
101	0xc0c10938	-6.0323753
102	0xc17736dc	-15.450893
103	0x409dbb0c	4.929083
104	0xc2c17645	-96.730995
105	0x42bdf94b	94.9869
106	0x425561cd	53.34551
107	0x42dcdc02	110.4297
108	0x429aef67	77.46758
109	0xc200d7bc	-32.21068
110	0xc209cdb2	-34.450874
111	0x41f1ca11	30.223665
112	0xc2632688	-56.78763
113	0x4283ba2f	65.86364
114	0x414ce962	12.806978
115	0xc0819a80	-4.05011
116	0x40ad68dc	5.41905
117	0xc2695186	-58.329613
118	0x414c4cb0	12.768723
119	0xc286f6f0	-67.4823
120	0x421501b5	37.251667
121	0x41def8b3	27.871435
122	0x42ea7c61	117.24293
123	0x42153c80	37.309082
124	0x416bec71	14.745225
125	0xbfeeb3b0	-1.8648586
126	0xc094f590	-4.654976
127	0xc281cc9b	-64.89962

exp_avg_sq f4 [128]
0	0x479f0d79	81434.945
1	0x47484864	51272.39
2	0x474722ff	50978.996
3	0x4722da95	41690.582
4	0x47a6def8	85437.94
5	0x476b9b63	60315.387
6	0x4782ee2f	67036.37
7	0x46d5be86	27359.262
8	0x46bccdee	24166.965
9	0x46d9740e	27834.027
10	0x475a595e	55897.367
11	0x4771f4d1	61940.816
12	0x475b2e51	56110.316
13	0x47d9239a	111175.2
14	0x47411f6d	49439.426
15	0x46c1d3ac	24809.836
16	0x47967515	77034.164
17	0x473fc842	49096.258
18	0x4786854e	68874.61
19	0x472161ba	41313.727
20	0x47967a2a	77044.33
21	0x475515fc	54549.984
22	0x4772be40	62142.25
23	0x4724dea9	42206.66
24	0x475eb075	57008.457
25	0x471c0066	39936.4
26	0x47a00c8a	81945.08
27	0x46c024e1	24594.44
28	0x46bccbd4	24165.914
29	0x47a9aec5	86877.54
30	0x4713cf08	37839.03
31	0x47758f01	62863.004
32	0x4743dd46	50141.273
33	0x47380bf0	47115.938
34	0x4703e504	33765.016
35	0x4786c33d	68998.48
36	0x47842755	67662.664
37	0x477c84b9	64644.723
38	0x477c8d30	64653.188
39	0x000001f4	7e-43
40	0x47d251be	107683.484
41	0x47757bf8	62843.97
42	0x47756308	62819.03
43	0x000001f4	7e-43
44	0x000001f4	7e-43
45	0x47a8d1ab	86435.336
46	0x4793a307	75590.055
47	0x4780d05f	65952.74
48	0x478c5a7d	71860.98
49	0x4755db54	54747.33
50	0x000001f4	7e-43
51	0x477f25ec	65317.92
52	0x47291f00	43295.0
53	0x477ff16c	65521.42
54	0x478ecec6	73117.55
55	0x4761cc6c	57804.42
56	0x47620762	57863.383
57	0x46b8d134	23656.602
58	0x47832d6a	67162.83
59	0x473cee15	48366.082
60	0x47bd4a13	96916.15
61	0x4798ad7b	78170.96
62	0x47694078	59712.47
63	0x473fa905	49065.02
64	0x000001f4	7e-43
65	0x471a40b5	39488.707
66	0x475c6026	56416.15
67	0x4764a62b	58534.168
68	0x4762c671	58054.44
69	0x470370c0	33648.75
70	0x47b3c0b0	92033.375
71	0x47790d92	63757.57
72	0x475faf1d	57263.113
73	0x000001f4	7e-43
74	0x479a0a52	78868.64
75	0x471957d3	39255.824
76	0x4799b713	78702.15
77	0x47d97899	111345.195
78	0x47483a62	51258.383
79	0x476425fd	58405.99
80	0x470f7379	36723.473
81	0x476be358	60387.344
82	0x4695544f	19114.154
83	0x47941a5a	75828.7
84	0x46ccd454	26218.164
85	0x47802ae5	65621.79
86	0x47963559	76906.695
87	0x47812c35	66136.414
88	0x000001f4	7e-43
89	0x47500c88	53260.53
90	0x478fc507	73610.055
91	0x47857020	68320.25
92	0x476eed12	61165.07
93	0x4747f0c8	51184.78
94	0x468618b4	17164.352
95	0x000001f4	7e-43
96	0x475ac7b6	56007.71
97	0x4754ab9b	54443.605
98	0x474cde36	52446.21
99	0x47a3e499	83913.195
100	0x47707cc7	61564.777
101	0x473df313	48627.074
102	0x46e5910e	29384.527
103	0x477fc8c5	65480.77
104	0x4769bbed	59835.926
105	0x478625a5	68683.29
106	0x47604038	57408.22
107	0x4781f54f	66538.62
108	0x478621ec	68675.84
109	0x47297198	43377.594
110	0x47924f42	74910.516
111	0x47c1c90a	99218.08
112	0x472e5d4f	44637.31
113	0x477027bf	61479.746
114	0x4765b3d3	58803.824
115	0x473a2269	47650.41
116	0x47809a75	65844.914
117	0x476f481e	61256.117
118	0x4782d900	66994.0
119	0x478e4be8	72855.81
120	0x47674d33	59213.2
121	0x477f0acf	65290.81
122	0x47890281	70149.01
123	0x475f20c8	57120.78
124	0x475eadbe	57005.742
125	0x47355310	46419.062
126	0x478d23e8	72263.81
127	0x475d34bb	56628.73
