RL_methods/policy_net.pth (torch, 309858 bytes, 18 tensors)

weight f4 [128, 54]
000000 5c fc be be 40 69 a7 be b7 4a 6e 3e c3 11 16 be
       -0.3730191 -0.32697487 0.23270689 -0.14655213
000010 3a 25 49 3e 5f d5 16 be a0 70 44 3e e5 5b c7 bd
       0.19643107 -0.14729832 0.19183588 -0.09734324
000020 cf d5 0d bd 2e a3 bd 3e 22 9a 03 3d 02 ca 99 bd
       -0.034627732 0.3703856 0.032129414 -0.07509233
000030 02 fc 10 3e 14 53 bd be 3e 67 d0 bd 2e 0f 3f 3d
       0.14158633 -0.36977446 -0.10175942 0.046645336
000040 5d 6a 78 3e 4f 87 97 3d 6d cb 2b bd bc eb 9e bc
       0.24259324 0.07398855 -0.04194205 -0.019399516
000050 d7 46 ca 3e 97 bd d0 3d 29 71 0b bd 1c 55 50 bd
       0.39507172 0.101924114 -0.034043465 -0.050862417
000060 05 6e 04 3e bb 0a 95 3e de 31 2e 3e dc 8c a7 3d
       0.12932594 0.2910975 0.1701121 0.08181164
000070 bc dc a3 3e 0b 82 ac 3e 8b 78 0c 3d e8 2e dd be
       0.32004344 0.33692965 0.034294646 -0.4319985
000080 6b f5 4f be 2e 57 d5 bd 17 77 41 3d e9 4e 23 3e
       -0.20308463 -0.10417019 0.047232714 0.1594807
000090 2c 0a 91 bc 51 47 30 3e 8e 28 cb bd 19 4a a2 bd
       -0.017705046 0.17214705 -0.099198446 -0.07924289
0000a0 e6 8e 58 be d6 1e 36 be 4b 64 f7 3d f1 24 25 3d
       -0.21148261 -0.177852 0.12079676 0.040318433
0000b0 36 11 6d bd 45 26 1b 3c 53 29 58 be 14 2b b1 bd
       -0.05787774 0.009469573 -0.21109514 -0.086507946
0000c0 f9 ba 82 be 07 58 d1 be 98 7d ea 3d 3b e2 d5 bd
       -0.25533274 -0.40887472 0.11449736 -0.10443541
0000d0 5a c2 57 3e 4a 31 02 bd 34 56 39 bf 8b 84 ff be
       0.21070233 -0.031785287 -0.7239716 -0.4990581
0000e0 b8 7d cf be 96 55 bd 3c 19 5d 85 3e 3a 0b 26 3d
       -0.40525603 0.0231121 0.2604759 0.04053805
0000f0 dd 68 95 bd 04 8f 83 bd 71 1d e0 3e 22 65 b1 3e
       -0.07295392 -0.064237624 0.43772462 0.3464747
000100 00 84 5f bd 24 a5 25 be 7f e3 e2 bc bf 91 93 be
       -0.054569244 -0.16176277 -0.02769637 -0.28822133
000110 b3 6f 7f bd 33 99 34 3e a9 86 f5 bd e0 10 86 3e
       -0.062362384 0.17636566 -0.11988575 0.2618475
000120 58 20 66 3e 72 a3 45 3d 23 2e 63 3e 8d 6c 57 be
       0.22473276 0.048251577 0.22185569 -0.21037503
000130 71 33 5e 3e 64 88 32 be 52 d0 87 3d 48 90 25 bd
       0.21699311 -0.17434841 0.06631531 -0.0404208
000140 3a a7 08 ba 48 9f 28 3e e4 ca 93 3c a4 aa 4f 3f
       -0.0005212907 0.16467011 0.018041082 0.8111975
000150 5d ac 06 3e 10 91 3a 3d 53 a2 1f 3f dc be 2a be
       0.13151689 0.0455485 0.6235706 -0.1667437
000160 de aa 8f 3e 9e 2c 97 bd 82 26 ae 3e 02 a5 05 be
       0.2806005 -0.07381557 0.34013754 -0.13051227
000170 10 0d 07 3d 4f 80 99 3e 1f b6 8f be 0c 28 2d be
       0.03297144 0.29980704 -0.28068635 -0.16909808
000180 71 ed 8f 3e b2 62 ba bd e6 65 fd be 04 cb a4 be
       0.2811084 -0.09100856 -0.49491805 -0.3218614
000190 c6 de 75 be b9 5d 1e be 68 57 9b 3d 0c c7 a7 be
       -0.24010763 -0.1546544 0.07585031 -0.32769048
0001a0 71 d5 92 3e 2c 8b 3e 3e 04 dd 58 3d 6b 24 82 3d
       0.28678468 0.18607777 0.052945152 0.063546024
0001b0 c9 aa 41 be 81 3d 52 3d 8d 4c 82 be 40 9c a8 be
       -0.18912806 0.051328186 -0.2544903 -0.3293171
0001c0 2c 8c e9 bd d4 81 a0 3e 1d 38 57 be 1a 81 bf bd
       -0.11403689 0.3134905 -0.210175 -0.09350796
0001d0 5a 9b 0c 3f 82 9f bf 3e cd 12 3c be a2 1a 6e bc
       0.5492455 0.37426382 -0.18366547 -0.014532717
0001e0 64 f2 02 3e fc ea 08 bf 63 f5 03 3e fb 2d 77 3e
       0.12787777 -0.5348356 0.12886576 0.24138634
0001f0 67 ea 0c 3e 44 ee 6a 3e 47 d4 ae 3e 58 31 07 be
       0.13761292 0.22942454 0.3414633 -0.13202417
000200 04 d6 52 3e 52 83 0d bd db d3 52 be 74 f9 d6 3b
       0.20589453 -0.034549065 -0.20588629 0.006560499
000210 1d b7 f2 3d 4e 76 fc bd ca 6f e6 3d 79 75 52 3d
       0.11851332 -0.12327252 0.11251791 0.051381562
000220 e9 2d 95 3d 17 a1 a9 3e 07 fa 6a 3e 1d 23 51 be
       0.07284147 0.33130714 0.2294694 -0.20423551
000230 d6 0d 87 3e f1 f2 33 be 04 15 34 be 9a e6 10 be
       0.26377743 -0.17573144 -0.17586142 -0.14150468
000240 cc a1 7f be 64 05 04 be 5f 2c 06 be 82 7c 35 be
       -0.24964064 -0.12892681 -0.13102864 -0.17723277
000250 86 61 c5 be 90 c7 2f 3d c1 70 44 be 27 bd d6 3c
       -0.38550967 0.042914927 -0.19183637 0.026213242
000260 47 06 f8 be 45 f6 75 be ef 20 02 3d 3c d3 fb 3c
       -0.4844229 -0.24019726 0.03176969 0.030740373
000270 75 bb 82 be 07 f1 b7 3c f1 26 be be a5 05 94 3d
       -0.25533643 0.022453798 -0.37139085 0.07227639
000280 03 18 c8 3d ee e3 0a be 48 9b b9 3e 85 12 b3 3e
       0.09770205 -0.13563511 0.36251283 0.34975067
000290 55 58 1d 3f 30 89 ce 3d 64 ba b1 3d bf aa 62 be
       0.6146291 0.1008476 0.08678129 -0.22135447
0002a0 38 1d e7 bd f9 00 b4 be 5a ec 1d bf 8f 3f 6d be
       -0.1128487 -0.35156992 -0.6168877 -0.23168777
0002b0 38 b4 82 3e 33 3f a2 3e 1a 54 a5 3a 20 f8 31 3c
       0.2552812 0.31688842 0.0012613565 0.01086238
0002c0 3d 5d f2 3d b8 ea 42 be b9 2d 26 3e b6 35 1c be
       0.1183419 -0.1903485 0.1622838 -0.15254864
0002d0 ce 0a 99 bd e1 08 f2 bc da 3e 49 be d6 07 a9 3d
       -0.07472764 -0.02954525 -0.19652882 0.08253448
0002e0 64 80 db 3d 90 97 68 3e 95 38 64 be 17 2c 3c 3d
       0.10717848 0.22714067 -0.2228721 0.045940485
0002f0 aa be 75 bd f9 b9 4b be ed 85 52 bf 34 57 1c bf
       -0.059996285 -0.19895162 -0.82235605 -0.6107056
000300 7a a0 fb 3d 3b 03 9f 3c be d7 90 be 9e 76 8c 3e
       0.12286468 0.01941072 -0.28289598 0.27434248
000310 4f f2 48 bd a0 89 5b 3d c1 cb 68 3e f4 3d 12 3e
       -0.04905921 0.053598046 0.22733976 0.14281446
000320 dc 47 ab bd cd f1 1b 3d 62 19 5b bc 4b 94 3c bd
       -0.083633155 0.038072396 -0.013372751 -0.04603986
000330 7f ec a2 bd a4 db 8c 3b bf f8 8f 3d 34 8b e4 3d
       -0.07955264 0.004298644 0.070298664 0.111593634
000340 87 8f 63 3e f4 13 bd 3e c8 c1 13 be ec f8 9e 3d
       0.2222272 0.36929286 -0.1442939 0.07762322
000350 c9 d3 a7 3c 36 7c 83 3e 1b 47 84 3d f7 9c 02 3c
       0.02048673 0.25680703 0.06458875 0.007971994
000360 92 ca b0 3e 2b 66 ad 3e ee dc 61 3e c1 c4 8e be
       0.3452955 0.3386701 0.22056934 -0.27884486
000370 45 43 9d 3e 17 2a 58 be dd 3c a9 3d 2e 6f 2b bd
       0.30715385 -0.21109806 0.08263562 -0.041854076
000380 a1 35 14 bd 07 b2 53 be 7b b2 a8 3c 32 12 ae 3e
       -0.036183957 -0.20673381 0.020592919 0.33998257
000390 a2 9d 0f 3e 58 b5 f6 be f3 d2 85 be 14 61 a0 3c
       0.14024976 -0.4818523 -0.26137504 0.01957754
0003a0 11 7c 99 3d 28 b2 22 3e c2 1e 4e 3e 9e 22 f4 3d
       0.07494367 0.15888274 0.2012892 0.11920665
0003b0 77 b0 2c be ad 3c 92 3d 8a cc ef be a3 a8 14 bd
       -0.16864191 0.07140479 -0.46835738 -0.036293637
0003c0 63 f6 dc 3d 4b 04 c8 bc e9 bf dc 3c bc f0 54 3d
       0.10789182 -0.02441611 0.026946979 0.051987395
0003d0 c9 d1 71 be df 5c aa be 60 28 4b be 1b 11 47 be
       -0.23615183 -0.3327398 -0.1983962 -0.19440119
0003e0 86 4e 6a bd aa b8 27 3e 00 06 c3 bc 8c 7f 88 3d
       -0.057203792 0.16379037 -0.023806572 0.06664953
0003f0 b1 d5 da be 68 bd 90 bd bd 85 16 3e 1e 13 01 be
       -0.4274116 -0.070673764 0.14699455 -0.12604949

bias f4 [128]
000000 3c 21 64 be cc 56 4d 3c b7 5f 5a be 8c 8f 50 bd
       -0.22278303 0.012532901 -0.21325575 -0.050918147
000010 be 61 83 be b1 32 1c be 0c d2 3a be 3f c5 ee bd
       -0.2566051 -0.15253712 -0.18244189 -0.116587155
000020 45 d8 21 bd 20 1f b3 bd 25 c3 43 be 38 60 c8 bd
       -0.03951289 -0.08746171 -0.1911741 -0.09783977
000030 54 0f 60 bd 5a 0b 3b be af 1e 10 be 0f 29 8c bd
       -0.054702118 -0.18266049 -0.14074205 -0.06843769
000040 3f 0f 81 be 32 9b c9 bd 65 5a 29 bd 4a 90 68 bd
       -0.25206944 -0.09844054 -0.041345973 -0.05677823
000050 72 b6 0c be dd 69 1e be 5f 51 3b be 71 75 f7 bd
       -0.13741472 -0.15470071 -0.1829276 -0.12082947
000060 d7 e7 ca bd 77 55 0b be 2a 0c 4e bd 9a 26 0f be
       -0.09907501 -0.13606821 -0.05030457 -0.13979569
000070 97 5f cf bd b5 a0 09 be 8a f7 ff bc 03 79 04 3f
       -0.10125654 -0.13440211 -0.031245966 0.5174715
000080 c8 25 8f be 07 dc 7e be f4 45 2c be 3b 12 89 bd
       -0.27958512 -0.24888621 -0.1682356 -0.0669293
000090 78 de 0a be d6 e2 22 bd e8 9f 04 3f a3 03 b5 bd
       -0.13561428 -0.03976711 0.518065 -0.08838584
0000a0 5f 41 22 bd c3 c3 06 be 8c c3 27 be 49 fa e6 bb
       -0.039613124 -0.13160615 -0.16383189 -0.0070488793
0000b0 3f 6d 65 be 88 0b 0f be ac 2d 88 be 9f 54 61 3d
       -0.22404955 -0.13969243 -0.26597345 0.05501234
0000c0 4a 9e 10 be 3c d7 1c bd e6 4d 21 be 7c fa 15 be
       -0.14122882 -0.0382912 -0.15752372 -0.14646333
0000d0 4c ea 8e 3a 63 06 43 bd 26 2c c9 bd 2d a3 a6 bd
       0.0010903566 -0.047613513 -0.09822874 -0.08136592
0000e0 bd 63 8e be 63 1c 2c bd 06 9f 20 3f 6a 92 66 bc
       -0.2781047 -0.04201926 0.6274265 -0.014072994
0000f0 2b 73 2e be b9 53 8a bd 7a 81 15 bd 82 9f 3a be
       -0.1703612 -0.0675425 -0.03650043 -0.1822491
000100 d7 15 0a be b9 b3 3b be 90 ee b8 bd 30 ae a7 3f
       -0.13484894 -0.18330278 -0.09029877 1.3100033
000110 a3 d7 7f be 10 3d 88 be 46 fd 43 be c8 45 b5 bd
       -0.24984603 -0.26609087 -0.19139585 -0.088512
000120 0a d7 23 3c 57 f1 38 be ce c6 10 be 6a 2e f7 bd
       0.01 -0.18060814 -0.14138338 -0.120694
000130 db 9c 95 3e 69 c4 7f be e5 38 6d be c0 b0 a0 bd
       0.29221234 -0.24977268 -0.23166235 -0.078462124
000140 40 cf be bc 65 e8 8c bd cf 50 78 be 0e e8 0b be
       -0.023292184 -0.06880263 -0.24249576 -0.1366274
000150 a0 1a 52 bd 92 6e 51 be fe 8b 1b be 39 8b 18 be
       -0.051294923 -0.20452335 -0.15190122 -0.14896859
000160 93 b0 42 be 21 5d 96 bd f0 4f 0a be 91 15 20 be
       -0.1901267 -0.07341982 -0.13507056 -0.15633227
000170 2d 1e 51 be b1 f4 88 be 35 d0 63 3d 03 03 08 be
       -0.20421667 -0.26749185 0.055618484 -0.13282399
000180 10 e7 06 be 53 e4 7b be b6 1d 41 be 39 77 5d be
       -0.13174081 -0.24598818 -0.1885899 -0.21627511
000190 54 92 66 be 0c 03 3f be 4f 4c 0d be 35 67 9e be
       -0.22516757 -0.18653506 -0.1379864 -0.30938116
0001a0 58 6e f2 bc 2b 29 67 bd ad e6 1a be 59 85 93 bd
       -0.029593632 -0.056435745 -0.15127058 -0.072031684
0001b0 93 c7 48 be 1e f9 ea bd 57 34 19 be 54 da 5c be
       -0.19607382 -0.114732966 -0.14961372 -0.2156766
0001c0 32 52 46 be ad a0 17 be 6f 87 48 be ce 0c 9f bd
       -0.19367293 -0.14807387 -0.19582914 -0.07766114
0001d0 67 98 3c be 96 3e 48 be a5 a4 44 be 45 08 9c bd
       -0.18417512 -0.19555125 -0.19203432 -0.07618765
0001e0 5e d5 68 be f7 82 2e be d3 71 6a be 43 1f 10 be
       -0.22737643 -0.17042147 -0.22894983 -0.14074425
0001f0 ba df 62 be ee b3 c1 bd 85 68 5f be 60 d9 52 be
       -0.22155657 -0.09458147 -0.21817215 -0.20590734

weight f4 [128, 128]
000000 99 b0 d2 3d 34 8a 0e be 2d 8a ea 3d b4 b4 8d be
       0.102875896 -0.13919908 0.11452136 -0.27676928
000010 9a 73 3a 3e 33 df 6a 3d 3e 1f b0 bd ed db e3 bd
       0.18208161 0.057341766 -0.08599709 -0.11125932
000020 6e 1e 4f be 29 c6 57 be 69 d5 77 3e e0 03 15 3e
       -0.20226452 -0.21071686 0.24202503 0.1455226
000030 a8 b4 18 be ca 5e f2 bd 9a 47 3b be aa bd c0 3d
       -0.14912665 -0.11834486 -0.18289033 0.094111755
000040 b9 07 21 be ef 29 e1 3d 7b f2 9c 3d 0e a0 b2 3d
       -0.15725602 0.10994326 0.07663437 0.08721934
000050 2a ec 2d 3e fa fc 91 bc 8e 32 c2 bd f7 8c 7e bc
       0.1698462 -0.017820824 -0.09482299 -0.015536538
000060 62 fb 30 3d d4 40 45 be f3 8b a2 3d af 20 78 3d
       0.043208487 -0.19263011 0.079368494 0.060578045
000070 49 11 76 be 45 f3 61 3d f5 38 3c be 97 d2 a5 3b
       -0.24030031 0.05516364 -0.18381102 0.0050605047
000080 e2 05 ba 3d 35 23 9f bd ec e9 bb be 22 18 15 be
       0.09083153 -0.07770387 -0.36701906 -0.14559987
000090 38 10 98 3c 5a 5a 57 3d 9c 84 c2 bd 57 26 ef bd
       0.018562421 0.0525764 -0.094979495 -0.116772346
0000a0 41 68 92 be aa 9c b7 bd c0 63 fc bc 2b d4 d5 3d
       -0.28595164 -0.08965428 -0.030809283 0.104408585
0000b0 c4 c5 32 3e 45 08 e5 bd a2 50 8e 3e 6f 08 88 bd
       0.17458254 -0.11183218 0.27795893 -0.066422336
0000c0 6a cb d6 3d 3f 57 03 3e df 5e 10 bb 77 b2 ae 3c
       0.10488017 0.1282625 -0.0022029204 0.021325333
0000d0 39 a1 4f be 0b cf e6 3d 4e 6a 79 be 80 f3 f5 bd
       -0.20276345 0.11269959 -0.24356958 -0.120093346
0000e0 30 3a d0 3d ec 6d 23 bd b1 57 90 3d 92 c1 98 bc
       0.101673484 -0.03989975 0.07047976 -0.018646989
0000f0 df 8c 63 3e 64 34 2d be 03 60 c6 bd b2 c5 2c 3e
       0.22221707 -0.16914517 -0.096862815 0.1687229
000100 ee 16 25 3d 19 57 6e be fa 70 b3 3c 30 fc c3 bd
       0.04030507 -0.23275413 0.021904457 -0.09569585
000110 04 53 34 be 97 87 5e 3d d6 a6 33 bc 2f d8 1d be
       -0.17609793 0.054328527 -0.01096507 -0.15414499
000120 5b f5 2c 3e 4e 21 29 be 27 3f 92 be 45 49 cf bb
       0.1689047 -0.16516611 -0.28563806 -0.006325873
000130 67 ad e3 bd e3 69 a7 3d 8b 7d 1e be 66 c4 49 be
       -0.11117058 0.08174493 -0.15477578 -0.19703826
000140 52 8e 84 3d 69 b8 26 3e b2 12 38 3d f2 18 64 bb
       0.06472458 0.16281284 0.044939704 -0.0034804908
000150 53 10 93 be 6f a1 e9 3e 4a 26 0d 3e f6 ca bc 3d
       -0.28723392 0.45630977 0.13784137 0.09218399
000160 a9 6c 41 3e bd 10 04 3e 19 bd 08 bd 85 50 b6 3d
       0.18889107 0.1289701 -0.033383463 0.08902077
000170 92 87 44 3e 03 4b dd bd 61 a5 ff bc 47 40 f6 3d
       0.19192341 -0.10805323 -0.031206788 0.12023979
000180 12 05 b4 3d ff 67 47 3e d5 df a9 3e 08 f9 a5 3e
       0.087900296 0.19473265 0.33178583 0.32416558
000190 2f 33 6c bd e3 8d f0 be 19 c2 25 bd 02 94 b0 bc
       -0.057666 -0.4698325 -0.04046831 -0.02155495
0001a0 b0 11 9c 3c 8f d1 ba bd d8 49 49 be 19 c8 8c 3e
       0.019051403 -0.091220014 -0.19657075 0.27496412
0001b0 97 46 4b be 2f 94 99 3d ad a6 23 be 4e 74 43 3e
       -0.19851147 0.07498967 -0.1598155 0.19087335
0001c0 0c 91 5d 3e ca 24 2e be df d6 27 be f4 8b ae 3d
       0.21637362 -0.17006221 -0.1639056 0.08522788
0001d0 31 e9 57 be e4 89 d7 3d 4c e7 e2 bc 2b 7d 83 3d
       -0.21085049 0.105243474 -0.027698182 0.06420358
0001e0 30 3d aa 3d 1e 1a 45 3e 01 ef 45 bc c2 96 b2 bd
       0.08312452 0.19248244 -0.012080909 -0.08720161
0001f0 77 7d 12 be f8 00 ae 3d b7 24 a7 bd a1 c5 25 be
       -0.14305674 0.084962785 -0.081613 -0.1618867
000200 d7 cc f0 3e 3a ba 58 bd 2c 4b a6 3c bf d5 f7 3c
       0.4703128 -0.052911974 0.020299517 0.03025329
000210 87 12 0a bd 3c 8e 22 be 07 eb 77 3e 06 03 b1 3e
       -0.033709075 -0.1587457 0.2421075 0.3457262
000220 0c 0f 91 3e 29 12 4c 3e 38 5e 95 bd d7 2b 26 be
       0.28331792 0.19928803 -0.072933614 -0.16227661
000230 f1 2c 1a 3e 5a 42 c3 bd 75 f8 6e 3d 73 8f cc 3d
       0.15056206 -0.0953414 0.058342416 0.09988298
000240 4a 6b 89 3e cb 4a c4 3b 92 80 32 3e c3 22 f5 3d
       0.26839668 0.0059903613 0.17431858 0.11969521
000250 fc 56 3c 3e 0e 8b eb 3c 6d 76 2e 3e 04 1a e2 3e
       0.18392557 0.02875283 0.17037363 0.44160473
000260 4f c6 d6 3d e1 e6 1c 3e 95 98 ca bb db 84 20 3e
       0.10487043 0.15322448 -0.00618274 0.1567568
000270 43 5d 1a 3d 12 74 60 be 52 8f 1f 3d c7 b1 18 3d
       0.037686598 -0.21919277 0.03895504 0.037278917
000280 11 53 0f 3e 80 d1 e3 3e 22 dd 04 bc ee 9f a8 bd
       0.13996531 0.44495773 -0.008109363 -0.08233629
000290 15 c3 c8 3d 27 2d 96 3d 5a 25 1f be e5 ba a5 be
       0.09802834 0.07332831 -0.15541592 -0.32369152
0002a0 40 26 3a be a4 5a 4b 3e b1 b5 10 be 42 63 f2 bd
       -0.18178654 0.19858795 -0.1413181 -0.11835338
0002b0 dc 4c fc bd 70 72 5b 3d 20 64 71 3d 11 a1 29 3e
       -0.12319347 0.053575933 0.058933377 0.16565348
0002c0 af 79 41 3e fd a0 0c 3e f7 bf 17 bd e1 54 1d 3e
       0.18894075 0.13733287 -0.037048306 0.1536441
0002d0 91 ec fc bb dd 68 1a 3e a7 33 cc 3d af 33 31 be
       -0.0077186306 0.15079065 0.099707894 -0.17304872
0002e0 5c e8 c6 3e 34 79 28 3e 2c 7e 8e bd 01 00 14 3e
       0.3884915 0.16452485 -0.06957659 0.14453126
0002f0 ff e6 d8 bd b2 e3 37 3e 67 90 75 bd 0b 4a e4 3d
       -0.10590934 0.17957953 -0.059952166 0.11146935
000300 08 a5 c2 bd 66 cf 56 3e ea 54 32 3e ae d6 86 be
       -0.095041335 0.20977554 0.17415205 -0.26335663
000310 53 fc 1e be b7 d5 ca 3e d1 84 77 3c 88 51 76 3d
       -0.15525942 0.39616176 0.0151073495 0.060136348
000320 60 32 d1 bb 20 68 30 be f6 24 67 3e 7d 6a a3 3e
       -0.006384179 -0.1722722 0.22572693 0.31917182
000330 bb 5a 3f 3e d0 f1 42 3e a0 3e ab 3e 6c 3f 75 3d
       0.18686955 0.19037557 0.33446217 0.059874937
000340 3e af 4c bd 05 ea e7 3e 60 af da 3e 9e 6e d3 3e
       -0.04997181 0.4529573 0.42711926 0.41295332
000350 db c6 9f 3e b9 1b 9f 3d 16 c8 d9 bc 1a a4 24 3c
       0.31206402 0.077689596 -0.026584666 0.0100488905
000360 55 25 06 3c ff 2b 31 3e f7 64 21 3e 9d cd a9 3e
       0.008187612 0.1730194 0.15761171 0.33164683
000370 8c af 82 bd 99 7c 9f 3e 32 dd 1e 3e 79 00 51 3e
       -0.06381139 0.31149748 0.15514067 0.20410337
000380 3e 32 44 bd 12 42 9e 3e f8 1c b3 3e 05 ea 3a be
       -0.047899477 0.30909783 0.3498304 -0.18253334
000390 ab d1 b0 3e 5f e9 96 3e 09 75 8e be 88 e7 d7 3e
       0.34534964 0.29474923 -0.27823666 0.42168832
0003a0 dd 31 2b 3d 15 a5 3d 3e 84 69 28 3e 0b e7 d5 3e
       0.0417956 0.18520005 0.16446501 0.41777834
0003b0 3f 39 29 3b 51 36 36 bd 52 a4 6a 3e bd b5 9c 3d
       0.0025821475 -0.044485394 0.22914246 0.07651851
0003c0 95 b9 27 be 6d bb cd bd 00 d2 f7 3d 97 0c 76 3c
       -0.16379388 -0.10045514 0.12100601 0.01501765
0003d0 ad 60 d3 bc 10 0d 95 3e dc d7 ce 3c e8 1e 1f 3e
       -0.025802935 0.29111528 0.025249414 0.15539134
0003e0 83 ba 89 3d 3d 66 aa be 3f 91 98 3e be 8a 84 3e
       0.067250274 -0.33281127 0.29798314 0.25887102
0003f0 32 72 a7 be d4 ea 13 3e 1f bf f3 3e 43 9f 28 3e
       -0.32704312 0.14445049 0.4760675 0.16467004

bias f4 [128]
000000 37 95 e5 bd 9e 03 69 bd 92 6d 56 be f9 5e 0b be
       -0.11210101 -0.056888215 -0.20940235 -0.13610448
000010 0d 27 8a bd 82 27 ec bc 01 19 8b bc 65 1a a0 bd
       -0.067457296 -0.028827433 -0.016979696 -0.07817534
000020 23 3c d9 bd 20 d6 80 bd d7 6a e9 bc f1 d0 69 bd
       -0.10607173 -0.06290841 -0.028493328 -0.057084028
000030 a6 f1 d0 bd 49 5e 2a be b9 e1 9a bd 24 0c af bd
       -0.10202341 -0.1663753 -0.075625844 -0.085472375
000040 76 f1 46 bd f0 28 37 be 16 d3 0b be 0a 19 ad bd
       -0.04857012 -0.1788671 -0.13654742 -0.084520414
000050 62 51 88 bd ea 08 07 be aa 8d b4 bd 1c 1d a3 bd
       -0.066561475 -0.13186994 -0.08816083 -0.079645365
000060 4f 1a cf bc eb 7a b9 bd 09 35 26 be ae 68 07 bd
       -0.0252811 -0.09056648 -0.16231169 -0.033058815
000070 8c 4e 77 bd 82 88 a1 3c 9a 60 e5 bd 76 6a e3 bd
       -0.060377643 0.019718412 -0.11200066 -0.1110429
000080 4b c3 5b bc 74 8c 1f be 13 9e dd bd 1a 90 e4 bd
       -0.013413261 -0.15580922 -0.10821166 -0.11160298
000090 d8 55 af bd 8d b7 9f 3d 11 f7 2d bd ff e6 00 be
       -0.08561295 0.077986814 -0.04247195 -0.12588118
0000a0 ef ae bd bd 85 3e 24 bd 1d 99 dc bd 52 2e 90 bd
       -0.092618816 -0.040098686 -0.107713915 -0.07040085
0000b0 bb 6b c7 bc c7 7a fd 3b 40 8c 43 be 0c af cb bd
       -0.024343362 0.0077355835 -0.1909647 -0.09945497
0000c0 64 a4 f5 bc 06 6c f9 bd aa d4 af bd 12 ac fb bd
       -0.029985614 -0.12178807 -0.08585484 -0.12288679
0000d0 27 8f ed ba d3 38 b5 bd bd d7 f3 bd 9c 50 d7 bd
       -0.0018124328 -0.08848729 -0.11906383 -0.10513422
0000e0 d7 ee 9b bd a7 1b b6 bd 1c c3 5b bb a9 54 94 3d
       -0.076139145 -0.08891993 -0.0033533042 0.0724271
0000f0 7f 64 d8 bc 09 9f 2c bd f6 63 84 bd a7 95 7c bd
       -0.026415108 -0.042143855 -0.064643785 -0.061666157
000100 b1 9a f8 bd e1 9c 3a bd c9 f6 15 bd a0 ca f0 bd
       -0.1213888 -0.045559768 -0.036612306 -0.11757398
000110 9d 69 ae bc b1 bf a1 bd 5d 3f 51 be cf bd 59 bd
       -0.021290595 -0.0789789 -0.20434327 -0.05315953
000120 28 da 5d bd 9d cb 30 3e a4 80 6b 3c 41 ee c0 bd
       -0.05416313 0.17265172 0.014373932 -0.09420443
000130 6d 23 84 bd f0 f8 ab bb 1a 0c 94 3d a8 1e 2e be
       -0.064520694 -0.0052481815 0.07228871 -0.17003882
000140 8e 62 a0 bc a7 4f a6 bb 96 25 d7 bd d0 d8 7d bd
       -0.019578245 -0.0050754133 -0.10505216 -0.061974347
000150 fe ff 63 bd d8 92 58 bd d2 fc da bd 6b 15 cf bd
       -0.055664055 -0.052874416 -0.10692753 -0.10111507
000160 99 06 c3 bd 3c 9f e0 bc 4f b1 fd bd 87 93 5c 3d
       -0.09522743 -0.027419679 -0.123873346 0.05385163
000170 27 6a 5d bd ed 22 0e be d9 c1 71 bd 3a a7 eb bc
       -0.054056313 -0.1388051 -0.05902276 -0.028766263
000180 8e b6 12 bb 8d 16 89 3d ce 4b e4 bd 86 6c b2 3d
       -0.0022386643 0.06693754 -0.11147271 0.087121055
000190 6c 6b 8f bd 7b 45 ee bc 1d c8 e9 bc ea 70 16 bd
       -0.07002911 -0.029085865 -0.028537804 -0.036728777
0001a0 b2 2a e2 bd 4f 48 96 bd 65 f0 5a 3d 3f e4 bd bd
       -0.110433 -0.073380105 0.053451914 -0.0927205
0001b0 a5 9c de bc 15 fb 73 bd 88 85 ea bc 67 a8 cf bd
       -0.027174303 -0.059565622 -0.028628126 -0.10139542
0001c0 33 46 1c be 19 52 e9 ba 5c 45 8a bd 90 b1 b7 bd
       -0.15261154 -0.0017800956 -0.067515105 -0.08969414
0001d0 49 b8 8a bd c3 bb d9 bd ae cb 6a bd 78 9a 06 3c
       -0.06773431 -0.10631516 -0.05732315 0.008215539
0001e0 b2 17 11 bd ec 80 94 bd 68 a6 8d bd 7b a1 b7 3b
       -0.03542299 -0.072511524 -0.06916505 0.005603967
0001f0 90 91 97 bd 4d e5 2a 3c 59 1d d4 bc 40 cc 9c bd
       -0.07400811 0.010430646 -0.0258929 -0.07656145

weight f4 [12, 128]
000000 ac 1c 2e bf 33 e0 f7 be 1a 66 21 bf be 42 b2 bf
       -0.680125 -0.48413238 -0.6304642 -1.3926618
000010 53 e4 88 be ba dd 70 bf bd 49 b2 b8 9b 03 ab bd
       -0.26736698 -0.9408833 -8.501436e-05 -0.08350297
000020 13 fe cc be 65 7d ab be 8d 64 ac be 33 12 03 bf
       -0.40037593 -0.33494106 -0.33670464 -0.51199645
000030 0c 54 a2 be ca 7c 29 bf 75 7b 56 be 7e 4f de be
       -0.31704748 -0.6620604 -0.20945533 -0.43420023
000040 e5 12 24 bf 5b d2 d8 bf f2 98 00 bf f2 85 6a be
       -0.6409133 -1.6939195 -0.50233376 -0.22902659
000050 45 5c eb be 82 0c ac bf db d6 76 c0 52 f2 41 be
       -0.45968834 -1.3441317 -3.8568637 -0.18940094
000060 f6 f0 bb bf 14 e3 d3 bf 38 82 8f bf ab f8 16 be
       -1.468291 -1.6553674 -1.1211615 -0.14743297
000070 3f 61 a1 be 05 31 42 c0 13 a8 a1 be 8c be 6e bf
       -0.31519505 -3.034242 -0.31573543 -0.932595
000080 d3 c1 8a bf a8 df 00 bf 00 f0 3c bf b2 0e 86 bf
       -1.08404 -0.5034127 -0.7380371 -1.0473235
000090 23 3b ba be 1a ee 7f bf 42 f5 2d be 55 18 83 bf
       -0.36373243 -0.9997269 -0.1698809 -1.02418
0000a0 d5 a0 0e bf fb 4f 87 bf 3a ee a4 c0 1e b9 2d bf
       -0.5571416 -1.0571283 -5.1540804 -0.6786059
0000b0 32 1f 56 bd 33 81 22 bf 25 7f 9d bf d6 94 b0 bf
       -0.052275844 -0.6347839 -1.2304426 -1.3795421
0000c0 c7 9e 60 bf 3c a8 88 bf 07 f9 41 bf 98 21 52 bf
       -0.87742275 -1.0676341 -0.7577061 -0.8208251
0000d0 f9 aa 90 bf ee 1d a9 be 68 fb ae be 2d a6 97 bf
       -1.1302177 -0.33030647 -0.34176183 -1.1847588
0000e0 f0 70 fe be 3a 89 0d bf e8 80 7e be 9f cf 04 bf
       -0.4969554 -0.55287516 -0.24853861 -0.51879305
0000f0 10 31 bc be 0d 6a f3 bf 1f fa 73 c0 95 c5 ee be
       -0.36756182 -1.9016739 -3.8121412 -0.46635118
000100 1a 44 a2 bf 72 41 1e bf d7 5f d0 bf 20 7a e2 be
       -1.2677033 -0.6181861 -1.6279248 -0.442338
000110 44 a1 3c bf 2a 5a cc be dd c8 78 bf 06 b7 76 be
       -0.7368357 -0.3991254 -0.97181493 -0.24093255
000120 22 e8 e4 be 0b c6 08 bf 75 29 bd be 02 e0 4f bf
       -0.44708353 -0.5342719 -0.36945692 -0.81201184
000130 19 77 94 bf 5e ad a8 be 97 05 88 bf ae b9 a0 bf
       -1.1598846 -0.3294477 -1.0626706 -1.2556665
000140 52 10 d5 3c e6 2e 46 bf f9 ff 0f bf 8e 3c e1 bf
       0.026008759 -0.7741531 -0.5624996 -1.7596605
000150 e2 dc fe bc 54 7e 9b be 4c 89 97 bf 51 ae 62 bf
       -0.031111185 -0.30369818 -1.1838775 -0.88547236
000160 cb 45 74 bf 9d 9f cc be 28 f5 79 c0 59 6f 9f be
       -0.95418996 -0.39965525 -3.9055882 -0.3113964
000170 78 bb 03 bf 56 22 28 c0 a0 07 30 bf 64 6d 84 bf
       -0.5145793 -2.6270957 -0.68761635 -1.0345883
000180 c6 d8 ae be 3a 64 28 bf ae 18 66 bf 04 f2 2a bf
       -0.3414976 -0.65777934 -0.8988141 -0.66775537
000190 0c 7c 81 bf 49 d4 2e bf 98 c4 f6 bf 45 be 25 3e
       -1.0115981 -0.6829267 -1.9278746 0.16185863
0001a0 ca 24 7b bf a5 8e 2b 3e 23 f6 0e bf 17 46 e6 be
       -0.9810301 0.16753633 -0.55844325 -0.4497535
0001b0 a5 e1 1b bf a0 71 90 bf b7 77 d0 bd 92 18 f6 be
       -0.6089118 -1.1284676 -0.10179084 -0.4806562
0001c0 2a 48 86 bf 3e 71 39 be 2f 8b 8d bf 3a ba 03 bf
       -1.0490773 -0.18109605 -1.10581 -0.51456034
0001d0 15 64 41 bf bc 01 ad bf 39 d0 d7 bd 1e 09 4a bf
       -0.7554334 -1.3516154 -0.10537762 -0.7892016
0001e0 9e 7e 68 bf fc e9 8e bf a0 bb 5d be 1b 14 9c bc
       -0.908182 -1.1165156 -0.21653605 -0.019052556
0001f0 37 ce 99 bf 62 aa d4 be c4 2e 15 bf 3f 19 9b bf
       -1.2016057 -0.41536242 -0.58274484 -1.211708
000200 a1 04 3f bf a8 48 cf be 88 a3 15 bf dc 99 b4 bf
       -0.7461644 -0.4048512 -0.58452654 -1.4109454
000210 41 85 00 be d0 7b 2e bf a5 c1 d5 be 63 77 5d bc
       -0.12550832 -0.6815767 -0.41749302 -0.013517234
000220 e6 8b d0 be 23 0a 87 be 3b 68 32 be 59 07 1c bf
       -0.40731734 -0.2637492 -0.17422573 -0.6094871
000230 07 84 da be c2 15 a7 be e1 07 95 bd 14 42 24 bf
       -0.42678854 -0.32633787 -0.072768934 -0.6416333
000240 c8 de 14 bf 5a fa d3 bf 08 46 32 bf 3c b4 b7 3c
       -0.5815244 -1.6560776 -0.6963811 0.02242481
000250 1d 2a 7c be 6c b6 90 bf dd 3b 7f c0 9e d4 f9 be
       -0.2462544 -1.1305671 -3.9880288 -0.48795027
000260 6b 5c b1 bf 42 d4 0a c0 41 22 ab bf 95 c3 61 3c
       -1.3856329 -2.1692052 -1.3369828 0.013779541
000270 5c 95 01 be 66 5c 4c c0 e3 d7 eb be 39 4f 74 bf
       -0.12654632 -3.1931396 -0.46063146 -0.95433384
000280 f3 39 45 bf c1 09 cf be 0f 66 69 bf 17 3d 7e bf
       -0.7704155 -0.4043713 -0.91171354 -0.99311966
000290 81 8c 97 be 4e d5 5a bf 2b 4e ee 3d c7 b0 9f bf
       -0.29599383 -0.8548173 0.11636003 -1.2475823
0002a0 18 22 cf be b5 1a 91 bf 5d 48 a1 c0 11 82 39 bf
       -0.404557 -1.1336275 -5.0400834 -0.7246409
0002b0 36 7f cf be de 83 69 bf f1 49 91 bf 13 a1 82 bf
       -0.40526742 -0.9121684 -1.135069 -1.0205406
0002c0 11 72 18 bf f2 77 af bf b7 61 8a bf 93 70 4f bf
       -0.5954905 -1.370848 -1.081107 -0.8103115
0002d0 ea c0 b3 bf ac 5b f6 be de 0a 3f be 66 19 74 bf
       -1.4043248 -0.48116815 -0.18656489 -0.95351255
0002e0 f4 e3 e0 be 08 26 3b bf fd eb eb be 61 83 23 bf
       -0.43923914 -0.73104906 -0.46078482 -0.63872343
0002f0 fd 7b e1 bd 78 1d 09 c0 e1 a4 69 c0 9f c6 87 be
       -0.11009977 -2.1424236 -3.6506884 -0.26518723
000300 da 36 90 bf 8d 2a 13 bf 3b 64 c1 bf 66 e7 ba be
       -1.1266739 -0.574868 -1.5108713 -0.36504668
000310 cc 06 5e bf a7 48 35 bf 1d a5 6c bf 21 1a 4b be
       -0.8672912 -0.70813984 -0.9243944 -0.19834186
000320 bc 66 49 bf 59 ac a4 be fd b7 b2 be 75 0c 19 bf
       -0.78672385 -0.3216274 -0.34905997 -0.5978463
000330 72 57 a6 bf 82 8d 0c bf a5 57 8e bf c3 a3 87 bf
       -1.2995436 -0.54903424 -1.1120497 -1.0596851
000340 89 c6 86 3b 4d fd 41 bf 0d 88 16 bf 21 28 e8 bf
       0.0041130227 -0.7577713 -0.58801347 -1.8137246
000350 e9 ca 46 be 79 07 ef be d4 59 78 bf d8 7b 10 bf
       -0.19413342 -0.4668539 -0.97012067 -0.5643897
000360 64 5e 6b bf 7a ce e9 bd 60 67 84 c0 74 e9 25 be
       -0.91940904 -0.114163354 -4.137619 -0.16202337
000370 a0 4d 14 bf 4f 87 34 c0 ef 99 31 bf ee 78 9c bf
       -0.57930946 -2.8207586 -0.6937551 -1.2224405
000380 96 2f 72 be b2 4f 33 bf 68 bb 24 bf c3 04 25 bf
       -0.23650965 -0.7004348 -0.6434846 -0.6446039
000390 2c 7f 84 bf d8 55 4e bf 01 86 e3 bf 8d 04 7a be
       -1.035131 -0.8059974 -1.777527 -0.24415798
0003a0 bc 73 5e bf 18 40 05 3e 93 ce 6a be b6 63 27 bf
       -0.86895347 0.13012731 -0.22930364 -0.6538652
0003b0 58 10 22 bf 2d 21 b7 bf 14 33 d6 be 40 cd 1a bf
       -0.6330619 -1.4307 -0.41835845 -0.60469437
0003c0 77 89 af bf 24 5d ba be 50 4d 9d bf f8 e8 2b bf
       -1.3713826 -0.36399186 -1.2289219 -0.6715236
0003d0 56 3c 0f bf de e2 ce bf 07 bc f8 be 00 b7 79 bf
       -0.5595144 -1.6162984 -0.48580953 -0.9754486
0003e0 83 d2 8e bf 49 76 82 bf 95 3f 6c be 43 29 0b bd
       -1.1157993 -1.0192348 -0.2307113 -0.033974897
0003f0 c9 58 72 bf 32 5c 33 bf ff 19 3a bf d3 9d 7f bf
       -0.94666725 -0.70062554 -0.72695917 -0.99850196

bias f4 [12]
000000 f8 60 a2 c0 77 1e a6 c0 2c e5 a8 c0 86 3d b5 3e
       -5.074337 -5.191219 -5.277975 0.353985
000010 bb 0d a3 c0 0b b2 96 3e 0f 45 a3 c0 ea 7e a2 c0
       -5.095426 0.2943271 -5.10218 -5.0779924
000020 0e 6a aa c0 67 03 76 3e 6a 9c a1 c0 c9 2a a8 c0
       -5.325446 0.24024735 -5.0503435 -5.255223

exp_avg f4 [128, 54]
000000 fb 5f e1 46 e5 2e 96 c6 51 25 51 c6 cb 12 0d c6
       28847.99 -19223.447 -13385.329 -9028.698
000010 00 00 00 00 b7 52 2a 47 bf 7b 99 c7 e4 3c ad 45
       0.0 43602.715 -78583.49 5543.6113
000020 97 5e a5 c7 b1 92 b7 c5 7c 4e 5f 47 b2 19 1d 46
       -84669.18 -5874.3364 57166.484 10054.424
000030 3e ca c2 c5 c3 67 3d c5 c8 39 3e 47 22 39 d3 46
       -6233.2803 -3030.485 48697.78 27036.566
000040 37 f0 67 46 67 6c 97 46 51 e8 6e 46 d4 95 b5 c6
       14844.054 19382.201 15290.079 -23242.914
000050 ea c3 83 47 a0 58 f9 c6 c3 67 bd c5 7e d2 ae 46
       67463.83 -31916.312 -6060.97 22377.246
000060 5d d2 88 c5 1f e1 1a 47 d9 79 cc c5 6b c8 4e c7
       -4378.2954 39649.12 -6543.231 -52936.418
000070 43 5b 82 c7 76 ad 26 c6 a7 77 94 c7 ce 0d 0e c6
       -66742.52 -10667.365 -76015.305 -9091.451
000080 0a d1 09 47 3b 59 b4 47 9c 3e e3 45 3d 39 a0 47
       35281.04 92338.46 7271.826 82034.48
000090 ed 7a 89 c5 32 ee 04 47 f8 6d d5 c6 17 5f 71 c6
       -4399.3657 34030.195 -27318.984 -15447.772
0000a0 c3 67 3d c6 8e 4d 17 c6 42 12 cf c6 64 51 26 c7
       -12121.94 -9683.389 -26505.129 -42577.39
0000b0 c1 dc 91 c7 57 fa f4 c6 f9 ed 3c c3 af 3a 01 c7
       -74681.51 -31357.17 -188.92958 -33082.684
0000c0 4e 26 ab c7 9d c1 6c c6 d3 e0 f3 c6 65 bc 86 c7
       -87628.61 -15152.403 -31216.412 -68984.79
0000d0 1a f6 8a c7 26 7b 63 c4 ff 7c eb c8 e8 ba 95 c8
       -71148.2 -909.9242 -482279.97 -306647.25
0000e0 88 5c 81 c7 44 eb 9f c8 00 00 00 00 4f f5 c9 c8
       -66233.06 -327514.12 0.0 -413610.47
0000f0 d8 ec a7 c8 c5 55 8b c8 e0 4e 26 c8 30 56 0e c9
       -343910.75 -285358.16 -170299.5 -583011.0
000100 ba 77 2e c8 cb 23 1c c8 13 4c 9d c8 c8 c6 04 c8
       -178654.9 -159887.17 -322144.6 -135963.12
000110 5a 8a 57 c7 5d 2f a5 c8 a4 20 4a c7 fe 4d fe c8
       -55178.35 -338298.9 -51744.64 -520815.94
000120 f7 a4 64 c7 8d 0b ac c8 e6 c0 31 c7 ca 85 03 c9
       -58532.965 -352348.4 -45504.9 -538716.6
000130 c8 c6 84 c8 f4 ce 83 c8 97 48 a1 c8 19 14 4b c8
       -271926.25 -269943.62 -330308.72 -207952.39
000140 11 b7 80 c8 fc c6 db c8 33 4f ba c7 18 32 81 c8
       -263608.53 -450103.88 -95390.4 -264592.75
000150 da 8e 28 c9 2f 2a c7 c8 fa a2 f9 c8 68 83 25 c8
       -690413.6 -407889.47 -511255.8 -169485.62
000160 f0 c2 34 c8 ff b0 ae c8 37 05 04 c9 ad 08 3b c8
       -185099.75 -357767.97 -540755.44 -191522.7
000170 7f a0 04 c9 2d f4 02 c9 c8 c6 04 c9 32 b6 b7 c8
       -543239.94 -536386.8 -543852.5 -376241.56
000180 00 a1 af c8 33 e5 0b c9 15 17 99 c8 6c b3 e0 c8
       -359688.0 -573011.2 -313528.66 -460187.38
000190 07 65 03 c9 40 f8 f0 c8 ad 29 dd c8 7a f8 25 c9
       -538192.44 -493506.0 -452941.4 -679815.6
0001a0 32 cc 47 c8 da 3e e6 c8 c0 af f0 c8 45 01 b5 c8
       -204592.78 -471542.8 -492926.0 -370698.16
0001b0 64 83 3f c3 81 7e a6 c3 fd cc 2f c3 6e 49 a3 c3
       -191.51324 -332.9883 -175.80074 -326.57367
0001c0 00 00 00 00 eb ef 31 c3 88 ea 3b c3 90 a4 28 c3
       0.0 -177.93718 -187.91614 -168.64282
0001d0 87 f4 27 c3 20 80 2b c4 e2 ee 31 c3 f8 33 4c c4
       -167.95518 -686.00195 -177.93314 -816.812
0001e0 46 13 2a c4 3d 13 2a c3 00 f3 02 c4 a1 09 2c c4
       -680.30115 -170.07515 -523.7969 -688.15045
0001f0 72 94 14 c2 ba f2 02 c4 44 7c 03 c4 2a 52 f8 c3
       -37.144966 -523.7926 -525.94165 -496.6419
000200 cf 21 50 c4 f4 ce 4d c4 3d 13 aa c3 c4 2e 24 c4
       -832.52826 -823.23364 -340.1503 -656.7307
000210 de 1c 28 c4 d0 7d bc c1 3c 31 f6 c3 e8 14 c8 c1
       -672.45105 -23.561432 -492.38464 -25.010208
000220 41 1b ff c3 33 6c aa c3 2c 41 06 c2 dc 1c ff c3
       -510.21292 -340.8453 -33.563644 -510.22546
000230 8c 5e 29 c4 03 dc b0 c3 28 dc b5 c3 a3 03 0a c0
       -677.4773 -353.71884 -363.71997 -2.156472
000240 7e 63 fe c3 aa c1 22 c4 54 02 a9 c3 85 ff b6 c1
       -508.77728 -651.026 -338.0182 -22.874765
000250 3d 13 2a c4 5c df 4e c4 71 d7 4b c4 3c 07 51 c4
       -680.3006 -827.49 -815.3663 -836.11304
000260 54 59 89 c1 e3 8e 51 c4 8c ee ac c3 fe 6b a5 c3
       -17.168617 -838.2326 -345.86365 -330.8437
000270 3f 0c f9 c3 0d 98 54 c4 9b 5e 33 c3 5d 36 27 c4
       -498.09567 -850.3758 -179.36955 -668.8494
000280 0d 4e 50 c4 89 dc 88 c0 7c dc a4 48 68 51 29 48
       -833.21954 -4.276921 337635.88 173381.62
000290 6e b0 27 c7 3c 24 68 48 00 00 00 00 e5 d3 ae 48
       -42928.43 237712.94 0.0 358047.16
0002a0 b0 fc 46 48 88 88 7d 48 24 c6 d6 46 8d db 93 48
       203762.75 259618.12 27491.07 302812.4
0002b0 cd 66 35 48 ac a4 d5 46 92 01 79 48 c4 8c ad 47
       185755.2 27346.336 254982.28 88857.53
0002c0 ee f3 bd 47 39 3b 3c 48 04 6a a8 c7 71 27 a0 48
       97255.86 192748.89 -86228.03 327995.53
0002d0 9b eb ea 47 1c 6e 0f 48 00 dc 4e c3 e4 09 9e 48
       120279.21 146872.44 -206.85938 323663.12
0002e0 c4 8c 2d 48 f3 6d 5b 48 b0 f6 86 48 89 f8 db 47
       177715.06 224695.8 276405.5 112625.07
0002f0 e0 1c 7b 48 16 ae 92 48 8c 19 f0 45 a5 e9 ea 47
       257139.5 300400.7 7683.1934 120275.29
000300 62 e5 e6 48 93 29 82 48 58 05 ad 48 0e 52 41 47
       472875.06 266572.6 354346.75 49490.055
000310 93 73 2d 48 9a ad b1 48 e4 72 f8 48 d9 c9 c0 47
       177614.3 363884.8 508823.12 98707.695
000320 9f 79 8f 48 a7 2d c6 48 c4 8c ad 48 07 02 30 48
       293836.97 405869.22 355430.12 180232.11
000330 74 de 4f 48 5f 4d d2 48 1e d1 5c 48 7b a4 5e 48
       212857.81 430698.97 226116.47 227985.92
000340 84 96 96 48 f5 1b b0 48 a1 76 90 48 f4 ef d8 48
       308404.12 360671.66 295861.03 444287.62
000350 a0 5e 1a 45 07 51 9b 48 74 8a 96 48 51 89 9b 48
       2469.914 318088.22 308307.62 318538.53
000360 18 3d 40 c7 d3 50 fb c6 a3 1a ba c7 ed f7 1d c7
       -49213.094 -32168.412 -95285.27 -40439.926
000370 00 00 00 00 1b 49 c5 c5 d1 3b 6e c7 fe 5c 67 c7
       0.0 -6313.138 -60987.816 -59228.992
000380 a8 c1 97 c7 a7 21 6c c7 25 27 9a c6 7f ac 22 c7
       -77699.31 -60449.652 -19731.572 -41644.496
000390 28 1c d9 c7 82 f3 c6 c6 e4 95 11 46 19 5a ae c7
       -111160.31 -25465.754 9317.473 -89268.195
0003a0 14 6a 40 c6 10 d5 98 c7 2b f1 de c6 70 bf 25 c7
       -12314.52 -78250.125 -28536.584 -42431.438
0003b0 5c b9 0b c6 58 00 e4 c7 82 f3 46 c7 ef c0 c2 c7
       -8942.34 -116736.69 -50931.508 -99713.87
0003c0 aa 9d 93 c7 fd a5 26 c7 0c b0 48 c6 69 82 e0 c7
       -75579.33 -42661.99 -12844.012 -114948.82
0003d0 e2 a1 f5 c7 d1 3a 36 c7 78 b9 b4 c7 a4 36 95 c7
       -125763.766 -46650.816 -92530.94 -76397.28
0003e0 8c eb 83 c7 dc 52 85 c7 c6 28 d0 c7 90 00 4d c7
       -67543.09 -68261.72 -106577.55 -52480.562
0003f0 a9 73 40 c6 50 bb 75 c7 16 17 d4 c7 81 a8 57 c7
       -12316.915 -62907.312 -108590.17 -55208.504

exp_avg_sq f4 [128, 54]
000000 3e ee 7b 53 11 62 46 53 6e 28 08 54 7a ae 32 53
       1.0820338e+12 8.520488e+11 2.3391754e+12 7.674314e+11
000010 00 00 00 00 04 ad 8c 53 da 72 67 53 81 fa b3 53
       0.0 1.2083963e+12 9.9406433e+11 1.5460038e+12
000020 91 36 a6 53 2b 8b 6d 54 00 b5 32 54 e5 cd 39 54
       1.4277601e+12 4.0809684e+12 3.0701634e+12 3.1920931e+12
000030 de 84 54 54 49 45 89 52 3e b4 46 54 bb 42 52 54
       3.6510488e+12 2.9478647e+11 3.41371e+12 3.6122507e+12
000040 c1 b2 28 54 ca 91 2c 54 17 a8 d5 53 93 dd 1f 54
       2.898214e+12 2.9647212e+12 1.8352962e+12 2.7464688e+12
000050 a3 7b 5b 54 bf bb 58 54 49 45 89 53 c0 59 21 54
       3.7706885e+12 3.7234512e+12 1.1791459e+12 2.771982e+12
000060 56 48 72 54 f6 d4 2e 54 99 f6 9d 53 43 71 1d 54
       4.1623827e+12 3.0035888e+12 1.3568942e+12 2.7048403e+12
000070 cf 83 91 53 82 d8 e0 53 57 39 40 54 f5 6d 1a 54
       1.2499633e+12 1.9314101e+12 3.302383e+12 2.653079e+12
000080 d4 d0 39 54 b3 82 48 54 72 c0 3f 54 4b 14 4c 54
       3.19229e+12 3.444745e+12 3.2942698e+12 3.5060552e+12
000090 e0 6c c5 53 22 cc 63 54 69 26 49 54 c3 60 fd 53
       1.6958704e+12 3.9135294e+12 3.4557314e+12 2.1765002e+12
0000a0 49 45 89 54 e5 41 b2 53 2a 5f 84 54 61 74 15 54
       4.7165835e+12 1.5312194e+12 4.548258e+12 2.5676106e+12
0000b0 1f f0 c7 53 7d 6a 5b 54 45 e3 8b 54 dd 78 f7 53
       1.7174541e+12 3.7695377e+12 4.806507e+12 2.1257693e+12
0000c0 69 f6 ff 53 2e 7c d6 54 1f 90 61 54 d1 0c 2c 54
       2.1987015e+12 7.369651e+12 3.8751424e+12 2.9557976e+12
0000d0 b7 53 34 54 a6 56 f2 53 b4 78 26 54 8f 2c 92 54
       3.0979945e+12 2.0816716e+12 2.8599585e+12 5.0225024e+12
0000e0 8c 5b 91 54 93 80 68 54 00 00 00 00 7f 00 8d 54
       4.9944493e+12 3.994358e+12 0.0 4.8447897e+12
0000f0 d2 08 96 54 2e fa 7d 54 ef a1 a9 54 76 42 e1 54
       5.1551446e+12 4.3632962e+12 5.82853e+12 7.7398614e+12
000100 0d c7 cf 54 05 b8 af 54 9f 4d e0 54 8b 22 2a 53
       7.139182e+12 6.037653e+12 7.7069995e+12 7.30724e+11
000110 c3 09 01 55 a0 4e cc 54 59 34 ab 54 bf df ed 54
       8.867433e+12 7.0199395e+12 5.882541e+12 8.1732887e+12
000120 91 e4 9a 54 73 9e de 54 48 17 bd 54 63 1c 95 54
       5.3220774e+12 7.6491286e+12 6.4971153e+12 5.123411e+12
000130 8b 22 2a 54 26 95 59 54 8e 45 b0 54 32 8e af 54
       2.922896e+12 3.7380408e+12 6.0566494e+12 6.0320393e+12
000140 d0 1f 98 54 69 7a c1 54 89 a2 60 54 66 63 d3 54
       5.22695e+12 6.647859e+12 3.8591982e+12 7.263246e+12
000150 dc 40 04 55 ce 66 bf 54 61 e9 03 55 2d b5 a2 54
       9.088381e+12 6.576508e+12 9.064899e+12 5.5905946e+12
000160 97 c7 be 54 1a 30 d0 54 45 e9 d8 54 10 d5 e0 54
       6.555139e+12 7.1532817e+12 7.4530124e+12 7.725178e+12
000170 05 56 05 55 d2 13 e4 54 8b 22 2a 55 c9 0b ba 54
       9.162781e+12 7.8366806e+12 1.1691584e+13 6.392493e+12
000180 a4 43 05 55 bd 21 e2 54 e1 dd ef 54 e7 6e d0 54
       9.157848e+12 7.769829e+12 8.2417576e+12 7.1617106e+12
000190 4b 7b 10 55 db 90 b6 54 80 59 cf 54 fd ea 84 55
       9.928701e+12 6.2729146e+12 7.1244783e+12 1.82681e+13
0001a0 48 0e f4 54 5d 62 ee 54 57 1d c3 54 74 01 cf 54
       8.385693e+12 8.19082e+12 6.704087e+12 7.112661e+12
0001b0 fa 80 0b 52 9f 14 6c 52 aa e0 0b 51 b3 47 d0 51
       1.4979108e+11 2.5348956e+11 3.7548106e+10 1.1181951e+11
0001c0 00 00 00 00 3a 17 5b 52 6f 83 b9 51 16 8c 10 52
       0.0 2.3524688e+11 9.9596755e+10 1.5520639e+11
0001d0 ec 4c 16 52 7a 32 98 52 de b7 fc 51 1c 0e 4b 52
       1.613839e+11 3.2684094e+11 1.3567707e+11 2.1802877e+11
0001e0 ed b3 09 52 f3 d6 c9 50 d9 b9 bb 52 1d f5 89 52
       1.478573e+11 2.7090459e+10 4.0313845e+11 2.9626142e+11
0001f0 19 99 eb 52 a5 95 2e 52 9c fc c0 52 e2 28 a2 52
       5.0594293e+11 1.8745873e+11 4.144359e+11 3.482353e+11
000200 b0 d6 e5 52 f5 a5 0d 52 f3 d6 c9 51 f5 f9 8d 52
       4.935747e+11 1.5209367e+11 1.08361834e+11 3.04892e+11
000210 df 5e bb 52 04 1c 01 52 ac 8d a2 52 55 66 29 52
       4.0237528e+11 1.386302e+11 3.4908078e+11 1.8189158e+11
000220 f3 ef 80 52 ff 29 26 52 22 74 95 52 c1 11 63 52
       2.7689075e+11 1.7841729e+11 3.2094926e+11 2.4381386e+11
000230 8c d6 a4 52 75 85 e2 51 3d 46 9c 52 5f 43 9c 52
       3.5398707e+11 1.21612706e+11 3.3559665e+11 3.355726e+11
000240 80 5d 41 51 e6 72 63 52 63 75 da 51 13 19 30 52
       5.1906085e+10 2.4422131e+11 1.1728404e+11 1.8908373e+11
000250 f3 d6 c9 52 e2 ad bb 52 3a 41 c9 52 a7 1a 79 52
       4.3344734e+11 4.0303808e+11 4.3219137e+11 2.674735e+11
000260 91 60 aa 52 de a7 71 52 80 e5 6d 52 20 78 ae 52
       3.6588228e+11 2.5947587e+11 2.554394e+11 3.7466984e+11
000270 1b 46 d6 51 de af 1d 53 82 39 16 51 4b 99 8c 52
       1.150374e+11 6.772604e+11 4.032562e+10 3.0193363e+11
000280 ae cc 79 52 40 73 c8 51 e8 48 04 54 1c f2 3e 54
       2.682202e+11 1.0761588e+11 2.2726354e+12 3.2804228e+12
000290 f0 b3 f9 53 af f4 af 53 00 00 00 00 56 b1 10 54
       2.1449314e+12 1.5114488e+12 0.0 2.485802e+12
0002a0 0d d0 17 54 8a d5 0b 54 f2 3d 0c 54 fd 1f 27 54
       2.6081223e+12 2.4023322e+12 2.4093388e+12 2.8711849e+12
0002b0 8d 63 55 54 c7 83 35 54 fd 9e 3e 54 67 ba 94 52
       3.665993e+12 3.1183998e+12 3.2748447e+12 3.1939124e+11
0002c0 2e d6 32 54 ec 75 2c 54 ca 1a f6 53 24 29 59 54
       3.07239e+12 2.962851e+12 2.1140228e+12 3.7307925e+12
0002d0 d6 84 fb 53 f0 8c 28 54 44 fa 19 54 1a 92 43 54
       2.1605308e+12 2.8956762e+12 2.645315e+12 3.3598792e+12
0002e0 67 ba 94 53 bc 7d 0c 54 2a 72 0a 54 bf 0b 56 54
       1.277565e+12 2.4136196e+12 2.3784834e+12 3.6772803e+12
0002f0 68 93 14 54 79 cd 10 54 71 53 50 53 4c e0 26 54
       2.552513e+12 2.4876902e+12 8.947531e+11 2.8669106e+12
000300 f5 a0 30 54 c4 51 27 54 d0 2a 61 54 88 c9 23 54
       3.0344586e+12 2.8745254e+12 3.8683437e+12 2.8138432e+12
000310 e5 f4 1c 54 a0 dd 4e 54 4e 98 69 54 c2 6e 4c 54
       2.6964942e+12 3.553926e+12 4.0131305e+12 3.5121261e+12
000320 c1 2a 61 54 db 9c 68 54 67 ba 94 54 0d cc 10 54
       3.8683397e+12 3.996256e+12 5.11026e+12 2.4875948e+12
000330 cd b5 66 54 a0 33 53 54 c5 cb 6c 54 ec 13 25 54
       3.9635704e+12 3.628417e+12 4.068124e+12 2.8360153e+12
000340 f9 51 89 54 fa 49 26 54 e3 26 30 54 5c 63 e8 54
       4.7182863e+12 2.8568228e+12 3.0262666e+12 7.984795e+12
000350 0a 35 38 54 a7 1f 47 54 6f ef 13 54 57 ec 3a 54
       3.1646553e+12 3.420918e+12 2.541509e+12 3.2113162e+12
000360 69 cb 46 51 0a a8 40 51 80 1c c6 50 b9 d9 87 50
       5.336351e+10 5.171581e+10 2.6590052e+10 1.8233543e+10
000370 00 00 00 00 a9 76 8b 50 79 6d dd 50 b4 ed f5 50
       0.0 1.8718476e+10 2.9719513e+10 3.3007968e+10
000380 42 22 df 50 04 d0 24 51 23 dc d8 50 6b 47 2e 51
       2.9948514e+10 4.4241535e+10 2.9106444e+10 4.6782657e+10
000390 7e 95 6f 51 68 3c 8e 4f 84 4e 7a 50 1d b7 30 51
       6.4312828e+10 4.772647e+09 1.6797798e+10 4.743665e+10
0003a0 fa ed 35 51 81 12 ea 50 c1 6a 14 51 e1 aa 2a 51
       4.8836354e+10 3.141665e+10 3.9840387e+10 4.5813207e+10
0003b0 9b 1c 02 51 99 e6 82 51 68 3c 8e 50 be d0 4b 51
       3.4926604e+10 7.027682e+10 1.9090588e+10 5.471128e+10
0003c0 3d 29 54 51 27 16 48 51 0a 8f 0c 51 42 30 8b 51
       5.695156e+10 5.371032e+10 3.773095e+10 7.472626e+10
0003d0 0d 62 14 51 e0 40 70 50 4b f4 05 51 e9 03 20 51
       3.983126e+10 1.6123134e+10 3.5958075e+10 4.2953773e+10
0003e0 f5 23 3f 51 9a 2f 2e 51 09 95 3d 51 ce 2f 43 51
       5.1308876e+10 4.6757683e+10 5.0890576e+10 5.239504e+10
0003f0 e2 7e 21 50 17 7b 2a 51 94 77 5a 51 4c 45 2b 51
       1.0837789e+10 4.5763097e+10 5.8644316e+10 4.5975126e+10

exp_avg f4 [128]
000000 c3 67 3d c5 c8 c6 04 c8 3d 13 2a c3 c4 8c ad 47
       -3030.485 -135963.12 -170.07515 88857.53
000010 82 f3 c6 c6 0e da 54 44 62 86 2c c8 e0 a7 0e 47
       -25465.754 851.4071 -176665.53 36519.875
000020 80 77 27 43 53 78 5a c6 f4 d7 aa c2 04 00 00 00
       167.4668 -13982.081 -85.42178 6e-45
000030 04 00 00 00 6e 4a 33 be 50 55 f5 c4 04 00 00 00
       6e-45 -0.17508861 -1962.666 6e-45
000040 b0 28 52 45 8c 6b c3 c6 04 00 00 80 04 00 00 80
       3362.543 -25013.773 -6e-45 -6e-45
000050 ce 40 39 c7 20 23 b9 c4 ce 42 98 c5 17 3e 68 c6
       -47424.805 -1481.0977 -4872.3506 -14863.522
000060 72 f4 2e c8 9b d7 f0 c6 04 00 00 00 f7 63 9e c6
       -179153.78 -30827.803 6e-45 -20273.982
000070 d5 78 09 46 e0 d1 c5 c4 04 00 00 00 a7 2e 67 46
       8798.208 -1582.5586 6e-45 14795.663
000080 75 06 2d 41 68 d8 48 3f 09 ce 58 c4 71 83 54 c5
       10.814076 0.7845521 -867.2193 -3400.215
000090 07 9f f4 46 04 00 00 00 9a ac 88 c6 56 97 15 c8
       31311.514 6e-45 -17494.3 -153181.34
0000a0 ba cf a6 c7 f7 54 74 2a 5c 8a ae c6 04 00 00 00
       -85407.45 2.1701032e-13 -22341.18 6e-45
0000b0 57 b5 9b c7 23 09 e6 c3 fe 26 d8 45 cc b7 8a c6
       -79722.68 -460.07138 6916.874 -17755.898
0000c0 35 03 72 c5 04 00 00 00 12 84 1c c8 8b 52 43 c4
       -3872.2004 6e-45 -160272.28 -781.28973
0000d0 68 35 a0 46 97 b9 3b 47 15 da 83 c6 04 00 00 80
       20506.703 48057.59 -16877.041 -6e-45
0000e0 80 a9 85 a1 35 0a 0b c7 77 ae c0 45 04 00 00 00
       -9.057297e-19 -35594.207 6165.808 6e-45
0000f0 3f 67 20 c8 b4 95 7a c6 04 00 00 00 f6 8c 69 43
       -164252.98 -16037.426 6e-45 233.55063
000100 15 c1 da bd 95 e5 00 c7 61 c9 96 46 6e 29 e9 46
       -0.10681359 -32997.582 19300.69 29844.715
000110 44 48 bb 44 74 fb 4c c7 2b 64 9c c6 04 00 00 00
       1498.2583 -52475.453 -20018.084 6e-45
000120 00 00 00 00 0a 36 da c6 4c 55 88 3f 10 06 7f c5
       0.0 -27931.02 1.065103 -4080.379
000130 be a9 12 c7 af ac 0d c8 94 5c 29 31 10 f6 3d 43
       -37545.742 -145074.73 2.4645361e-09 189.96118
000140 61 00 04 c8 24 e8 1a 47 34 c2 95 bd 23 fb 05 45
       -135169.52 39656.14 -0.07312432 2143.696
000150 11 4f 74 c7 79 f0 cf 35 bf 6f 61 bc 87 e5 d3 c7
       -62543.066 1.5492689e-06 -0.0137595525 -108491.055
000160 25 19 42 c6 5e 7b f8 c7 64 32 0c 45 ad 11 60 c6
       -12422.286 -127222.734 2243.1494 -14340.419
000170 8b a4 55 46 95 5c 90 c5 f6 58 3e c5 2d 0e b2 c6
       13673.136 -4619.5728 -3045.56 -22791.088
000180 f3 57 c7 c5 31 7a 80 c0 0f d9 01 c5 88 a4 b1 44
       -6378.9937 -4.014916 -2077.5662 1421.1416
000190 4e 76 1c c5 7b 29 80 c7 14 81 99 c2 72 68 ba bd
       -2503.394 -65618.96 -76.752106 -0.091019526
0001a0 04 00 00 00 f0 26 43 c5 30 2b 52 45 aa 66 f5 46
       6e-45 -3122.4336 3362.6992 31411.332
0001b0 78 3e d5 c3 a0 4b 0e c6 ff 3b d5 c5 fa 88 75 c7
       -426.48804 -9106.906 -6823.4995 -62856.977
0001c0 40 b7 5e b9 98 27 0c 43 50 67 9b c6 8e 1c a4 c4
       -0.00021239836 140.15466 -19891.656 -1312.8923
0001d0 c5 ba e0 c6 a4 e2 b2 b4 c2 bc 3e 3d 40 70 b7 c6
       -28765.385 -3.3319986e-07 0.046566732 -23480.125
0001e0 e5 8c 85 c3 5a ad 8e c5 9e ff 45 c5 ea c9 55 47
       -267.10074 -4565.669 -3167.976 54729.914
0001f0 04 00 00 80 ba b1 5c 46 d9 be f2 c7 bc b4 df 37
       -6e-45 14124.432 -124285.695 2.6667833e-05

exp_avg_sq f4 [128]
000000 49 45 89 52 8b 22 2a 53 f3 d6 c9 50 67 ba 94 52
       2.9478647e+11 7.30724e+11 2.7090459e+10 3.1939124e+11
000010 68 3c 8e 4f 58 7a 3d 50 35 a9 5c 53 0d f8 51 52
       4.772647e+09 1.2715647e+10 9.477316e+11 2.2545244e+11
000020 f8 90 33 52 aa 8c fd 52 27 96 e5 51 f4 01 00 00
       1.9280783e+11 5.4449334e+11 1.2325833e+11 7e-43
000030 f4 01 00 00 ee 82 30 4f dd 24 1b 51 f4 01 00 00
       7e-43 2.9613706e+09 4.164615e+10 7e-43
000040 30 ce b7 4f 80 d1 c0 51 f4 01 00 00 f4 01 00 00
       6.1674865e+09 1.0351857e+11 7e-43 7e-43
000050 ed 3d 8d 52 59 d4 99 52 97 19 5e 51 6a 6e 9c 52
       3.0331467e+11 3.303463e+11 5.9619504e+10 3.3593367e+11
000060 d0 89 4a 53 b5 4d 84 50 f4 01 00 00 29 0f 8c 52
       8.698955e+11 1.775748e+10 7e-43 3.0077488e+11
000070 64 4c 8c 51 df 78 2e 51 f4 01 00 00 48 84 6d 50
       7.532213e+10 4.683451e+10 7e-43 1.5939478e+10
000080 99 eb 91 4e c1 80 25 4e 27 1c 04 51 d8 64 ce 50
       1.2240682e+09 6.9416966e+08 3.5463e+10 2.7701723e+10
000090 67 72 23 53 f4 01 00 00 99 b0 b2 51 ab 17 b2 53
       7.01999e+11 7e-43 9.5933374e+10 1.5298025e+12
0000a0 7b 4e a5 52 14 c3 c0 4c f5 9c 6d 53 f4 01 00 00
       3.5499314e+11 1.0106282e+08 1.02054055e+12 7e-43
0000b0 19 5e b7 51 02 dc 13 51 ea f6 9f 51 d9 6a 81 51
       9.844471e+10 3.9690707e+10 8.588029e+10 6.948042e+10
0000c0 06 48 17 51 f4 01 00 00 6e 1a 6b 53 30 16 35 51
       4.0609276e+10 7e-43 1.0097607e+12 4.8610083e+10
0000d0 91 1c 38 52 cd 55 e1 52 b5 1c 5b 52 10 2c 00 00
       1.9768831e+11 4.8390357e+11 2.3526987e+11 1.5807e-41
0000e0 51 14 42 4d e5 3c 75 52 e4 cd 34 50 f4 01 00 00
       2.0350696e+08 2.6332216e+11 1.2133569e+10 7e-43
0000f0 ee 73 a1 53 d1 9a 17 53 f4 01 00 00 64 d2 41 4e
       1.3868694e+12 6.5113745e+11 7e-43 8.129477e+08
000100 a1 b8 c2 4d 66 a6 87 53 06 81 35 52 78 1e 4e 50
       4.0835997e+08 1.1652246e+12 1.9488843e+11 1.3832413e+10
000110 ee dc 1f 50 a6 f9 c5 51 6b e5 2a 52 f4 01 00 00
       1.0728225e+10 1.0628712e+11 1.8349836e+11 7e-43
000120 00 00 00 00 f4 d7 18 51 03 fc 9e 50 b9 55 49 51
       0.0 4.1028633e+10 2.1338528e+10 5.4045413e+10
000130 6c 00 78 51 ab ac 5c 52 e3 6b c2 4f e5 ed bb 4f
       6.6572435e+10 2.3694742e+11 6.5237007e+09 6.30586e+09
000140 a7 dd 65 53 21 17 90 52 4c 60 86 50 22 70 81 4e
       9.872662e+11 3.0943166e+11 1.8035663e+10 1.0858048e+09
000150 7f 4f 1f 53 3d 85 8b 50 3e 81 70 50 ea cc 5f 52
       6.842335e+11 1.872612e+10 1.6140007e+10 2.403039e+11
000160 b2 5d 90 51 50 34 ce 53 e3 12 da 50 b2 ea 5a 51
       7.7505905e+10 1.7712818e+12 2.9269367e+10 5.8765025e+10
000170 91 41 df 51 12 31 39 50 70 ed 47 50 80 7d 6f 52
       1.1985972e+11 1.2428003e+10 1.3416907e+10 2.5715068e+11
000180 5e e6 82 51 4d d1 2f 4b a4 63 35 50 1d fc f8 50
       7.027633e+10 1.1522381e+07 1.2172825e+10 3.3418177e+10
000190 50 e0 4f 51 7f 90 51 52 07 62 07 52 79 31 cb 4f
       5.580135e+10 2.250181e+11 1.453663e+11 6.818034e+09
0001a0 f4 01 00 00 1f a6 fa 52 7d b6 f8 4f ae e5 9c 52
       7e-43 5.3826444e+11 8.345418e+09 3.3693414e+11
0001b0 71 d0 92 4f 76 16 11 53 8a e7 47 52 2a 93 20 51
       4.926268e+09 6.231471e+11 2.1464577e+11 4.3103986e+10
0001c0 2b 6d 19 4e 1d 02 f2 4f 0d 9a f6 51 2e e5 1a 50
       6.435171e+08 8.1204495e+09 1.3239331e+11 1.0394843e+10
0001d0 15 6b f3 51 3d 49 38 50 e6 36 b1 50 e7 c1 c7 52
       1.306842e+11 1.236723e+10 2.378532e+10 4.2897582e+11
0001e0 d2 0e e1 50 22 4d c6 52 52 02 ae 50 af e6 96 50
       3.0206759e+10 4.258488e+11 2.3355101e+10 2.0253604e+10
0001f0 87 43 fc 18 d9 11 6b 53 6a d9 38 52 88 59 76 4f
       6.520866e-24 1.00961675e+12 1.984804e+11 4.1330627e+09
