RL_methods/policy_net.pth (torch, 309858 bytes, 18 tensors)

weight f4 [128, 54]
00000000: 0311 f43c 490b dabd 3039 8a3d b91e 343e
00000010: 0ba5 21be a8b9 bebe e7c5 06be 3132 953c
00000020: ef1e be3d f0f2 0d3e 306e 1b3d 4351 a83e
00000030: 8467 b4be d83c b8be f03f b6bd 0ff5 5f3e
00000040: 66c3 4b3d e875 9f3d 3a89 05be 6ba0 0abf
00000050: 4910 90be f6a7 09be 71a3 1bbe 0e6b 9dbe
00000060: e21b 8b3e efe0 71be 9c73 b6bd a1cf 193d
00000070: da63 40be f93e ed3d 147a 5d3e 1f35 293e
00000080: 0eba 25bd 7ce2 9cbd 2286 6d3d dbb2 37be
00000090: 5a10 243c 436d 17be da74 2e3d d83d 0cbe
000000a0: f523 27be 9655 b53d 5666 90be b408 cabb
000000b0: f85e bf3d 3e3d 343d 1134 bf3e 4364 713e
000000c0: 4b48 7fbe f9d2 093e dda9 443e f198 9e3d
000000d0: 3fd4 563e 3f5b 933e b5b5 f4bd bf6f a93d
000000e0: 43e0 943c 65bc cd3e d8cd 45bd cb81 3fbe
000000f0: 953c c43d 286e 383e 3929 843d b887 853e
00000100: 8673 95be 8513 2fbe 88d7 8fbe b399 0d3d
00000110: d988 74be ed7b 9f3c 7039 26bc 33c1 55be
00000120: e98a 48be e9de a8bd 0a7f 4abe e3d6 913e
00000130: 8843 adbe 575f 393e 7604 c3bd 3e20 9fbd
00000140: c304 583c dcc1 cb3d afb0 293e 30ff bbbd
00000150: 3424 a63e cb76 57be d1ad ca3e 4274 a53d
00000160: 6903 463e dddb 8fbe 2bfd 3e3d d01e f6bb
00000170: 6d14 ddbd 05f8 783e b461 a43e 3eff 40bd
00000180: 210c 0a3e 53c4 863d e7bd abbd 9281 51be
00000190: ddc8 ffbd 3c90 3abe 3159 353e cf3e 533e
000001a0: 56cf 11bf 4ef9 0ebd da20 503e ef0e 7bbe
000001b0: cbac 0c3d f307 0b3e 90e2 bdbd 02fa 6d3e
000001c0: 9bf0 7cbe 0dd6 b9bd 2be4 8e3d f879 b7be
000001d0: aa12 bb3d a917 9dbd 3202 ec3d 1812 af3d
000001e0: 63da 4b3d 3860 2cbe 6bcc 3dbe 1f36 b8bd
000001f0: c655 7abe 4571 8f3e f919 08bd 0203 943d
00000200: e495 ad3e 124d 9abe 2e80 743d 01a1 dd3e
00000210: f508 86be 98d0 3ebe 88c5 803e 38a4 98be
00000220: 535b 353e 59ed 0f3e 187c 763d 6012 43be
00000230: a7fc 523d 2baa 583e 37d9 20be 887f 66be
00000240: 8cdb 7bbd 3408 063e 9399 4f3e d599 cebd
00000250: b17a 87be 9861 e03e f26c 423d dbb4 f13d
00000260: 546f 8c3d 5c35 04be 3841 a23e 6d69 94bc
00000270: bdc4 a3be 637f 70be f9a4 e43b bad2 debd
00000280: 9e5a dabc 24c1 4f3d 29dc bc3e 2a23 10bf
00000290: 32f6 10be ddee c6bb 078c 973e 33e5 083d
000002a0: 2242 88be 23a2 3d3e 2a3d 6b3d 5393 ca3d
000002b0: 1ef0 c43d fede 8f3c c72d 973d 1b3a 993e
000002c0: f5a3 7e3d 9fa9 ec3c 5dbb f73d 72ea e0bd
000002d0: cde3 883d 3138 bf3e 0c78 4fbe ef25 d2bd
000002e0: 82d4 13be fa87 b93e 7125 3bbc b9f8 1cbc
000002f0: 0861 dbbd e4d3 103e 9ad4 033e 967e d9be
00000300: c5e2 25bd c2b8 afbe 8d0c 043d b89a 163c
00000310: 705e dfbc 67b2 173d 21a4 a4be 3d8d ce3e
00000320: 5c25 803d 0a89 26be bf0d fbbb c680 813b
00000330: 1617 a03e 5135 05bf 9f11 3dbe 607b 4abe
00000340: 8612 ce3e c1df b13d aee7 0c3e 60cc c53d
00000350: 5fc1 5ebc 689b d5bc 2019 7fbd c8c9 8c3d
00000360: 727f 393e b9c0 d53d 8aed 34bc 6de4 e23c
00000370: 906d 8cbc 4233 683e e6be 84bd 59cf 3c3e
00000380: c8a3 163e 05d8 eabd 5376 cbbe 85e2 10be
00000390: a65d 7e3e af74 1d3e e825 19be fe46 c2bc
000003a0: cee4 313e 717e 163e 05ba 5fbe 97be 92be
000003b0: 40e5 593d d23b f53c d04c 8abe 9594 8bbe
000003c0: 8e87 f5bd 3804 783d 4bb3 bc3d eedf 7fbe
000003d0: f10f 353e 4964 4a3e 198f 70be d002 413e
000003e0: b4ab b1bd ded6 e23d f62f 603e a099 5d3e
000003f0: bb2e aabe d249 443d bf6c ac3d 6f0a 143e
0.029793268 -0.10646684 0.06749189 0.17589845 -0.15785615 -0.3725102 -0.13161431 0.01821241
0.09283244 0.13862205 0.03794688 0.32874498 -0.35235226 -0.3598392 -0.08898914 0.21870826
0.049746893 0.07786161 -0.13040629 -0.5415103 -0.28137425 -0.13442978 -0.15199067 -0.3074574
0.2716971 -0.23620962 -0.089087695 0.037551526 -0.1878809 0.11584277 0.216286 0.1652417
-0.04046064 -0.07660386 0.057989247 -0.17939322 0.010013664 -0.14787774 0.042591907 -0.13695467
-0.1632231 0.08854215 -0.28203076 -0.0061655883 0.09344286 0.044003718 0.3734441 0.23573403
-0.24929921 0.13459386 0.19205423 0.07744015 0.20979403 0.28780553 -0.1194872 0.08273267
0.018173343 0.40182796 -0.04829201 -0.18701856 0.095818676 0.18010771 0.06453175 0.26080108
-0.291897 -0.1709729 -0.28094125 0.034570407 -0.23880328 0.019468272 -0.01014553 -0.20874481
-0.1958424 -0.08245642 -0.19775024 0.28484258 -0.33840585 0.18102776 -0.09522335 -0.077698216
0.013184729 0.09949085 0.16571306 -0.091795325 0.32449496 -0.2104141 0.39585736 0.08078815
0.19337238 -0.2809743 0.04662816 -0.0075109974 -0.107949115 0.24313362 0.32105792 -0.047118418
0.1348119 0.065804146 -0.083858304 -0.20459583 -0.124894835 -0.18219084 0.17709805 0.20629428
-0.56956995 -0.034905724 0.20325032 -0.24517415 0.034344476 0.13577251 -0.09271729 0.23239902
-0.24701159 -0.0907403 0.06977113 -0.35835242 0.09134419 -0.076705284 0.11523856 0.08548373
0.049768817 -0.1683358 -0.1853501 -0.08994698 -0.24446782 0.28016105 -0.033227894 0.07227136
0.3390342 -0.30136925 0.059692554 0.432869 -0.2617871 -0.1863426 0.25150704 -0.2981279
0.17710619 0.14055385 0.06017694 -0.19049978 0.05151048 0.21158664 -0.15707861 -0.22509587
-0.061488673 0.13089067 0.20273428 -0.10087935 -0.26460794 0.43824458 0.04746718 0.118020736
0.06857172 -0.1291098 0.31690383 -0.018116677 -0.31986037 -0.23486094 0.006977674 -0.10880037
-0.026654538 0.050721303 0.3688672 -0.56303656 -0.14156416 -0.006070955 0.2959902 0.033421706
-0.26612955 0.18518881 0.057431377 0.09891381 0.09616111 0.017562386 0.07381778 0.29927143
0.06216808 0.028889475 0.120962836 -0.10982217 0.066840746 0.37347558 -0.20260638 -0.102611415
-0.14436534 0.36236554 -0.011422501 -0.0095807845 -0.107118666 0.1414333 0.1287407 -0.4247939
-0.040499467 -0.34320647 0.03223853 0.009192161 -0.027266711 0.037035372 -0.3215647 0.4034213
0.06257126 -0.16263214 -0.007661551 0.0039521186 0.31267613 -0.5203448 -0.18463753 -0.19773626
0.40248507 0.08685256 0.13760254 0.09658122 -0.013595908 -0.02607508 -0.06227982 0.06874424
0.18115023 0.104371496 -0.011042962 0.027696813 -0.017142087 0.22675803 -0.064817235 0.18438472
0.14710915 -0.11466984 -0.39738712 -0.1414891 0.24840412 0.15376543 -0.14955866 -0.023715492
0.17372438 0.14696671 -0.21848305 -0.28661034 0.053197145 0.029935751 -0.27011728 -0.27261797
-0.11988746 0.0605509 0.09213885 -0.24987766 0.17681862 0.19764818 -0.23492087 0.18848729
-0.08675328 0.11076139 0.21893296 0.21640635 -0.33238778 0.047921963 0.08419179 0.14457105

bias f4 [128]
00000000: 2353 efbc f672 203b 34d0 a4bb a21b 95bb
00000010: e95e a13c 79ab a7bc 43ca c23c d40d 283d
00000020: a749 c73c 978a 25bc ffeb 523b be5f adbc
00000030: e2ee dbbc c802 9b3c 7f4e 163c 82a4 163d
00000040: eee9 9abc e2a8 833c 0047 56bc 4aa1 e9bb
00000050: 62da 1bbd 0ad7 233c 1b51 ec3c 3aba 64bd
00000060: f8bb 863c 2875 a63c 84a8 e6bc 619b b23c
00000070: 3d94 cf3c 2add 983c 81fa ce3c 7020 84bd
00000080: d821 ba3b f4ea 42ba 2ce3 3ebc 2e0b 2f3c
00000090: 7055 d6bc ca2b a73c 4c7f 88bc 5e0d 963c
000000a0: 7e6f 9aba 34f8 2f3d b08f fe3c 34c4 6a3d
000000b0: 1580 7ebc 69a1 9a3c c43e 88b9 05d7 233c
000000c0: f71c bcbb 3f36 363b a192 e2bb 9664 813b
000000d0: 0ac5 21b9 e0a9 c23a f9af 013d ee5a b73b
000000e0: 8761 5b3b 556e 6f3b 5a59 5d3b 8ada 95bc
000000f0: c00f 3bbc a88e 20bc b65c eabb ee83 103c
00000100: 2f95 213c 51ed 61bd 498a 1c3d 8cb7 783c
00000110: 4e4a 00bd ee8a 52bc ddb4 433d 3b67 5ebc
00000120: 437b 763b c258 493d 32f3 4bbb a458 1f3c
00000130: 88d0 4fbb 6590 4e3c 51fd 923c 95b1 8e3c
00000140: 5daa 01bc e02d e1bc f523 503d 04af 9b3c
00000150: 0ad7 233c ce7e 013c 031b 9b3b ee23 6c3c
00000160: 9caf 923c 6088 613d a394 913c ab33 463d
00000170: 2b9a 88bc 13a0 a03c 684c 96bc ba04 cb3c
00000180: b42d d0bc a6a6 08bd 7762 433c a5b0 1c3d
00000190: 99cd f13c 80b7 8ebc dd95 0a3d 325a f23b
000001a0: d7dc a73c d0d5 8abc 8a97 ae3b 6246 cd3b
000001b0: 285c 5aba 1601 c93c 8686 2fbc ed8c 283c
000001c0: bc5f d23c a836 fd3c 5ca4 eabb 30fd bfbc
000001d0: 939f a1bc 28ae 16bc 6d9d ef3a 9748 d33c
000001e0: 40f8 f13b b910 ec3b af76 1e3c a651 673c
000001f0: 685d f43c 730e 0b3d f198 033d cced 4f3c
-0.029214447 0.0024482585 -0.0050297026 -0.004550413 0.019698577 -0.020467507 0.023778087 0.041028813
0.024327112 -0.010103843 0.0032184122 -0.021163817 -0.026847307 0.018922225 0.009173988 0.03677798
-0.018910374 0.01607174 -0.013078451 -0.007129823 -0.038050063 0.01 0.028847268 -0.055841662
0.016447052 0.020319536 -0.028156526 0.021802606 0.02533924 0.018660147 0.025265934 -0.064514995
0.005680304 -0.00074355234 -0.011650842 0.010683818 -0.026163787 0.020406622 -0.016662262 0.01831692
-0.0011782495 0.042961314 0.031074375 0.05731602 -0.015533467 0.018875794 -0.00025986705 0.009999995
-0.0057407576 0.002780333 -0.006914452 0.0039487584 -0.00015427559 0.0014851652 0.03166196 0.0055955565
0.003347488 0.003653427 0.0033775182 -0.018292684 -0.011417329 -0.009799637 -0.0071521653 0.008820517
0.009862228 -0.055157963 0.038217817 0.01518048 -0.031320862 -0.012850506 0.047779907 -0.013574417
0.003761009 0.04915691 -0.0031120297 0.009725723 -0.0031709988 0.0126076685 0.017943056 0.017418662
-0.007914153 -0.027487695 0.05081554 0.019004352 0.01 0.007903768 0.0047334447 0.014412863
0.017906003 0.055061698 0.01777107 0.04838912 -0.016675076 0.01960758 -0.01834698 0.024782527
-0.025412418 -0.033362053 0.011925331 0.0382544 0.029516982 -0.017421484 0.033834327 0.007396006
0.020491047 -0.016947657 0.0053281235 0.006264494 -0.00083297724 0.02453665 -0.010713225 0.010287506
0.025680415 0.030909851 -0.0071607064 -0.023436159 -0.019729411 -0.0091967955 0.001828117 0.02579145
0.00738433 0.007204142 0.009671851 0.014118588 0.029829696 0.033949327 0.03212828 0.012690973

weight f4 [128, 128]
00000000: 03e9 863e b2c1 0cbe 0671 5cbe 8959 71bd
00000010: 5300 2c3e 6a99 e23d 7cc2 72be 4292 84be
00000020: 9aa0 003e c0ab 07be 02d1 59be e445 d63d
00000030: 393d de3a 85f2 54be e55c fabc 7006 2a3e
00000040: c2eb f1bd 424c 083d d1aa 333e 3042 2f3e
00000050: 6576 b8bc febe 3abe e4ce b63c c582 0abe
00000060: c09a 9d3d fc85 a1be 79ff d0bd 9211 d6bd
00000070: ee81 2cbd 42a8 2e3d 249c d8bb 9910 273d
00000080: db62 703e bc0b b13d 497b d73d fafa 41be
00000090: ed89 f1bc 24ed 54bd 0aaa 81be 36c1 52be
000000a0: 7bcb ed3d 8fb3 93be 6470 9fbd 6514 6a3e
000000b0: 8313 f7bd 2671 1abe 4b48 04be 1e50 a03d
000000c0: 08c2 78be 6241 633e e3a2 33bd 3bf8 a1bd
000000d0: 4c97 be3b c299 d7bd f346 e7bd b3b1 9dbe
000000e0: 44bd 70be 6f39 da3d d2ad 8a3d 94ac 383e
000000f0: a416 b33c 357f 5e3d af0d e83d eae4 fe3c
00000100: b77b d83d c97d 1c3e 2965 b73d 5ac4 c93d
00000110: 55a6 2f3e ed7a 80bc 0f63 8cbd 7b67 48bd
00000120: 384a 26be 67b7 b9bc 01d0 373c 0b76 b2be
00000130: 3bb6 803c 51fa a9bc 46b0 733e 9f6f a33d
00000140: eca8 8ebe 3ad5 363e 8fec 3dbe 5196 683d
00000150: f4e8 03bd b744 fa3d 7395 12be 3151 583e
00000160: 6998 f53d ea67 6b3e c8bf 28be 6393 af3e
00000170: 1a52 773e 7f82 4b3e 1a32 30be cc6f d03d
00000180: ab80 33bd 49dc 6fbd e24e 4cbd 8cc2 60be
00000190: 7b1e e63d 0845 6c3e 7ac9 cabd 5168 2bbe
000001a0: 1510 053c 6e3a 103e 6c5f ba3b 5487 ac3d
000001b0: 18d5 c7bd ed2e 3ebe 2e54 1ebc 69fd ffbb
000001c0: 79a2 5abe b3b3 4dbc 2727 55bc 2f63 7f3d
000001d0: 2719 63be 3c3d bfbc 8d06 443c bd5a 01be
000001e0: 5135 0f3e 4388 453b e803 963d f079 66be
000001f0: c0e4 e0bd 863e 373d 1b1e a6bd ee34 c33c
00000200: c4c1 48bd b3ac 013e eebc ba3d b188 41be
00000210: 4491 77bc db7e 223e bed6 64be 4c6c 6cbd
00000220: 523c e03c 6968 26be 7974 5abe 54c9 c43d
00000230: 461b 6fbd 1ae0 42be 39c4 2cbe 2cb5 1e3e
00000240: 199c 53bd 0caf 84bd 68ca 9abd b2a1 f93d
00000250: 5117 26be 0e4f 16be 9896 5fbe c4ca 10be
00000260: fccd ce3d 5f18 703d e82a acbb c1b7 51be
00000270: 12e3 71be 3409 e1bd 0ae2 983e 3b03 653d
00000280: 3714 c8be 608f 693d 8a60 58be a491 4d3e
00000290: 44bd 40be 1620 aa3d e304 48be d910 bc3d
000002a0: 34b2 a1bd aa33 ec3d 159f 3c3d 7050 90be
000002b0: 055a 90bc 97f7 8f3e 3a33 b2bd 5071 1b3c
000002c0: 5bfd 65bd 1c5c 71be 5257 203d 4402 cdbd
000002d0: daa4 673e 0872 30bd 3f0a 3ebe db06 25bc
000002e0: ec17 3cbc b945 6dbd f2d0 6fbe d648 d2bc
000002f0: d6ad 24bd 245c 1fbe a5b1 6dbd 1993 0c3d
00000300: 1694 bcbd 53d1 f0be 34d3 b93c 7300 f43d
00000310: 16df 66bd 9984 863e 1f72 43be bfe4 0abe
00000320: 8f1b 3d3e 874a 17be 9676 81be 4d54 5b3e
00000330: feaa f5bd babd babe f069 13be 53db 473b
00000340: b64e 9fbd 7c9a 95bd acc0 f83d 21a9 13be
00000350: 46ea fa3d 1243 313e aabb 9fbd e9cd fe3d
00000360: 30af abbe 29ab 87bd 44bc f13d e98a ab3d
00000370: 4a7f 4fbe 4b43 c9be 5606 073e fab4 353e
00000380: 48f1 a03e a9cc c13c 4865 92bd 8426 4ebe
00000390: 1faa 133d f2f1 c53d 35a0 873d 3a94 5fbd
000003a0: 10d5 cdbd 635e ee3d f7ec 073e d485 133e
000003b0: a3f3 eebc 3cab 21be 986e 1fba ef2c 9bbe
000003c0: 92d4 69be 1eea 24be f365 253d 1c35 c5bd
000003d0: e670 bf3d f8cb 5d3d 6e2f 57be 6e5c 51bc
000003e0: 8be1 8bbe aa42 cd3e be3c 28bd 6311 72be
000003f0: dd6b 28be d01b 663d 4c43 0f3d ea43 42bd
0.2634965 -0.13745764 -0.2152749 -0.058923278 0.16796999 0.11064418 -0.23707002 -0.25892836
0.12561265 -0.13249111 -0.21271136 0.10462549 0.0016955502 -0.20795639 -0.030561874 0.16604018
-0.11812545 0.03327585 0.1754563 0.17115092 -0.022517392 -0.1823692 0.02231545 -0.13526447
0.07695532 -0.31547534 -0.102049775 -0.1045257 -0.042116098 0.042640932 -0.0066104103 0.040787313
0.2347521 0.08644816 0.10521562 -0.18943396 -0.029484713 -0.051983967 -0.25325042 -0.20581517
0.116110764 -0.2884793 -0.07785109 0.22859342 -0.120642684 -0.15082225 -0.12918203 0.07827781
-0.24292767 0.2219291 -0.043856513 -0.07908674 0.005816376 -0.10527374 -0.11292829 -0.30799636
-0.23509699 0.10655486 0.06771435 0.18034583 0.021861382 0.054320533 0.11330735 0.031115014
0.10570472 0.15282358 0.08954842 0.09851904 0.17153294 -0.015683616 -0.068548314 -0.04892681
-0.1623925 -0.02267046 0.011219026 -0.34855685 0.015711894 -0.020749243 0.23797712 0.079802744
-0.27863252 0.17854777 -0.18547271 0.056783978 -0.032204583 0.122201376 -0.14314823 0.21124722
0.119919606 0.22988859 -0.16479409 0.34292135 0.24152413 0.19873999 -0.17206612 0.101775736
-0.04382388 -0.05855969 -0.049879916 -0.21949214 0.112362824 0.23073208 -0.0990171 -0.16739012
0.00812151 0.14084789 0.0056876447 0.08424249 -0.09757441 -0.18572588 -0.009663625 -0.0078121913
-0.21351041 -0.012555051 -0.013009823 0.06235045 -0.22177564 -0.023344629 0.011964452 -0.1263227
0.13985182 0.0030141033 0.07324964 -0.22507453 -0.109811306 0.04473736 -0.08111211 0.02382895
-0.049012914 0.12663536 0.09118067 -0.188998 -0.015110318 0.15868704 -0.22347543 -0.057720467
0.027372513 -0.16250767 -0.21333493 0.09608713 -0.05837562 -0.190308 -0.16871728 0.15498799
-0.05166254 -0.064787 -0.07558137 0.12189044 -0.16219832 -0.14678594 -0.2183479 -0.14139849
0.10097882 0.058616992 -0.0052541383 -0.20480253 -0.23621777 -0.109880835 0.29859954 0.055911284
-0.39077923 0.0570215 -0.21130577 0.20075089 -0.18822199 0.08306901 -0.19533114 0.09182901
-0.07895318 0.11533292 0.04605015 -0.2818637 -0.01762105 0.28118584 -0.08701177 0.009487465
-0.05614982 -0.23570293 0.039145775 -0.10010198 0.2262148 -0.0430775 -0.18558596 -0.010072435
-0.011480313 -0.05792782 -0.2341955 -0.025669497 -0.040204845 -0.15562493 -0.058030743 0.03431997
-0.09207933 -0.47034702 0.022683717 0.11914148 -0.056365095 0.2627304 -0.19086502 -0.13563822
0.18467544 -0.14774524 -0.25285786 0.21418877 -0.11995505 -0.36472875 -0.1439588 0.0030495718
-0.07778685 -0.07304856 0.12146124 -0.14419986 0.12251715 0.17310742 -0.07799466 0.12441618
-0.33532095 -0.06624443 0.11803487 0.083761044 -0.202634 -0.39309153 0.1318601 0.17744818
0.31434083 0.02365716 -0.07148224 -0.2013188 0.036050912 0.09665288 0.06622354 -0.05458472
-0.10050404 0.116390966 0.13273989 0.1440652 -0.02916891 -0.15787977 -0.00060818484 -0.3030772
-0.22834995 -0.16104934 0.04038043 -0.096292704 0.093477055 0.054149598 -0.21014187 -0.012778385
-0.27320513 0.40089923 -0.041073553 -0.23639445 -0.16447397 0.056178868 0.03497629 -0.04742805

bias f4 [128]
00000000: c4f1 e6bc 2d29 583d 4725 2bbd 01f5 afbc
00000010: fa4f 273c 7c39 cbbc c708 00bc f076 973c
00000020: 0d15 f23b be22 823d 3952 03bc 291d 193c
00000030: 3ecb 623c 1f7e 64bd bae7 bbbd 15d0 e13b
00000040: c38a e6bc 9c33 e33c b71b 6fbc 6bc7 3ebd
00000050: fa49 85bc f373 43bc c287 073d 8362 863d
00000060: fe0b a13c 364b b53c ece7 0cbd fb60 c0bc
00000070: b77f 1dbc 9f17 69bd df71 f1bc ae7d d1bc
00000080: b61e 923c 8625 643d e8c4 82bd 9635 f9bc
00000090: 0616 073c e772 283d 795b 03bd fb51 223d
000000a0: 1017 f6bb 8f75 57bd 54c1 4abb 6854 243c
000000b0: 19f7 8f3c c5e0 2abd c968 1c3b 78ea 063d
000000c0: bec5 413d e335 72bd 2a07 96bb 7fab 493d
000000d0: 9243 6dbd fd4e 3c3c 9735 283b 4578 32bc
000000e0: f211 003d 1da5 e3bb 49e7 fe3c 9849 343d
000000f0: 819d 8bbc a90a c7bb db28 febc 1a1e b9bc
00000100: 2cb1 e93c 053a 07bd 55b3 623d 74da cebb
00000110: ca27 d5bc 5fe4 c03b 2b3a cfbc 93f1 07bc
00000120: 46ba 2ebd 362c 983b 6980 0c3d 2e23 cf3c
00000130: 6167 8ab9 da44 e8bc c696 173b 0f8e 983c
00000140: 7533 7ebd ea0e 163c a871 ce3b 2173 65bc
00000150: 10f5 4b3b 742f 433c 7a19 e2bc 57ef 22bb
00000160: f152 6fbd 25dd 383d e2e7 8c3c 873e 573c
00000170: f6d7 69bc 18a8 86bc 6e51 cfbc 381b 40bc
00000180: 1b47 77bc 2a5c 08bc aaed e8bc d04d 23bd
00000190: 130b 4f3d af0d febc 9d45 88bc a2bc d1bc
000001a0: ea27 81bc 9f97 62bc 0ac3 e23c 232e 87bc
000001b0: b1e8 afbb 8cb3 083e 9c37 b03c 9034 02ba
000001c0: 7b0c 003c 8d8f f93c d11e 4ebd 168b 39bd
000001d0: 3a65 3d3d 123c 80bc 341c 56bd 15ee 2e3d
000001e0: 5c43 dabc 04a7 403d 325b 213c 4817 e23c
000001f0: 2db4 243d e75a 363c abcc 47bb 597f 88bc
-0.028191455 0.052773643 -0.041783597 -0.021479132 0.010211939 -0.024807684 -0.007814593 0.018489331
0.0073877634 0.06354283 -0.008015209 0.009345331 0.013842402 -0.05578434 -0.09175058 0.0068912604
-0.028142339 0.02773457 -0.01459401 -0.0465769 -0.016270626 -0.0119295 0.033088453 0.06561758
0.019659039 0.02213059 -0.034400865 -0.023483744 -0.009612969 -0.056907292 -0.029473243 -0.025572624
0.01783691 0.055699848 -0.06385213 -0.03042106 0.008244997 0.041125204 -0.032069657 0.039628964
-0.0075100735 -0.052602347 -0.0030937986 0.01002989 0.01757388 -0.041718263 0.0023866168 0.03293845
0.047307722 -0.05913342 -0.0045784907 0.049235817 -0.05792577 0.011493442 0.0025666708 -0.010892932
0.031267114 -0.0069471733 0.031116145 0.044015497 -0.017042877 -0.006074269 -0.03102534 -0.022597361
0.028526865 -0.033014316 0.055346806 -0.0063126627 -0.02601995 0.005886599 -0.025296291 -0.008297342
-0.042658113 0.004643942 0.03430215 0.02528533 -0.00026398434 -0.028353143 0.002313064 0.018622426
-0.062060792 0.009158829 0.00630017 -0.0140045 0.003112141 0.011913169 -0.027600039 -0.0024861896
-0.05842871 0.045132775 0.017200414 0.013137466 -0.0142726805 -0.016437575 -0.025307383 -0.011725239
-0.015092636 -0.008322755 -0.02843364 -0.03986913 0.05054767 -0.031012384 -0.016634757 -0.025602642
-0.015766103 -0.013830095 0.027680892 -0.016501492 -0.005368315 0.13349742 0.021510892 -0.0004966939
0.007815476 0.030463958 -0.050322358 -0.04529866 0.046239115 -0.015653644 -0.05227299 0.04270752
-0.026643448 0.04703428 0.009848403 0.027598992 0.04021089 0.011130071 -0.0030486982 -0.016662287

weight f4 [12, 128]
00000000: 93bf 943b d811 63be c521 303d fbaf 26be
00000010: 378e 8abe b6cd 02bd befd 8e3d 373c c4bd
00000020: 51c7 3ebe 0b34 89be ffa2 82be a058 0b3d
00000030: 4b49 8f3d 95fd 2dbe d9f7 aebe 2a33 8ebe
00000040: f056 3d3c 99c8 98bd e9f7 91bd 9329 803b
00000050: efa9 c2bd ed5d 0bbf e7eb a7be 2340 64be
00000060: 6459 53be 511a 56be 34ea f13b 8ac2 2abd
00000070: 7cb1 70bb 4206 e3bd 8991 94bd 5ca6 853a
00000080: 5f15 e3be 5796 4cbe b397 18bd 231d d53c
00000090: 2dca 7bbe 4135 64be d202 6bbe 4eed 38be
000000a0: 079e 85bd 00d0 1ebd 9970 56bd e4d1 d3bd
000000b0: 2842 f0bd 26df babe a0d6 6b3c 5a13 70be
000000c0: 0693 abbd e0ee 2cbe 73b0 04be 5c12 ce3d
000000d0: 4bcd 68be 5f41 70be 4bab 85be 204e f7be
000000e0: d001 c8be 53b8 463e 5d69 d6bd 7712 153e
000000f0: 6fb2 7cbe cb51 2bbd 0a82 5a3c f5e4 98bd
00000100: 2595 7ebe 9585 46be dc99 573d 50b2 07be
00000110: fe14 2abe 7f16 ed3c df13 debc 81f6 08be
00000120: 79d5 18be ea64 bf38 2b79 2dbe ee92 513e
00000130: cb66 10bd e6b7 cb3e 738f b1bd 80bd 16be
00000140: 064d cfbd 6939 c5be e68b b6be 7590 bcbc
00000150: d6f9 f1be b9c0 2ebe 3571 80bd b79b 81be
00000160: 9f93 78be 3596 d4be 10f3 82bd 1798 203d
00000170: 7d4c d6bd 2563 c43d f64e 23be 2652 1cbe
00000180: e4c4 cbbc 1841 93be 482c 953d 8093 89be
00000190: 74ce 9ebe 7c46 03be 367e e1bd 8d7c c5bc
000001a0: 90ca 73bd e6d9 1f3d 9e1d 43be 7488 42be
000001b0: abaf 4a3c b935 42be f6cc 953c 6bd9 493e
000001c0: ab45 c4bd f90e eebd d77d 81be 0462 ebbc
000001d0: e3f6 38be 5af4 d73d 820c ce3c b001 7ebe
000001e0: 218d 963d f08f f8bd 5ab3 6c3d 54e2 a6be
000001f0: e8d0 18be 005c 62be fddb 93bd b217 e4bd
00000200: 34c6 8ebe 9921 6abe a844 5abe 89ea 303e
00000210: 5dc2 f83d a09a 44bd af7b 6a3e afc4 87bb
00000220: 6d2f 06be 44c7 aebe ea15 6cbe 5c37 d33d
00000230: fdba 163c 0975 cabd 04a7 8fbe 7673 73be
00000240: 7eaa 8a3d c5ce 5d3c a3b0 d4bd 3b19 363c
00000250: 17f2 e4bd 18cd 96be 4a19 cebe 686a 2abe
00000260: 5dc3 1e3e 6fc9 d73d b15d 7bbc 506b afbb
00000270: c412 90bd 9ecd 20be 3aaf 9fbc f784 603c
00000280: fdd7 d2be 2dcf 17be 2244 9ebc 3ead 3cbd
00000290: fcdd 46be 37a5 1cbe d286 eebc 0bde 4dbe
000002a0: 9d6d f0bc dd50 47bd af77 47bd 7f51 14bd
000002b0: 8400 3fbd 5c1a acbd 07ad 79bd 8c21 5ebe
000002c0: 0b4d 0dbd c8e7 85be 733d 17be 1bdf 6e3d
000002d0: e635 e9bd 9829 e0be 82c6 97be 116e 03bf
000002e0: 1195 c9be 759b 5bbd 9c0c 103d f1e7 8bbc
000002f0: 9018 8bbe 31c2 8abd 1584 693b 151d adbd
00000300: 282e 49be 4d9a 24be 16ea 173e 5787 8fbd
00000310: 896b ffbd fbb6 03bd 1891 02bd f43b 9ebd
00000320: 2e81 2b3c d3a7 72bd 1945 0ebe c42d 04be
00000330: 508e ba3c fb0c 40be 7874 0cbe 0c71 34be
00000340: e887 95be f53d 873e 5740 70be aa6a b5bc
00000350: 21ee ccbe 71e6 1bbe ed05 7ebc b286 c8be
00000360: f40e 00be ee4d 02bf 1fe3 64be bf46 083d
00000370: f825 f9bc 6686 903d 6369 27be 07bc 11be
00000380: 2258 23bd 881d 83be d25c f4bc 7370 3cbe
00000390: e6a4 a3be e6ea 15be c067 05be 808a 7dbb
000003a0: ee12 ac3d 4b0d 26bd 07a2 51be a2fd 1cbe
000003b0: d773 23bd 4b84 39be 70a8 79bc 25d3 8abe
000003c0: 05de edbd e8db 1abe cfcf 4bbe 6f1e 2dbd
000003d0: 00b0 0fbe d590 973c c82f 543d 4b42 a0be
000003e0: 1e67 21be cc56 9cbd 19d4 2b3d b192 ffbe
000003f0: 9d65 713e 9899 acbe 5faa 90bd 097b 8bbc
0.004539439 -0.22174776 0.043000955 -0.16278069 -0.27061626 -0.031934462 0.06981991 -0.095817976
-0.1863072 -0.26797518 -0.2551498 0.034020066 0.069964014 -0.16991265 -0.34173468 -0.2777341
0.011556372 -0.07460136 -0.07127363 0.003911206 -0.095050685 -0.54440194 -0.32797167 -0.22290091
-0.20639569 -0.20908476 0.0073826555 -0.041689433 -0.0036726883 -0.11085178 -0.07254321 0.0010196674
-0.44352242 -0.19979225 -0.037254047 0.02601487 -0.24588843 -0.2228594 -0.22950295 -0.18059275
-0.06524282 -0.038772583 -0.052353475 -0.10342768 -0.11731368 -0.36498374 0.014394432 -0.23444882
-0.08377652 -0.16887999 -0.12957935 0.100620955 -0.22734563 -0.23462437 -0.2610725 -0.48301792
-0.39063883 0.19406252 -0.10469315 0.14557825 -0.24677442 -0.04182605 0.013336668 -0.07465545
-0.24861582 -0.19386895 0.052636966 -0.13251615 -0.1660957 0.028941391 -0.027109085 -0.13375284
-0.14925183 9.1263864e-05 -0.16940753 0.20466205 -0.03525428 0.3978874 -0.08669939 -0.14720726
-0.10122113 -0.38520363 -0.3565361 -0.023018101 -0.47260922 -0.17065705 -0.062715925 -0.25314113
-0.24275063 -0.4152085 -0.06394017 0.039207544 -0.10463808 0.09589223 -0.1594809 -0.15265712
-0.024874158 -0.287606 0.072838366 -0.26870346 -0.31016886 -0.12819856 -0.11010401 -0.024107242
-0.05951935 0.039026164 -0.19054267 -0.18997365 0.012370984 -0.18965806 0.01828621 0.19711845
-0.095836006 -0.116239496 -0.2529132 -0.02873326 -0.1806293 0.10544653 0.025152449 -0.24805331
0.07351137 -0.12136829 0.05778823 -0.3259455 -0.14923441 -0.22105408 -0.07219694 -0.11137332
-0.27885592 -0.22864379 -0.21315253 0.17276968 0.12146447 -0.047999024 0.22898744 -0.0041433196
-0.13104029 -0.34136403 -0.23055235 0.10313293 0.009199855 -0.09885604 -0.2805711 -0.23774514
0.067708 0.013538067 -0.10385253 0.011114414 -0.111789875 -0.2945335 -0.4025367 -0.16642153
0.15504213 0.10536467 -0.015342162 -0.005353369 -0.07034829 -0.15703437 -0.019492734 0.013703576
-0.4118041 -0.14825125 -0.019319598 -0.046063654 -0.19420618 -0.152974 -0.029117022 -0.20104234
-0.029349143 -0.0486611 -0.048698124 -0.036210533 -0.04663135 -0.08403465 -0.060956027 -0.21692485
-0.034497302 -0.26153398 -0.14769535 0.05831824 -0.113872334 -0.43781734 -0.29643637 -0.51339823
-0.3937154 -0.053615052 0.035168275 -0.017078372 -0.27167177 -0.0677532 0.0035631706 -0.084528126
-0.19646513 -0.16074486 0.1483539 -0.07008236 -0.124716826 -0.032156926 -0.031876653 -0.07726279
0.010467811 -0.05924208 -0.13893546 -0.12908083 0.022772938 -0.18754952 -0.13716304 -0.17621249
-0.2920525 0.26414457 -0.23462044 -0.022145588 -0.40025428 -0.15224625 -0.0155043425 -0.39165264
-0.12505704 -0.5090016 -0.22352265 0.033270594 -0.030413613 0.070568845 -0.16348796 -0.14231883
-0.039878972 -0.25608468 -0.029829416 -0.18402271 -0.31961745 -0.14640388 -0.13027859 -0.0038687289
0.08402048 -0.04054002 -0.20471965 -0.15331128 -0.039905395 -0.18116872 -0.015237913 -0.27114215
-0.116146125 -0.1512295 -0.19903491 -0.04226535 -0.14031982 0.018501678 0.05180338 -0.31300578
-0.15761992 -0.07633743 0.04195032 -0.49916604 0.23573919 -0.33710933 -0.07063746 -0.017026441

bias f4 [12]
00000000: 2f93 403d 957d 133d 22be 3abd b3b6 fdbc
00000010: 41aa 03bd 51aa 9e3c a276 9e3b 1122 09bd
00000020: 304b eebc 0bf6 823d 376a 703d e110 123d
0.047015365 0.036008436 -0.04559148 -0.030970907 -0.03214479 0.019368323 0.0048359195 -0.033479754
-0.029088587 0.06394585 0.058695044 0.03566063

exp_avg f4 [128, 54]
00000000: e545 75c3 7d6a 1dc3 4a2f 00c3 0277 2fc2
00000010: 0000 0000 766d bd41 8204 0dc3 3744 3f42
00000020: c265 b7c2 5841 b8c1 46fa 19c3 8a7c f3c2
00000030: 10eb 0d43 c82d cac1 8507 35c3 305e 7cc1
00000040: a4a9 4a42 2a63 41c3 fef8 38c3 9d77 4dc3
00000050: 5c61 5d42 71c9 7742 c82d 4ac2 6d66 88c2
00000060: d09c e6c1 e0c4 4fc3 92e9 63c2 505e 07c3
00000070: dae5 19c3 08fa 2d43 3715 4ac3 5aa2 97c2
00000080: 3994 7b42 1cc1 efc2 c129 84c2 4a9a bbc1
00000090: 056f 33c3 4c58 3242 2c8c d442 284a 0b42
000000a0: c82d cac2 905b dec1 0a0c 83c2 fccc 8fc2
000000b0: b240 cdc2 56f6 63c2 f452 ddc2 980e 7fc2
000000c0: ba60 5fc2 34b9 fcc2 8fe0 29c3 79e7 a742
000000d0: 7c9b d9c2 6221 2842 ca0b 28c4 4b2e d5c3
000000e0: 6c98 02c4 8bd9 f6c3 0000 0000 db04 cec2
000000f0: 2ee2 01c4 5064 c4c1 c5e0 49c3 52b8 a2c3
00000100: cf99 92c3 3a68 96c3 4d7c fec3 eb3c 20c3
00000110: c8bf 1dc4 5fd4 1ac4 8056 9ec3 58d8 05c4
00000120: 9d0f 2ec3 e74f d0c3 d7ad bfc3 faad 83c3
00000130: eb3c a0c3 de50 ecc3 ebda a8c3 ccee b4c3
00000140: 2881 7ec3 7eac 0fc4 6ec6 27c3 98ac cac3
00000150: 894b 0ac4 5e5b f0c3 5fbc 07c4 72f3 1ec4
00000160: 99a9 a5c3 9d6f 9cc3 6b6d 02c4 1c3e bec3
00000170: 1427 94c3 f663 02c4 eb3c 20c4 e885 95c3
00000180: 84b0 9ac2 32b0 fbc2 6c5e aec3 f385 a0c3
00000190: 81db 1ac4 9470 bec3 a81e 30c4 254c 48c4
000001a0: 5cdf 92c3 398a fdc3 0ea1 3ec4 d8f1 c0c3
000001b0: 6f39 9fc2 a8aa 9ec2 1cb0 f2c1 62e5 8ec2
000001c0: 0000 0000 0026 983f 3858 f740 5822 8140
000001d0: 900b 0bc2 9f4a 7643 05a7 2043 d2b2 1e43
000001e0: 4534 0742 c4e1 0d42 8a65 4543 f7d4 25c3
000001f0: 7683 8c42 38cf 7143 e7e6 a942 d02f a442
00000200: 3494 6342 a6ff 8142 c4e1 8d42 91b1 90c1
00000210: 02f0 9442 d824 66c1 75ee 9942 f6d3 f442
00000220: bc76 f6c2 d0b9 b642 12b7 9443 a6d2 d442
00000230: a3b1 3542 a985 8d43 3e30 5943 5e06 7ac2
00000240: 160f f342 7816 b341 cd63 a742 c838 ab43
00000250: c4e1 0d43 5661 3d43 2473 b543 133e 2443
00000260: dc3e d841 65f2 4243 ed79 2f43 6e6e ad43
00000270: 2248 0e43 365a 3143 18da 9e43 812d ebc1
00000280: ca55 bbc2 36af 4bc2 e271 d9c3 2fe0 85c3
00000290: 3ea7 a1c3 a334 7ac3 0000 0000 5747 75c3
000002a0: 2f99 53c3 2531 c542 27f9 73c3 e21c 7fc3
000002b0: 1c2a 81c2 0859 0dc3 8e13 91c3 0302 8cc2
000002c0: a54a f1c2 d4ba a7c3 4096 6e3f ebef 80c2
000002d0: a573 74c3 1492 3ac2 2b0b f9c2 5d2f c7c2
000002e0: 0302 0cc3 e826 b342 68a7 2bc3 e58e 84c3
000002f0: 642b bbc3 f569 05c4 0c4a 6ac3 b8f8 45c3
00000300: 58b2 c5c3 0503 52c3 2bd8 22c3 f89e 1fc3
00000310: 1fa6 c4c3 0a37 a4c3 fcdf 7942 48c8 0ec2
00000320: ffca 7cc3 2428 72c3 0302 8cc3 40e7 c6c3
00000330: 1c8b 77c2 9ad6 9cc2 ace8 7a43 80b0 b4c0
00000340: 0690 dac3 9645 1743 c804 fac1 8302 afc3
00000350: 4e30 3dc3 fa5e b5c2 16e7 0dc3 6225 dac2
00000360: 7ea8 27c1 cc45 5d41 fa11 0ec3 9a9e bfc2
00000370: 0000 0000 eac5 5242 a6e3 cc42 4b14 d340
00000380: 405e 1640 9482 3842 a652 95c3 5e5e 90c2
00000390: a893 66c2 961a f2c1 50e6 ab41 23e6 2d43
000003a0: 35b6 4bc2 204a d741 87e1 15c3 b836 b8c2
000003b0: 13e5 41c3 86d1 9bc3 961a 72c2 f705 0243
000003c0: 74d5 fcc2 c8a0 96c3 1c07 64c2 601f 5241
000003d0: 2cd0 1cc2 6054 c840 e2a1 30c3 de93 b5c2
000003e0: 08fe 0042 57cc 68c3 5674 6ac3 d9b6 9342
000003f0: 8822 8442 d05f 97c1 6f0a 31c3 6031 31c1
-245.27303 -157.41597 -128.18472 -43.86622 0.0 23.678448 -141.01761 47.816616
-91.698746 -23.031906 -153.97763 -121.74324 141.91821 -25.272354 -181.02937 -15.772995
50.665665 -193.38736 -184.97263 -205.46724 55.345078 61.94672 -50.54471 -68.20005
-28.826569 -207.76904 -56.978096 -135.36841 -153.89786 173.97668 -202.08287 -75.81709
62.89475 -119.87717 -66.08155 -23.450336 -179.43367 44.586227 106.27377 34.82242
-101.08942 -27.794708 -65.52351 -71.90036 -102.62636 -56.990562 -110.66202 -63.76425
-55.84446 -126.361725 -169.87718 83.952095 -108.80368 42.0326 -672.1842 -426.36166
-522.3816 -493.69955 0.0 -103.00948 -519.53406 -24.54898 -201.878 -325.44
-293.20163 -300.81427 -508.9711 -160.23796 -630.9966 -619.3183 -316.67578 -535.3804
-174.06099 -416.62424 -383.35812 -263.3592 -320.47592 -472.63177 -337.7103 -361.8656
-254.50452 -574.6952 -167.77512 -405.3484 -553.18024 -480.7138 -542.9433 -635.80383
-331.32498 -312.87198 -521.70966 -380.48523 -296.3053 -521.5619 -640.95184 -299.04614
-77.34476 -125.84413 -348.73767 -321.04648 -619.42975 -380.87952 -704.479 -801.18976
-293.745 -507.07986 -762.5165 -385.8894 -79.612175 -79.33331 -30.33599 -71.44801
0.0 1.1886597 7.729519 4.0354424 -34.76129 246.29149 160.65242 158.69852
33.801044 35.470474 197.39664 -165.8319 70.25676 241.80945 84.95098 82.09338
56.89473 64.99931 70.94095 -18.086702 74.468765 -14.383995 76.96574 122.41399
-123.2319 91.362915 297.43024 106.41142 45.423473 283.04422 217.18845 -62.506218
121.529465 22.385971 83.69492 342.4436 141.8819 189.38022 362.89954 164.24248
27.030693 194.94685 175.47627 346.86273 142.28177 177.35239 317.70386 -29.397219
-93.66756 -50.921104 -434.8897 -267.75143 -323.30658 -250.20561 0.0 -245.27867
-211.59837 98.595985 -243.97325 -255.11282 -64.582245 -141.34778 -290.15277 -70.00393
-120.64579 -335.4596 0.93198013 -64.46859 -244.45174 -46.642654 -124.52181 -99.59251
-140.00786 89.57599 -171.65393 -265.11636 -374.339 -533.6556 -234.28925 -197.97156
-395.3933 -210.0118 -162.8444 -159.62097 -393.29782 -328.43 62.468735 -35.695587
-252.79295 -242.1568 -280.01572 -397.80664 -61.88585 -78.41914 250.90887 -5.6465454
-437.12518 151.27182 -31.252335 -350.01962 -189.18869 -90.6855 -141.90268 -109.07301
-10.478636 13.82954 -142.07022 -95.80977 0.0 52.693275 102.444626 6.596227
2.3495026 46.127518 -298.6457 -72.18431 -57.644196 -30.262981 21.487457 173.89897
-50.927937 26.911194 -149.88097 -92.10687 -193.89482 -311.6369 -60.525963 130.0233
-126.4169 -301.2561 -57.006943 13.13266 -39.203293 6.2602997 -176.63235 -90.7888
32.248077 -232.7982 -234.45444 73.857124 66.067444 -18.921783 -177.04076 -11.074554

exp_avg_sq f4 [128, 54]
00000000: 8bfc f748 9df1 a048 0c58 c748 746a 0349
00000010: 0000 0000 5d42 bc48 eaf5 e548 2bdc 9b48
00000020: 865d e748 c4f2 0149 7567 c448 ddb6 2d49
00000030: 2e0e c948 ef5b 6547 4614 ec48 b864 ef48
00000040: bbd1 bc48 9251 ea48 1574 b848 7271 8348
00000050: 87d6 af48 ba25 eb48 ef5b 6548 5638 b348
00000060: 19b1 f748 8606 9c48 2a2e dd48 a9f5 1b49
00000070: a237 d248 c35d 1049 0315 2649 ae03 0149
00000080: fa30 0249 70b9 fc48 dfbd f048 620f cf48
00000090: 04b2 0849 d770 1b49 8ab5 f948 8aed 1b49
000000a0: ef5b 6549 794a 2949 cda8 ef48 140d 1b49
000000b0: faf3 1a49 e985 3449 79a4 6d49 84f5 2e49
000000c0: 67fd 3649 bf2f b349 ecb7 5049 e68b 2149
000000d0: 2864 6549 6c71 2749 1a08 9549 b363 7249
000000e0: e11e b149 eb49 a949 0000 0000 b5ef 8949
000000f0: ce6d d249 0f26 8249 e107 ae49 6ec0 b649
00000100: 2d84 3a49 21a5 9949 1127 9c49 b4c4 0d48
00000110: e0dd 7b49 e9cb a349 52b8 7749 053f 8c49
00000120: 5dd9 a449 1b7c 6a49 ed34 8149 3c02 c749
00000130: b4c4 0d49 aee6 a349 14db be49 589f 7b49
00000140: 07c5 a149 2cfd ba49 cc37 8b49 3d41 af49
00000150: ee70 cd49 447d 9f49 d654 d649 92a6 aa49
00000160: 2b24 8d49 9c56 9449 828a aa49 82e5 b549
00000170: c7f7 9c49 3e8e d449 b4c4 0d4a d10a ba49
00000180: cfdd b149 c955 b249 6df5 8d49 2356 8849
00000190: 9d64 c549 8f5c 8a49 ab4e dd49 5183 5d4a
000001a0: 7d71 9949 4f06 b249 1abb f049 f4b1 9b49
000001b0: 487f 8649 6f1c 2249 4fd8 4949 6c0c 8b49
000001c0: 0000 0000 4a19 4949 a0fa 9449 f773 c948
000001d0: 4ca2 7249 caf5 7049 047d 2649 6c8a 8049
000001e0: fb67 6849 f1e5 e847 5b72 9249 5744 5149
000001f0: 470f 1a49 a062 9b49 12ef 7449 bfe2 7a49
00000200: ca80 b049 f370 3f49 f1e5 e848 05f9 a549
00000210: c0c2 4f49 8365 6849 fc4b 9949 5e83 6e49
00000220: 84ed 8649 d45c 8c49 e7a8 a049 5601 8349
00000230: 94e8 8549 3eec a349 a6dd 5b49 87c2 5c49
00000240: c941 6049 b81e 9849 0581 9649 7961 7849
00000250: f1e5 e849 152a c549 6a0c 8649 4f56 a449
00000260: 9fd3 a249 ab7b 8f49 9024 f649 480e ad49
00000270: 0836 8749 97f3 354a 89fb d049 122d 4249
00000280: 60fb 9649 e375 9849 3a4b 3d4a 781a 8d49
00000290: 3621 174a c755 244a 0000 0000 6914 184a
000002a0: d867 0c4a 0569 c949 1816 284a db5c 264a
000002b0: 17a0 d549 8426 124a 06f1 154a dc34 8d48
000002c0: 50fb 164a fcd9 054a 88a8 d649 04b9 174a
000002d0: 48d0 244a fdc1 054a 00cd 254a 870a 234a
000002e0: dc34 8d49 3008 534a 82e7 244a 1d5c f749
000002f0: 5d17 254a 9d29 344a 0058 194a f64c d849
00000300: 08bb 184a 72db 1e4a e696 1b4a c97a 214a
00000310: 14ec 244a 4823 384a f6c8 f849 4d5d 534a
00000320: 34d5 254a 5657 0d4a dc34 8d4a 9a13 304a
00000330: 4aec 304a c0a8 204a 5739 114a 57b9 144a
00000340: d1b8 854a 87d0 384a 5855 324a 87a2 dc4a
00000350: 1ab9 4b4a 204d 264a c160 614a e5ff 244a
00000360: 9ab2 9249 07ae 4949 ea78 9949 2f8d 6f49
00000370: 0000 0000 c4b1 9549 ebf4 8949 1783 4249
00000380: 3e45 9a49 ecc5 7c49 39cc 1f49 a1b7 8849
00000390: a9ee 8249 d417 0048 d555 8449 b913 8a49
000003a0: 2ca7 5449 957b 8d49 a3f9 9249 e0f4 5e49
000003b0: d076 9449 62e4 9949 d417 0049 554b 8549
000003c0: 6e4a 9049 53e7 7a49 443a 8649 d962 9149
000003d0: c49a 7349 bca4 8649 10ff b349 e01a 9049
000003e0: 084e 9e49 75f5 a749 ea79 8149 c740 9549
000003f0: 9ce8 8e49 6288 ae49 c31c 9249 fb50 a349
507876.34 329612.9 408256.38 538279.25 0.0 385554.9 470959.3 319201.34
473836.2 532268.25 402235.66 711533.8 411761.44 58715.934 483490.2 490277.75
386701.84 479884.56 377760.66 269195.56 360116.22 481581.8 234863.73 367042.7
507272.78 319540.2 452977.3 638810.56 430525.06 591324.2 680272.2 528442.9
533263.6 517579.5 493038.97 424059.06 559904.25 636685.44 511404.3 638680.6
939454.94 693415.56 490822.4 635089.25 634687.6 739422.56 973383.56 716632.25
749526.44 1.4678959e+06 854910.75 661694.4 939586.5 685846.75 1.2208672e+06 992827.2
1.4509721e+06 1.3868134e+06 0.0 1.1299746e+06 1.7238338e+06 1.0661779e+06 1.4256601e+06 1.4971018e+06
763970.8 1.2586601e+06 1.2792021e+06 145170.81 1.031646e+06 1.3418211e+06 1.0146611e+06 1.1488966e+06
1.3504436e+06 960449.7 1.0584616e+06 1.6302795e+06 580683.25 1.3426778e+06 1.5634905e+06 1.0306455e+06
1.3252169e+06 1.5318135e+06 1.1404735e+06 1.4356876e+06 1.6829738e+06 1.3065365e+06 1.7558028e+06 1.3979702e+06
1.1562294e+06 1.2151875e+06 1.3970722e+06 1.4900962e+06 1.2858809e+06 1.7412558e+06 2.322733e+06 1.5240581e+06
1.4570819e+06 1.4609211e+06 1.1629256e+06 1.1168684e+06 1.6170436e+06 1.1334579e+06 1.8129494e+06 3.6292682e+06
1.2570076e+06 1.4583779e+06 1.9720672e+06 1.2754545e+06 1.101801e+06 664006.94 826756.94 1.1390855e+06
0.0 823700.6 1.220436e+06 412575.72 993828.75 986972.6 681936.25 1.0530055e+06
951935.7 119243.88 1.1996914e+06 857157.44 631028.44 1.272916e+06 1.0032491e+06 1.02762794e+06
1.4459132e+06 784143.2 476975.53 1.3596486e+06 850988.0 951896.2 1.2558075e+06 976949.9
1.1053285e+06 1.1498505e+06 1.3161249e+06 1.0731948e+06 1.0969785e+06 1.3428558e+06 900570.4 904232.44
918556.56 1.246167e+06 1.2329286e+06 1.01736756e+06 1.9079021e+06 1.6151706e+06 1.0981252e+06 1.3462499e+06
1.3338759e+06 1.1754134e+06 2.016402e+06 1.417673e+06 1.107649e+06 2.9810938e+06 1.7119851e+06 795345.1
1.236844e+06 1.2489564e+06 3.1013905e+06 1.155919e+06 2.4761095e+06 2.6924658e+06 0.0 2.4916742e+06
2.300406e+06 1.6499526e+06 2.753926e+06 2.7256868e+06 1.7500189e+06 2.394529e+06 2.4566415e+06 289190.88
2.473684e+06 2.193023e+06 1.758481e+06 2.485825e+06 2.700306e+06 2.1914872e+06 2.71648e+06 2.6712658e+06
1.1567635e+06 3.457548e+06 2.7017925e+06 2.0263716e+06 2.7048552e+06 2.9517832e+06 2.512384e+06 1.7719348e+06
2.502338e+06 2.6027165e+06 2.5491775e+06 2.6456822e+06 2.702085e+06 3.016914e+06 2.0380468e+06 3.4629952e+06
2.717005e+06 2.3157335e+06 4.627054e+06 2.8848385e+06 2.8987065e+06 2.63224e+06 2.3793498e+06 2.4366938e+06
4.3818005e+06 3.0280018e+06 2.921814e+06 7.2297635e+06 3.3377985e+06 2.72468e+06 3.6925922e+06 2.7033532e+06
1.2017472e+06 826080.44 1.2572452e+06 981202.94 0.0 1.2262965e+06 1.1301414e+06 796721.44
1.2637838e+06 1.03535875e+06 654531.56 1.1199881e+06 1.0725971e+06 131167.31 1.0840906e+06 1.1311271e+06
871026.75 1.1590266e+06 1.2040204e+06 913230.0 1.216218e+06 1.2606842e+06 524669.25 1.0919466e+06
1.1820298e+06 1.0277012e+06 1.0995925e+06 1.1910031e+06 997804.25 1.1029995e+06 1.47453e+06 1.180508e+06
1.296833e+06 1.3759186e+06 1.0606692e+06 1.2226809e+06 1.1707075e+06 1.4297722e+06 1.1969524e+06 1.3378874e+06

exp_avg f4 [128]
00000000: c82d cac1 eb3c 20c3 c4e1 0d42 0302 8cc2
00000010: 961a f2c1 3ae4 2642 d1c9 9c42 5799 bc41
00000020: b6ad dfc1 0400 0000 e542 35c2 2c92 24c3
00000030: 2556 afc2 1afc 2ec2 00ba c0be 0863 57c1
00000040: 6765 8fbf 2f5e c6c0 9189 4f42 0400 0000
00000050: 5836 d942 0000 0000 5048 c8c1 0400 0000
00000060: df7e 85c2 827b 8ac3 0400 0000 9adc 8342
00000070: ae82 08c3 6a9d aac1 7cca b8c1 0400 0000
00000080: 4811 db41 9e2a 6e41 5c45 c5c1 794e e942
00000090: 8e23 f7c2 f085 92c1 f218 d7c2 1af7 34c3
000000a0: 0be6 8142 115b 7542 1ab3 adc1 b04f 1e40
000000b0: 20d0 b142 c4cd 3f42 6a00 61c2 0400 0000
000000c0: 728b 5e43 4303 0dc3 7cbd 3242 fc15 e7c0
000000d0: 2dc7 38c2 a7f6 c842 d48e aec1 1900 e9c2
000000e0: f8ca 8b40 f336 6a42 c26d 9ec0 0c04 b3c1
000000f0: 28a2 45c0 6968 9642 b4bc 29c1 0cdb e342
00000100: dbf3 18c1 6a4f 1743 f2fb fac2 7876 1441
00000110: a87c d4c1 5a38 b142 0090 e342 f0f6 14bf
00000120: a371 b042 ed7d 94c3 9e33 36c3 d854 3fc3
00000130: a2b7 4dc2 763b ad42 d49f 9542 f419 30c3
00000140: 9423 9642 b4ab 4341 daee b542 521c c5c2
00000150: 0000 0000 f7ac fe41 a06b d9c1 a2fd 5c43
00000160: c19d 23c3 fcbc 6ec2 3029 9cc2 9bc7 afc1
00000170: 1661 aa41 aefc 5442 d59d 4141 3a43 18c3
00000180: ab3a 0fc3 5dd1 e8c1 6a95 6c42 6589 fcc1
00000190: a404 1ec1 1765 c742 7a26 4fc2 84af 43c3
000001a0: 621c b2c2 0c77 e042 0400 0000 e382 4442
000001b0: b482 dfc1 d1ba ba41 19b7 d842 f74d fec2
000001c0: 1acb 2542 0126 a242 3f40 3542 ac81 3242
000001d0: d67e 64c2 4f16 d8c2 1696 57c2 fc47 54c2
000001e0: 796a 1e43 ab3c 0542 56ca d442 fcf4 bfc1
000001f0: 84aa c840 d5ca bac2 68c3 55c1 ea26 e842
-25.272354 -160.23796 35.470474 -70.00393 -30.262981 41.722878 78.39417 23.574873
-27.95982 6e-45 -45.315327 -164.57098 -87.66825 -43.746193 -0.37641907 -13.461678
-1.120282 -6.198997 51.884342 6e-45 108.60614 0.0 -25.035309 6e-45
-66.747795 -276.9649 6e-45 65.93086 -136.51047 -21.326862 -23.09887 6e-45
27.383438 14.885405 -24.658867 116.65327 -123.56944 -18.3154 -107.54872 -180.96524
64.9493 61.338932 -21.712452 2.4736137 88.906494 47.950943 -56.250404 6e-45
222.54471 -141.01274 44.685043 -7.2214336 -46.194508 100.48174 -21.81974 -116.50019
4.3685265 58.55366 -4.950898 -22.376976 -3.0880222 75.203926 -10.60857 113.927826
-9.559535 151.31021 -125.49208 9.278923 -26.560867 88.61006 113.78125 -0.58189297
88.22195 -296.9838 -182.20163 -191.33142 -51.42933 86.616135 74.812164 -176.10138
75.06949 12.22942 90.96651 -98.55531 0.0 31.834455 -27.177551 220.99075
-163.61623 -59.684555 -78.080444 -21.972464 21.297405 53.246758 12.101033 -152.2626
-143.22917 -29.102228 59.145912 -31.567087 -9.876133 99.69744 -51.787575 -195.68561
-89.055435 112.23251 6e-45 49.12782 -27.93882 23.341219 108.35761 -127.152275
41.44834 81.07423 45.31274 44.626633 -57.123863 -108.04357 -53.89657 -53.070297
158.41591 33.309246 106.39519 -23.994621 6.270815 -93.39616 -13.360207 116.076004

exp_avg_sq f4 [128]
00000000: ef5b 6547 b4c4 0d48 f1e5 e847 dc34 8d48
00000010: d417 0048 d9c0 e847 6846 2248 4cdd 1848
00000020: dcb1 8147 f401 0000 2710 8546 2f85 3748
00000030: e6cd e147 3eeb 0948 6244 1c48 1ca5 8347
00000040: a617 b43f be4e 8447 1a7c 3448 6d54 042e
00000050: fa87 4648 0000 0000 2f2f 1748 f401 0000
00000060: e96d 2f48 6606 2e48 f329 2d20 bfa8 d747
00000070: 8c53 1e48 b9c8 0348 45cd a547 4bf0 8025
00000080: df43 8347 1f1f a547 9bc3 d247 e37c 2248
00000090: 789e de47 4dc8 2848 8bc7 2048 937e 4e48
000000a0: eff9 f847 785e 1248 5ea9 0348 3cdc e047
000000b0: 5e2d 1648 dab7 0948 602d 0748 8e9f 0200
000000c0: 2a35 3948 3585 8a48 bde0 0748 e40b cc47
000000d0: 773a 1548 3106 4648 d023 3148 f21e ab47
000000e0: b71b 1a48 d5f2 2a48 72d3 0648 dfa9 2f48
000000f0: 1870 c847 fd30 3848 99d4 0d48 f496 ff47
00000100: beb4 8047 34e1 0948 2d0c 0e48 41c4 0f48
00000110: b5c7 2048 4b31 1248 0216 0a48 2098 2648
00000120: c2ce 1548 42f7 6348 6b6e 2048 4fc6 4648
00000130: d1a5 3448 1925 f347 7064 0548 c7b7 3d48
00000140: f3b2 1648 337b 3848 d81c 9d47 2c1c 7c48
00000150: 0000 0000 41dd 9d47 1703 0b48 f201 6e48
00000160: a450 1f48 bfa6 af47 e452 5948 26d7 3448
00000170: 9e78 e447 ca48 1d48 a124 9847 65ff 4e48
00000180: c3bb 0848 2390 1448 0537 1748 38d6 da47
00000190: a5a1 e247 723e bc47 69d0 a447 ebf9 2a48
000001a0: 67da d047 cf9d 1f48 cd32 3409 8af2 c947
000001b0: 9554 3648 3057 5148 b742 4748 53f0 4848
000001c0: 9c90 fd47 2e22 ba47 72db 2a48 d248 0248
000001d0: bdc6 6447 cf82 d647 14ba f047 164c 1547
000001e0: be8f 9747 6c5e 3c48 91dd 5d48 3ef2 1848
000001f0: b798 8048 916f e247 6ec1 c647 2fbc 0e48
58715.934 145170.81 119243.88 289190.88 131167.31 119169.695 166169.62 156533.19
66403.72 7e-43 17032.076 187924.73 115611.8 141228.97 160017.53 67402.22
1.4069717 67741.484 184816.4 3.008831e-11 203295.9 0.0 154812.73 7e-43
179639.64 178201.6 1.466755e-19 110417.49 162126.19 134946.89 84890.54 2.236729e-16
67207.74 84542.24 107911.21 166387.55 113980.94 172833.2 164638.17 211450.3
127475.87 149881.88 134821.47 115128.47 153781.47 141023.4 138421.5 2.40908e-40
189652.66 283689.66 139138.95 104471.78 152809.86 202776.77 181391.25 87613.89
157806.86 175051.33 138061.78 179879.48 102624.19 188611.95 145234.39 130861.91
65897.484 141188.81 145456.7 147217.02 164638.83 149701.17 141400.03 170592.5
153403.03 233437.03 164281.67 203545.23 184983.27 124490.195 136593.75 194271.11
154315.8 188908.8 80441.69 258160.69 0.0 80826.51 142348.36 243719.78
163138.56 89933.49 222539.56 185180.6 116977.234 161059.16 77897.26 211965.58
140015.05 152128.55 154844.08 112044.44 116035.29 96380.89 84384.82 175079.67
106932.805 163447.23 2.1690598e-33 103397.08 186706.33 214364.75 204042.86 205761.3
129825.22 95300.36 174957.78 133411.28 58566.74 109829.62 123252.16 38220.086
77599.484 192889.69 227190.27 156616.97 263365.72 115935.13 101762.86 146160.73

exp_avg f4 [128, 128]
00000000: 6dbe 4d42 5268 e241 a553 d041 43c1 36c2
00000010: 5bbe cf42 80b5 2740 0241 96c1 bacf 1942
00000020: ea95 dec1 0400 0080 fa39 f140 db97 ebc2
00000030: 90bd bc42 16ff f541 0cfd a6c2 7e61 0a42
00000040: 0400 0000 f433 6ac1 3ab9 a3c2 0400 0080
00000050: 5382 7fc3 0000 0000 4ac7 5c41 0400 0000
00000060: fc1b 54c2 2ef5 b840 0400 0000 5cd1 f1c1
00000070: 70fa 62c1 30ef 08c3 43cd 5142 0400 0080
00000080: aac0 e0c1 fc38 5bc1 9077 b642 7a5f f7c2
00000090: 3587 d442 7069 2ac1 0edb 9342 4e2c f641
000000a0: dc2a 57c1 8009 6ec1 342e 1641 54a7 8641
000000b0: f8fa e2c2 4cbd 8cc1 918a a642 0000 0000
000000c0: 3480 05c1 4073 22c2 11eb 0cc2 8731 2d42
000000d0: 5e80 6142 63bf 4142 13d2 80c2 b39a 8941
000000e0: 9357 4a42 1e53 e342 feec c6c2 6087 8ac2
000000f0: e870 f341 3827 e640 494b 9e42 7201 c8c2
00000100: c16b 5541 5a2f 92c2 1469 d3c2 584d 1642
00000110: e517 2fc2 0d54 3ec3 8496 cf41 2894 8ac0
00000120: c02b 0342 3e3e 84c1 e0dd c5bf 10d1 3dc2
00000130: 1071 d942 54eb 8241 8f31 e742 f797 cc42
00000140: a87b 9042 3218 af42 0b33 9f42 9203 ca42
00000150: 0000 0000 1026 e1bf 3f4e a4c2 e057 5f40
00000160: ed10 3143 2e8c 0142 9cd5 a042 5358 d6c2
00000170: 1172 e9c2 6478 8741 7787 9ac1 be62 9a42
00000180: ba59 1243 def0 71c2 cbcc 81c1 4b9a 44c3
00000190: ffb4 b9c1 d4c8 6a41 c527 73c1 4672 14c1
000001a0: 04c7 3742 6237 2042 0400 0080 bce6 9542
000001b0: cdc3 ca42 a06a 8142 0030 cbc0 6ab1 6541
000001c0: 932e 4ac1 d9fa cfc2 3548 1242 284a 8bc0
000001d0: 0c37 d442 368a 6742 7256 30c1 6c56 943d
000001e0: 8e9d fa40 6689 c342 54b5 18c3 b6c6 10c1
000001f0: 10c8 0bc1 0073 b3c1 5021 ccbf 3785 ff41
00000200: 1d8d cc42 0211 2642 6c58 f6be 57d8 2842
00000210: 3477 c643 653f 2843 289e 4942 6832 f741
00000220: 90b4 8ac0 0000 0000 6c85 bf41 c862 3343
00000230: 8440 0342 aa37 9042 cbc0 b441 70e4 c642
00000240: 0400 0000 ae85 6c3f 7ee9 0342 0000 0000
00000250: 39d3 4d41 0000 0000 3823 4c42 0400 0080
00000260: 141d ac41 d5d7 0941 0400 0000 ffb3 3441
00000270: 3d42 db42 f9a3 0e41 7fef 1f43 0400 0000
00000280: 8c36 66be 82aa 26c1 300d 5b43 0e04 5e43
00000290: 97bd 60c2 58e4 8c43 0440 2243 fb16 9041
000002a0: afb1 8a42 b7a3 8a43 8d22 9c40 28b7 bfc1
000002b0: a4c9 a443 e884 8f43 9cd5 af43 0000 0000
000002c0: 046b fc3f 736a 6f41 1882 8442 ad9b 6a42
000002d0: 7b0c fb41 82e9 7143 a8ae ce42 20c6 5741
000002e0: f8d1 0543 2e9a 4743 ce39 1a42 7cac df42
000002f0: 06fd 8343 0c42 9e42 cc6b af43 1326 0f42
00000300: cd6f 0640 dc09 b441 16c6 b73f 5d3a 9243
00000310: 8610 4142 e079 d242 753c 6643 68b6 a440
00000320: 8472 9143 1ac1 0c42 5842 0441 7b91 9242
00000330: 68ad 6b43 c409 8341 25b0 8543 f633 c743
00000340: 26ba ab3f 3704 b643 67f4 6d43 08e6 3743
00000350: 0000 0000 b149 26c1 8689 f741 945e ba43
00000360: babf c443 5042 aabf 1d8c 8c43 1220 1642
00000370: 5033 dc42 5c94 8b36 8329 57c1 cc43 7243
00000380: e402 d643 f490 cd42 8ca5 2441 a54c 1c43
00000390: 4c5e 5142 c2cc 5741 67dc f641 ee55 8b41
000003a0: c6ab d242 1ab2 8343 0000 0000 80fb 8643
000003b0: d856 2743 7ab4 8f43 cae7 3443 50f9 c0bf
000003c0: 54ee ed41 fa9d 1241 f100 d042 d6bb 0c43
000003d0: 5b95 d642 2d46 6842 2f14 30c1 c721 a242
000003e0: 06bb 2ec0 3e4d c343 d362 3f42 cc32 ba3f
000003f0: 6c89 0d42 6706 af43 a482 4c41 aa83 6243
51.435963 28.300938 26.040842 -45.688732 103.87179 2.620453 -18.781742 38.452858
-27.8232 -6e-45 7.538327 -117.79659 94.37024 30.749554 -83.49423 34.595207
6e-45 -14.637684 -81.86177 -6e-45 -255.50908 0.0 13.798655 6e-45
-53.02733 5.779929 6e-45 -30.227226 -14.186142 -136.93433 52.45045 -6e-45
-28.094074 -13.701412 91.23352 -123.68648 106.26408 -10.650742 73.92784 30.771633
-13.447964 -14.877319 9.38628 16.831703 -113.49017 -17.59243 83.27064 0.0
-8.3438 -40.61255 -35.229557 43.298367 56.37536 48.4369 -64.4103 17.200537
50.58552 113.66234 -99.462875 -69.264404 30.43013 7.1922874 79.14704 -100.00282
13.338807 -73.09248 -105.70523 37.57553 -43.773335 -190.32832 25.948494 -4.3305855
32.792725 -16.530392 -1.5458336 -47.454163 108.720825 16.364906 115.596794 102.29681
72.241516 87.54726 79.59969 101.00697 0.0 -1.7589741 -82.152824 3.4897385
177.06612 32.386894 80.417206 -107.17251 -116.722786 16.933784 -19.316145 77.192856
146.3505 -60.48522 -16.224997 -196.6027 -23.213377 14.67403 -15.197209 -9.277899
45.94435 40.054085 -6e-45 74.95065 101.38242 64.70825 -6.3496094 14.355814
-12.636371 -103.98994 36.570515 -4.3528023 106.10751 57.88497 -11.021105 0.07243046
7.8317327 97.76836 -152.70831 -9.048513 -8.736343 -22.431152 -1.5947666 31.940046
102.27561 41.51661 -0.48114336 42.21127 396.93127 168.24763 50.40445 30.899612
-4.3345413 0.0 23.940147 179.38586 32.813004 72.10872 22.594137 99.44617
6e-45 0.9239148 32.97802 0.0 12.864068 0.0 51.034393 -6e-45
21.514198 8.615193 6e-45 11.293944 109.62937 8.915032 159.93553 6e-45
-0.22481745 -10.416628 219.05151 222.01584 -56.185146 281.78394 162.25006 18.01122
69.34704 277.27902 4.8792176 -23.964432 329.57532 287.03833 351.66882 0.0
1.9720159 14.963489 66.25409 58.652027 31.381094 241.91214 103.341125 13.48587
133.82019 199.60226 38.55645 111.83688 263.97675 79.129 350.84216 35.78718
2.1005738 22.504814 1.4357326 292.45596 48.266136 105.23804 230.23616 5.1472664
290.89465 35.188576 8.266197 73.28414 235.67737 16.379768 267.37613 398.40594
1.3416183 364.03293 237.9547 183.89856 0.0 -10.392991 30.94215 372.7389
393.49786 -1.3301487 281.09464 37.53132 110.10022 4.159794e-06 -13.447635 242.26483
428.02258 102.78311 10.290417 156.2994 52.342087 13.48749 30.857618 17.416958
105.335495 263.39142 0.0 269.96484 167.33923 287.40997 180.90543 -1.5076084
29.741371 9.1635685 104.00184 140.73373 107.29171 58.06853 -11.004928 81.06597
-2.730165 390.60345 47.846508 1.4546752 35.3842 350.05002 12.781895 226.51431
