RL_methods/policy_net.pth (torch, 309858 bytes, 18 tensors)

weight f4 [128, 54]
0	0x3da5884b	0.080826364
1	0xbd3ede09	-0.046598468
2	0xbe364469	-0.17799534
3	0x3e4052b2	0.18781546
4	0x3e41fa46	0.18943128
5	0x3c94866d	0.018130505
6	0xbdeb990b	-0.115038
7	0x3e2330f5	0.15936644
8	0x3eac3306	0.33632678
9	0xbd997630	-0.074932456
10	0xbe01cabf	-0.12674998
11	0x3eb03593	0.34415874
12	0xbe92a01a	-0.28637773
13	0xbe5a7a84	-0.21335799
14	0xbe131208	-0.14362347
15	0xbe5382c2	-0.20655349
16	0x3ca2c232	0.01986799
17	0x3ebd93e5	0.37026897
18	0xbdbdc2ee	-0.092656955
19	0xbd914b84	-0.070944816
20	0x3c1cc5ca	0.009568641
21	0x3e37bfb3	0.17944221
22	0xbe6f5891	-0.23373629
23	0xbe130e54	-0.14360934
24	0x3e9af91b	0.30268177
25	0x3e175955	0.14780171
26	0xbd71e68e	-0.059057765
27	0x3ebb58e4	0.36591256
28	0xbe66ce82	-0.22539714
29	0x3eb9ed9f	0.36314103
30	0x3ea84006	0.32861346
31	0xbdc4e717	-0.096143894
32	0x3c5bed42	0.013423266
33	0x3e700308	0.23438656
34	0x3e797f04	0.24364859
35	0xbd5c7725	-0.053824563
36	0xbddc51ed	-0.107578136
37	0xbe92218e	-0.28541225
38	0xbdd8b9fa	-0.10582347
39	0x3dc56f0a	0.0964032
40	0x3e0adef9	0.1356162
41	0x3dab5afa	0.08366962
42	0x3e8b0ec0	0.2715969
43	0x3eb42186	0.35181826
44	0x3e7ebb31	0.24876095
45	0x3ec9033f	0.3926029
46	0xbd8550a3	-0.06509521
47	0xbcf10d02	-0.029425148
48	0x3eb12454	0.3459803
49	0xbdbe7995	-0.09300534
50	0xbb485b7e	-0.0030572112
51	0x3e4632e9	0.19355358
52	0x3ec0f8ce	0.37689823
53	0xbe855cce	-0.26047367
54	0x3d664ad0	0.05622369
55	0xbdacf71f	-0.08445572
56	0x3db19a01	0.08671952
57	0xbc094a6b	-0.008379559
58	0x3dd7a47c	0.1052942
59	0x3e2515cc	0.16121596
60	0xbdab30c5	-0.083589114
61	0x3e43c57a	0.191183
62	0x3e612f07	0.21990596
63	0xbe2a18e8	-0.16611063
64	0xbe0ac816	-0.13552889
65	0x3def6f65	0.11691169
66	0xbea6492e	-0.32477707
67	0xbe2f23c6	-0.1710349
68	0xbea5b373	-0.3236347
69	0xbbec9944	-0.007220419
70	0xbe95fe8e	-0.29295772
71	0xbeaabe39	-0.33348253
72	0xbd9974d8	-0.07492989
73	0x3ddb6eee	0.107145175
74	0x3e99b410	0.3002019
75	0xbe9b505b	-0.30334744
76	0x3d287c00	0.04113388
77	0x3dfed22b	0.1244243
78	0xbe136483	-0.14393811
79	0x3de56481	0.1120081
80	0xbd75e8f0	-0.0600366
81	0xbe1d0df5	-0.15337355
82	0x3d2cd4f4	0.042195275
83	0xbe7e486d	-0.24832316
84	0xbdb6db09	-0.089284964
85	0x3e165942	0.14682487
86	0xbd972da8	-0.07381755
87	0xbd632c0a	-0.05546192
88	0x3dba53d2	0.09098019
89	0xbd65ad27	-0.056073334
90	0xbc215502	-0.009846928
91	0xbe9e868c	-0.30962026
92	0xbe879d8c	-0.26487386
93	0xbbf51d46	-0.0074802963
94	0x3e7faa06	0.24967203
95	0x3e471772	0.19442537
96	0xbd82e5c3	-0.0639148
97	0x3daccabb	0.08437105
98	0x3e940bc6	0.28915232
99	0xbe53bc87	-0.20677386
100	0x3dc076d6	0.09397666
101	0xbe19db2d	-0.15025015
102	0xbdbc9da6	-0.092097566
103	0x3df347cb	0.11878928
104	0x3e420dba	0.18950549
105	0xbe8b5fed	-0.27221623
106	0x3da0a6b3	0.07844295
107	0x3dbc7009	0.092010565
108	0x3c64e6b1	0.013971017
109	0x3d6bd4b2	0.05757589
110	0x3e558e96	0.20855173
111	0xbe273980	-0.16330528
112	0xbe4832b0	-0.19550586
113	0x3e734915	0.23758347
114	0xbe654dcb	-0.22392957
115	0x3df4bdfd	0.119503
116	0x3cfc7731	0.030818554
117	0x3e25f5a0	0.1620698
118	0xbe00224f	-0.12513088
119	0x3e7ec3ae	0.24879333
120	0xbe61034a	-0.21973911
121	0xbc4c5e41	-0.012473644
122	0x3e241424	0.16023308
123	0x3e6242f3	0.22095852
124	0xbe1a15e8	-0.15047419
125	0x3d9cb6b3	0.076520346
126	0xbe33cc49	-0.17558397
127	0xbdd01431	-0.10160101
128	0x3e0a027d	0.13477512
129	0xbd05a020	-0.03262341
130	0xbdf7cd66	-0.120997235
131	0xbe295b4c	-0.16538733
132	0x3d47c542	0.048772104
133	0xbde33ef9	-0.110959955
134	0x3de5dc6d	0.112236835
135	0xbda94f5c	-0.0826709
136	0xbe1883e7	-0.14894067
137	0x3d0e31e2	0.03471554
138	0x3eb63dd5	0.3559405
139	0x3e426f95	0.18987878
140	0x3cdde3f6	0.02708624
141	0xbdc20607	-0.09473806
142	0x3e777b1f	0.2416806
143	0xbd00188c	-0.03127341
144	0xbd9a4c04	-0.0753403
145	0x3eb50d9f	0.35361955
146	0xbe0935c8	-0.13399422
147	0x3e4e29c5	0.20133121
148	0x3e66ce2b	0.22539584
149	0x3e1a755d	0.15083833
150	0x3eb0b7e1	0.34515288
151	0xbde8eda0	-0.11373448
152	0x3e9261f3	0.28590354
153	0x3e641e41	0.22277166
154	0x3d12835d	0.03576981
155	0x3e209c38	0.15684593
156	0xbd9c98ca	-0.0764633
157	0xbe8335ef	-0.25627086
158	0xbdff20d7	-0.124574356
159	0x3e6ede09	0.23326887
160	0x3e1681b5	0.14697917
161	0xbe5dea3a	-0.21671382
162	0x3e627306	0.2211419
163	0xbcde74fa	-0.027155388
164	0x3e19c17d	0.15015216
165	0x3e8de6a7	0.27715036
166	0xbe88692c	-0.2664274
167	0xbdd0563e	-0.101726994
168	0xbe1f5932	-0.15561369
169	0x3e6563e5	0.22401388
170	0x3ea2e27b	0.31813416
171	0xbd44b41d	-0.048023332
172	0x3e668647	0.2251216
173	0x3e7df324	0.24799782
174	0xbeb8cc86	-0.3609354
175	0x3e283d73	0.16429691
176	0x3d2dd5aa	0.042440094
177	0xbcca7619	-0.024714516
178	0x3dbb8fb7	0.09158271
179	0x3d3a6fdd	0.045516837
180	0xbd907623	-0.07053783
181	0xbe265fb0	-0.1624744
182	0x3e007a3f	0.12546633
183	0x3b816edb	0.0039499826
184	0xbe016450	-0.12635922
185	0x3e971e33	0.29515228
186	0xbe17b837	-0.14816366
187	0xbd4a2586	-0.04935219
188	0x3e09a67a	0.13442412
189	0x3dca6f49	0.09884507
190	0x3e6c2e2b	0.23064487
191	0xbe8049d6	-0.25056332
192	0x3d88f3b2	0.06687106
193	0xbe0fbbc0	-0.14036465
194	0xbd9a9951	-0.07548774
195	0xbde1d3f3	-0.11026754
196	0x3e3daa1d	0.18521924
197	0x3e827d91	0.25486425
198	0x3d5e1d97	0.054227438
199	0x3e712a11	0.23551203
200	0x3e85ff03	0.2617112
201	0xbd8d5ee7	-0.06902867
202	0xbe68130d	-0.22663517
203	0x3e098986	0.13431367
204	0x3e98709f	0.29773423
205	0x3d52dc39	0.051479552
206	0x3cf094e3	0.02936787
207	0xbe15ce99	-0.14629592
208	0xbeb1ce81	-0.34727862
209	0xbe13c789	-0.14431585
210	0x3e048076	0.12939629
211	0xbd4ba475	-0.049717385
212	0x3e5767e4	0.21035725
213	0x3dafa647	0.08576637
214	0x3e654476	0.22389397
215	0x3e89f8f2	0.26947743
216	0xbe39b0f6	-0.18133911
217	0xbe187ff4	-0.1489256
218	0x3e4d0880	0.20022774
219	0x3e935868	0.28778386
220	0x3ea04f89	0.3131068
221	0xbe44828f	-0.19190429
222	0x3970d6af	0.0002296816
223	0x3e72f1d9	0.2372507
224	0x3d3febe2	0.046855815
225	0x3e670060	0.22558737
226	0xbd6aa09a	-0.057282068
227	0xbdd10935	-0.10206834
228	0x3b8086d1	0.0039223214
229	0x3e170619	0.1474842
230	0xbd7108a2	-0.058846124
231	0xbe5644fe	-0.20924756
232	0xbe987c77	-0.2978246
233	0xbe48881f	-0.19583176
234	0xbe56cdbf	-0.20976923
235	0xbe4352b5	-0.19074519
236	0xbe93702c	-0.28796518
237	0x3e7897e0	0.24276686
238	0x3e4f7d4a	0.20262638
239	0xbe810bd1	-0.25204328
240	0xbdb10670	-0.08643806
241	0xbe551175	-0.2080744
242	0x3e9f5503	0.31119546
243	0x3d24696e	0.040139608
244	0xbe4356f9	-0.19076146
245	0x3e39f9db	0.18161719
246	0xbc2108d5	-0.009828766
247	0xbd81eef4	-0.06344405
248	0x3d9a99c6	0.07548861
249	0xbd926e3e	-0.07149933
250	0x3e9addc0	0.30247307
251	0x3cb8d311	0.022561582
252	0xbb564868	-0.0032696966
253	0xbd4729a0	-0.04862368
254	0xbe1e8dd1	-0.15483786
255	0xbe904406	-0.28176898

bias f4 [128]
0	0x3d599b8b	0.053126853
1	0x3bd9c3a8	0.0066456385
2	0x3d2b43bc	0.041812643
3	0xbc5b26f6	-0.013375988
4	0x3bcb51a2	0.0062047997
5	0xbd082a3a	-0.033243395
6	0xbcef939e	-0.029245194
7	0x3c86494d	0.016392374
8	0x3ddca0f5	0.107728876
9	0x3d06d5c1	0.032918695
10	0xbd3b2daa	-0.045697846
11	0x3cc137a0	0.023586094
12	0x3dda1871	0.10649193
13	0xbb7f9193	-0.003899668
14	0x3cd63f81	0.026153328
15	0xbcb2b979	-0.021816956
16	0x3d170626	0.036871098
17	0xbb2d021a	-0.0026398958
18	0x3d0f86d5	0.035040695
19	0x3d6de4b8	0.05807945
20	0x3c3b0e09	0.01141692
21	0x3ca04b28	0.019567087
22	0xbc9b8c27	-0.018987728
23	0x3d6faca2	0.058514245
24	0x3c1f76cb	0.009732912
25	0x3d5345d2	0.051580258
26	0x3cfcd334	0.030862428
27	0xbd038c19	-0.03211603
28	0x3e01b4e4	0.1266666
29	0x3c18769b	0.0093056215
30	0x3d00ef6b	0.031478327
31	0x3d3ddd8e	0.04635387
32	0xbb4283d0	-0.0029680617
33	0x3d4c9aa3	0.04995216
34	0x3c6487fb	0.013948436
35	0x3c060a5d	0.008181182
36	0xbc3422c2	-0.010994615
37	0x3cce4a11	0.025181802
38	0x3d422080	0.047394276
39	0x3ce32bea	0.0277309
40	0xbca9d4fd	-0.020731444
41	0xbb236c42	-0.0024936353
42	0x3d03bfd0	0.03216535
43	0x3d25c19f	0.040467855
44	0x3d3ae5ac	0.04562919
45	0xbb190ba0	-0.0023352876
46	0x3cf7fc07	0.030271543
47	0x3e045203	0.1292191
48	0x3d70f67f	0.058828827
49	0x3a8fde8a	0.0010976356
50	0x3d8a74f9	0.06760592
51	0x3c994a27	0.018712116
52	0x3cffbc02	0.031217579
53	0x3c8572bc	0.016290061
54	0xbc473e90	-0.012160912
55	0xbbac0a70	-0.0052502677
56	0x3c2d7a35	0.010588218
57	0xbd2ff127	-0.04295459
58	0x3cf05420	0.029336989
59	0xbcb45b9f	-0.022016345
60	0x3d2935bf	0.041311022
61	0xbc4544a8	-0.012040295
62	0x3dea2158	0.11432141
63	0xbc5b8711	-0.013398902
64	0xbc61a719	-0.013772749
65	0x3c49014d	0.012268377
66	0xbb4432b6	-0.0029937453
67	0x3df584c3	0.11988213
68	0x3d91f270	0.071263194
69	0xbc78cf70	-0.015186176
70	0xbc469bc5	-0.012122099
71	0x3b119969	0.0022216684
72	0x3d154b7f	0.03644895
73	0xbc1aa214	-0.0094380565
74	0x3c364ce7	0.011126733
75	0xbcb51bac	-0.022107922
76	0x3d85a13a	0.06524892
77	0x3c808e23	0.015692776
78	0x3d891cf7	0.06694978
79	0x3d9563b0	0.072944045
80	0x3be26b8e	0.006909794
81	0xba21e577	-0.00061758555
82	0x3de33abb	0.11095186
83	0x3c6c276e	0.014413698
84	0x3d91ed74	0.07125369
85	0x3dff50ed	0.12466607
86	0xbc87f32f	-0.016595451
87	0x3ae78ce4	0.001766589
88	0x3ca40476	0.020021658
89	0x3d03a653	0.03214104
90	0x3c4a1839	0.012334877
91	0x3ca3cbd9	0.019994663
92	0x3bc743d7	0.006081085
93	0x3bfe1b0e	0.00775469
94	0xbca0d2e9	-0.01963182
95	0x3b90d1a6	0.0044195233
96	0x3cf3faea	0.029782731
97	0xbb4a59a7	-0.003087619
98	0xbccef8d5	-0.025265137
99	0x3d2b44ae	0.041813545
100	0x3c57e27d	0.013176558
101	0x3cc8bd35	0.024504283
102	0x3d192549	0.037389074
103	0x3c57e292	0.013176577
104	0x3da4fc06	0.08055882
105	0x3d8d5eec	0.069028705
106	0x3d0f0522	0.034917004
107	0x3dc36b2d	0.095419265
108	0x3cc945e4	0.02456946
109	0x3d752fc4	0.059860006
110	0x3d6f5b2e	0.058436565
111	0x3bd90f45	0.0066241347
112	0xbbccef53	-0.0062541156
113	0x3d898e60	0.06716609
114	0xbc8ad1bd	-0.016945714
115	0xbcbd68f9	-0.023121344
116	0x3b24660a	0.0025085234
117	0x3d5382d0	0.051638424
118	0xbcd96885	-0.026539097
119	0x3c2e3900	0.010633707
120	0xbb2ea4ee	-0.0026648599
121	0x3d7ff21a	0.062486745
122	0x3cbd7639	0.023127662
123	0x3d78d8de	0.060753696
124	0x3d842be1	0.06453682
125	0x3db7f384	0.08981994
126	0xbc8fa31d	-0.017533833
127	0xbb203188	-0.0024443585

weight f4 [128, 128]
0	0x3e37f6bf	0.1796522
1	0x3c82791b	0.015926888
2	0x3d3edfad	0.046600033
3	0x3e214407	0.15748607
4	0x3e674d49	0.22588076
5	0x3e22f2ce	0.15912935
6	0xbd5da9b9	-0.05411694
7	0x3d637b98	0.05553779
8	0x3e762f31	0.2404144
9	0x3cae54dd	0.0212807
10	0xbe2772fb	-0.16352455
11	0xbe5b3855	-0.21408208
12	0x3c00aa56	0.007853111
13	0xbc461d85	-0.012091999
14	0x3d5d6f49	0.054061208
15	0x3d5277e5	0.05138387
16	0x3e943cd8	0.2895267
17	0xbd088f4e	-0.03333979
18	0x3cc73652	0.024317894
19	0x3dd4db2b	0.103933655
20	0x3e898fd8	0.26867557
21	0xbb9b99b8	-0.0047485493
22	0x3e631ace	0.22178194
23	0x3bb6c072	0.0055771405
24	0xbe4ef5fe	-0.20211026
25	0x3e315e45	0.17321117
26	0xbe57774e	-0.21041605
27	0x3e16d4dd	0.14729638
28	0x3e77f89f	0.24215935
29	0xbe576787	-0.21035586
30	0xbac8ea14	-0.001532855
31	0xbd3e383a	-0.04644034
32	0x3e1f2c41	0.15544225
33	0x3d571eeb	0.05251972
34	0x3dc84bfb	0.09780117
35	0xbe12da16	-0.14341006
36	0x3e00d6cf	0.12581943
37	0xbe015030	-0.12628245
38	0x3e2acebc	0.16680425
39	0x3d18f623	0.03734411
40	0x3de94c33	0.11391487
41	0x3e8e3840	0.2777729
42	0xbe06307b	-0.13104431
43	0xbd9982e7	-0.07495671
44	0xbe18327f	-0.14863013
45	0xbd8d9352	-0.06912865
46	0xbc6d6673	-0.014489758
47	0xbd713d35	-0.058896262
48	0x3df13dd3	0.1177937
49	0xbdd06295	-0.10175053
50	0xbd2ee400	-0.042697906
51	0x3e09c595	0.13454278
52	0x3c964793	0.018344676
53	0x3e3e91c8	0.18610299
54	0xbe0a3704	-0.1349755
55	0x3e5e0340	0.21680927
56	0x3e1b76e5	0.15182073
57	0x3d003aa5	0.031305928
58	0x3e87d6b3	0.2653099
59	0x3caea6cd	0.021319771
60	0x3e3e43a6	0.18580493
61	0xbe2cbfa7	-0.16869985
62	0x3c5eb5de	0.013593165
63	0x3e191df2	0.1495283
64	0xbde1d559	-0.11027021
65	0xbe28c89a	-0.16482773
66	0x3e36704c	0.17816275
67	0x3df69a5a	0.12041159
68	0x3e416549	0.18886293
69	0xbddc6fd3	-0.10763516
70	0x3d380065	0.04492225
71	0xbd6c4a24	-0.057687894
72	0xbca3d7a2	-0.020000283
73	0xbe54a6f6	-0.20766816
74	0xbe1caa98	-0.15299451
75	0xbc4fb61f	-0.012677698
76	0x3e893820	0.26800632
77	0x3e5efdc9	0.21776499
78	0x3e89a788	0.2688563
79	0x3ce9ca36	0.028538805
80	0x3e4754a3	0.1946588
81	0xbe245856	-0.16049322
82	0x3e1bbbbc	0.15208334
83	0xbd523576	-0.051320516
84	0xbd56c630	-0.0524351
85	0x3e82d82d	0.25555554
86	0x3d1df9e7	0.038568404
87	0xbde3f7da	-0.11131258
88	0xbd0afdbb	-0.033933382
89	0x3e0110c0	0.12604046
90	0x3cf0c0fa	0.029388893
91	0x3e9e82b0	0.30959082
92	0xbe51039f	-0.20411538
93	0x3e3c840b	0.18409745
94	0x3d87135f	0.065954916
95	0x3e01da29	0.12680878
96	0x3cc6755c	0.024225883
97	0x3e7860db	0.24255697
98	0x3dfdbaf1	0.12389172
99	0x3d5c080d	0.053718615
100	0xbe44f25f	-0.19233082
101	0x3e522856	0.205232
102	0x3daaebab	0.08345731
103	0xbca0b950	-0.019619614
104	0x3e000606	0.12502298
105	0x3e28aeab	0.1647288
106	0x3d7fd295	0.062456686
107	0xbd7facc6	-0.06242063
108	0x3e10efab	0.14153926
109	0x3ce3425b	0.027741602
110	0x3e16343f	0.14668368
111	0xbdb1ccb3	-0.086816214
112	0x3e304d35	0.17216952
113	0xbdf80e67	-0.12112122
114	0xbdbfbf9c	-0.093627185
115	0x3de2fb8b	0.11083134
116	0x3e36d6e6	0.17855415
117	0xbdab9de7	-0.08379727
118	0x3e64cbc8	0.22343361
119	0x3dce492d	0.10072551
120	0xbd9a23f1	-0.075263865
121	0x3e680645	0.22658642
122	0x3df97677	0.121807985
123	0x3e2ffd0a	0.1718637
124	0x3df24ee2	0.11831452
125	0x3e584bba	0.21122637
126	0xbe38e446	-0.1805583
127	0x3d6330b1	0.055466358
128	0x3d54ad00	0.0519228
129	0xbe25e89e	-0.16202018
130	0xbdc91138	-0.09817737
131	0x3d39f605	0.045400638
132	0xbdd82796	-0.105544254
133	0xbe5f2ca4	-0.21794373
134	0x3e3a5bbd	0.18199058
135	0x3dfabd55	0.122431435
136	0x3e31d4d3	0.17366342
137	0x3ddf1e08	0.108944
138	0xbdc7784b	-0.09739741
139	0xbcaf3fb6	-0.021392684
140	0xbb7c7f26	-0.0038527935
141	0xbe631cbc	-0.2217893
142	0x3d603cef	0.05474561
143	0x3d821da8	0.06353313
144	0x3ce3bebe	0.027800914
145	0xbd1b39fb	-0.03789709
146	0xbe0aa709	-0.13540281
147	0x3e0d7d9c	0.13817447
148	0x3c5ea6f9	0.013589614
149	0xbe13ef2d	-0.14446707
150	0x3e7086f2	0.23488978
151	0x3d8928b2	0.06697215
152	0xbe35cc4f	-0.17753719
153	0x3e31b0e9	0.17352642
154	0x3dada3e5	0.08478526
155	0xbe350d56	-0.17680869
156	0x3e6ac66e	0.22927257
157	0x3e4556b8	0.19271362
158	0x3e63de20	0.22252703
159	0xbd52ee5f	-0.05149686
160	0xbe6450f5	-0.22296508
161	0x3d979504	0.07401469
162	0x3d0caee3	0.034346472
163	0x3e449917	0.19199024
164	0x3e3ac593	0.18239431
165	0x3e2a8305	0.16651542
166	0xbda65af9	-0.081228204
167	0x3c7264ea	0.014794568
168	0x3e6510dd	0.22369714
169	0x3e1f7e7e	0.15575597
170	0x3e332e95	0.17498238
171	0x3c8d9678	0.017283663
172	0xba479cfd	-0.00076146406
173	0xbd906ff2	-0.07052602
174	0xbd59e909	-0.053200755
175	0xbd7fad30	-0.062421024
176	0x3e1d774c	0.1537754
177	0x3d70288f	0.05863243
178	0xbe010542	-0.12599662
179	0x3d8cf62e	0.068828925
180	0x3da04299	0.078252025
181	0xbd6c8178	-0.05774066
182	0xbe22b665	-0.1588989
183	0x3e238f58	0.1597265
184	0xbd9569aa	-0.072955444
185	0xbe4eada2	-0.20183423
186	0xbe4542c4	-0.1926375
187	0xbe1e24d1	-0.15443732
188	0x3d8421ca	0.06451757
189	0xbe00cd46	-0.12578306
190	0xbe533aae	-0.20627853
191	0xbdff2980	-0.12459087
192	0xbcd64633	-0.02615652
193	0x3dd327e9	0.10310347
194	0xbe1c498e	-0.15262434
195	0x3db3f252	0.08786453
196	0xbc120bff	-0.008913993
197	0xbd820d45	-0.06350187
198	0xbd6afbe2	-0.05736912
199	0xbe1e33e0	-0.15449476
200	0x3e051f33	0.13000183
201	0x3c879d99	0.01655464
202	0x3e473932	0.19455412
203	0xbe32b720	-0.17452669
204	0xbddeb615	-0.10874573
205	0xbdf5b6bb	-0.11997744
206	0x3e48e183	0.19617276
207	0xbc2eee1c	-0.010676887
208	0xbce0bfd4	-0.02743522
209	0xbe2a87a6	-0.16653308
210	0xbd403c63	-0.04693259
211	0x3cbd5b07	0.023114694
212	0x3ddde40b	0.10834511
213	0xbca6214f	-0.020279555
214	0x3bf3458f	0.0074240635
215	0x3e49ba00	0.1969986
216	0xbba28814	-0.0049600694
217	0xbe5f3886	-0.21798906
218	0xbdf91455	-0.12162081
219	0x3e3a8019	0.18212928
220	0x3e28b675	0.16475852
221	0x3e520257	0.20508705
222	0xbd1c451c	-0.038151845
223	0x3e46b00b	0.19403093
224	0x3e34e7d3	0.17666559
225	0xbe1451e3	-0.14484362
226	0xbe1e7dfb	-0.15477745
227	0xbd2e228f	-0.042513426
228	0x3d2dd594	0.042440012
229	0x3dc46178	0.09588903
230	0xbd8b29cb	-0.06795081
231	0xbd7bc638	-0.061468333
232	0x3e84abfb	0.2591246
233	0x3c981384	0.018563993
234	0xbe31c97a	-0.17362013
235	0x3e4c864e	0.19973108
236	0x3e7cbab4	0.24680597
237	0x3d5ed52e	0.054402523
238	0x3e1c7e99	0.15282668
239	0xbd2f38aa	-0.04277865
240	0x3df91dc1	0.12163878
241	0x3e16712c	0.14691609
242	0xbc093f15	-0.008376856
243	0x3daed72e	0.08537136
244	0xbe0be617	-0.13661991
245	0xbe4b1281	-0.19831277
246	0xbd29c40a	-0.041446723
247	0x3d98c9c6	0.0746036
248	0x3c4bd35d	0.01244053
249	0xbe431e6a	-0.19054571
250	0xbdf7fe59	-0.1210906
251	0x3e734768	0.23757708
252	0xbd80271d	-0.0625746
253	0xb76aa04b	-1.3984808e-05
254	0x3e583246	0.21112928
255	0xbe1378d6	-0.14401564

bias f4 [128]
0	0x3dc078bf	0.093980305
1	0x3cfecddf	0.031104026
2	0x3b8c54c7	0.004282567
3	0x3ceabfce	0.028655913
4	0xbb907453	-0.004408398
5	0x3b276e16	0.0025547794
6	0x3b599a6f	0.0033203622
7	0xbc93a04b	-0.01802077
8	0x3bee8e53	0.00728015
9	0x3d89316d	0.0669888
10	0x3e0e7e17	0.13915287
11	0x3da57cdd	0.080804564
12	0x3d17c726	0.037055157
13	0x3bb708dd	0.0055857734
14	0x3d1b4b41	0.037913565
15	0x3de56076	0.11200039
16	0xbcc18eb6	-0.02362762
17	0x3dbd22d0	0.092351556
18	0x3bf4bc3b	0.007468728
19	0x3cd47f60	0.025939643
20	0xbc744cb9	-0.01491087
21	0x3d637272	0.055529065
22	0x3cf1a8ea	0.02949949
23	0x3c3b4ad5	0.011431416
24	0xbcbe13bc	-0.02320277
25	0xbca1f608	-0.019770637
26	0x3b4398a4	0.002984562
27	0xbbbf35b5	-0.00583526
28	0x3bdf9e5d	0.0068242983
29	0x3bf0cb7c	0.007348476
30	0x3d6dc0e7	0.058045294
31	0x3d485cbe	0.04891657
32	0x3c44b595	0.012006183
33	0xbc431832	-0.011907624
34	0xbd21f08d	-0.039536048
35	0x3d4d879b	0.05017815
36	0xbcc240b7	-0.023712499
37	0x3d952933	0.07283249
38	0x3d86549d	0.065591075
39	0x3bd3a4dc	0.0064588618
40	0x3c0aebb2	0.008479046
41	0x3d7a3529	0.061085854
42	0xbd07631a	-0.033053495
43	0x3e5dde5f	0.21666859
44	0xbd0e6a4f	-0.034769353
45	0xbc70fa0f	-0.014708056
46	0xbc0ca762	-0.008584829
47	0xbb9ca666	-0.0047805784
48	0xbcd11310	-0.025521785
49	0x3d5c4291	0.05377442
50	0x3b3adee8	0.002851421
51	0xbcd528b0	-0.026020378
52	0xbc059fcc	-0.008155774
53	0xbd0a06d2	-0.03369791
54	0x3d3617c2	0.04445625
55	0x3d1c09ba	0.038095213
56	0x3cc3c104	0.023895748
57	0x3ce4d065	0.027931402
58	0x3dd87f57	0.10571163
59	0x3d8192d9	0.06326837
60	0x3c92ed13	0.017935311
61	0xbcef5136	-0.02921353
62	0x3d7a39f1	0.061090413
63	0x3d0fd41b	0.03511439
64	0x3c3f07b8	0.011659555
65	0xbcedd149	-0.029030459
66	0x3d2ed89c	0.042687044
67	0x3d6eb5bf	0.058278795
68	0xbc018da3	-0.007907304
69	0x3be7e447	0.0070767733
70	0xbb4aa238	-0.0030919444
71	0xbc895c58	-0.016767666
72	0xbbfcca6c	-0.0077145603
73	0x3d917284	0.0710192
74	0x3e1f899f	0.15579842
75	0xbc39190b	-0.011297475
76	0xbaebf7c6	-0.0018002919
77	0xbcc346ca	-0.023837466
78	0x3d913b59	0.07091398
79	0x3c8586bf	0.016299604
80	0xbcf552f5	-0.029946784
81	0x3d16b164	0.036790267
82	0xbc3abfb3	-0.011398244
83	0x3dd12636	0.10212366
84	0xbc1d26e8	-0.0095917955
85	0x3c533567	0.01289115
86	0x3d38efc7	0.045150544
87	0x3d58ac75	0.052898843
88	0x3c963246	0.01833452
89	0x3bad4b78	0.0052885376
90	0x3d81a440	0.06330156
91	0x3d71825d	0.058962215
92	0x3ccd70ce	0.025078204
93	0xbcc7af43	-0.024375563
94	0x3d33dca6	0.0439116
95	0x3da77af0	0.08177745
96	0xbcd6defd	-0.026229376
97	0x3d09d6fc	0.03365229
98	0x3c9d69a1	0.019215407
99	0xbd3f81c4	-0.046754614
100	0x3ca7bfc2	0.02047718
101	0x3d9a23e6	0.07526378
102	0x3c57da09	0.013174542
103	0x3e0ec8a7	0.1394373
104	0xba91bad2	-0.0011118299
105	0x3c7437a2	0.014905842
106	0x3ab9e5b4	0.0014182837
107	0x3d65c6e0	0.056097865
108	0xbc551b4d	-0.013006997
109	0x3dbc47b1	0.091933616
110	0x3d558ef2	0.052138276
111	0xba89a6ce	-0.0010501982
112	0xbbf3b09c	-0.007436825
113	0x3d87fff6	0.066406175
114	0x3bb2cd0b	0.005456572
115	0xbc70a80b	-0.014688502
116	0xbd0c2bab	-0.034221333
117	0x3c825be3	0.015912956
118	0xbbc68f93	-0.006059596
119	0xbb6448f3	-0.003483352
120	0x3bce4926	0.006295341
121	0xbcba8a17	-0.022770924
122	0x3c47243c	0.012154635
123	0x3cf3b777	0.029750569
124	0xbc984fea	-0.018592793
125	0xbcc6d97b	-0.024273625
126	0xbb45fdb5	-0.0030211036
127	0xbcd16ac5	-0.025563607

weight f4 [12, 128]
0	0x3e55750d	0.20845433
1	0x3eab7680	0.33488846
2	0x3e811c8f	0.252171
3	0x3df29bba	0.11846109
4	0x3dff1171	0.124544986
5	0xbd85ce0a	-0.065334395
6	0x3deffe8e	0.11718474
7	0x3e657608	0.22408307
8	0x3e59b61d	0.21260877
9	0x3ecbac86	0.39780062
10	0x3e56e8cd	0.20987244
11	0x3e9c79c8	0.30561662
12	0x3e380be8	0.17973292
13	0x3db8602b	0.090027176
14	0x3e850b8c	0.25985372
15	0x3e10f375	0.14155371
16	0x3dc58278	0.096440256
17	0xbe0b8a1b	-0.13626902
18	0xbd18c419	-0.03729639
19	0x3e3db960	0.18527746
20	0xbcb7954e	-0.022410061
21	0x3e528989	0.20560278
22	0x3df89ff9	0.12139887
23	0x3de30ae6	0.11086063
24	0x3ea134ac	0.31485498
25	0x3e026136	0.12732396
26	0x3c39cb0a	0.011339912
27	0x3e319579	0.17342176
28	0x3d9529dd	0.072833754
29	0xbd40324c	-0.046922967
30	0x3eb697be	0.35662645
31	0x3e3c21c0	0.1837225
32	0x3e5c48e5	0.21512182
33	0x3ef41d8f	0.476788
34	0x3d63429d	0.05548345
35	0x3efea6fc	0.49736774
36	0x3e7750d9	0.24151935
37	0x3ef52949	0.4788306
38	0x3ee9f1e0	0.45692348
39	0xbdce78aa	-0.100816086
40	0x3e310bbc	0.17289633
41	0x3f169c61	0.58832365
42	0x3e348724	0.17629677
43	0x3ee910ba	0.45520574
44	0x3e6b6a8d	0.22989865
45	0xbde68bbf	-0.11257123
46	0xbd58a005	-0.05288698
47	0x3e47b414	0.19502288
48	0x3e517885	0.20456131
49	0x3dc2916f	0.095003955
50	0xbcc06ff6	-0.023490887
51	0xbda4d319	-0.08048076
52	0x3e548e0f	0.20757316
53	0x3e404b48	0.18778718
54	0x3e00151a	0.1250805
55	0x3e999c51	0.30002072
56	0x3ed8c8b8	0.42340636
57	0x3e760a45	0.24027355
58	0x3efd55b6	0.49479455
59	0x3e5fe32e	0.21864006
60	0x3ee4a5db	0.44657788
61	0xbd927d81	-0.07152844
62	0x3f11e8b1	0.56995684
63	0x3e8d3f49	0.27587345
64	0x3e9c0663	0.30473623
65	0x3ebcf83e	0.36908144
66	0x3a95275c	0.0011379528
67	0x3f08bf6a	0.53417075
68	0x3d1df7e5	0.03856649
69	0x3e8c2721	0.27373603
70	0x3e314468	0.17311251
71	0xbc1818fb	-0.0092833
72	0x3db4c430	0.08826482
73	0x3ee372f4	0.4442364
74	0x3ee2b7b0	0.44280767
75	0xbe31641d	-0.17323346
76	0x3daa75d3	0.083232544
77	0x3d8a6b09	0.067586966
78	0x3f16721b	0.5876786
79	0x3f1ae875	0.6051095
80	0x3e77e3ae	0.24207947
81	0x3eeccb53	0.46248874
82	0xbdf84db5	-0.121241964
83	0x3dcdcbff	0.10048675
84	0xbc995005	-0.018714914
85	0x3e9d2c1a	0.3069771
86	0x3e231f00	0.15929794
87	0x3eca05a5	0.3945743
88	0x3e783cef	0.24241994
89	0x3d47a39c	0.048740014
90	0x3ed70884	0.41998684
91	0x3e7e116e	0.24811336
92	0x3e884d61	0.26621535
93	0x3d11c96c	0.03559248
94	0x3d7b5a9f	0.06136572
95	0x3ed8b85d	0.42328158
96	0x3e18c77e	0.1491985
97	0x3dd97bd7	0.10619324
98	0x3e334c27	0.17509519
99	0x3e344de3	0.17607836
100	0x3edcf434	0.43155062
101	0x3e9d2d5b	0.30698666
102	0x3d5ead88	0.05436471
103	0x3ec7b5c4	0.39005864
104	0x3e2003ed	0.15626498
105	0x3e083428	0.13301146
106	0xbdf5ac86	-0.11995797
107	0x3ee48bd1	0.4463792
108	0x3eb51c85	0.3537332
109	0x3eec344b	0.46133646
110	0x3e5ccfb9	0.21563615
111	0x3ebdb667	0.37053224
112	0x3e5a5eca	0.21325222
113	0x3ec3c865	0.38238826
114	0x3e909781	0.28240588
115	0x3ea8f6f3	0.33000907
116	0x3e04537d	0.12922473
117	0x3e7aebab	0.24503963
118	0x3e841720	0.25798893
119	0x3e179818	0.14804113
120	0x3e1f365f	0.15548085
121	0x3eae56e6	0.34050673
122	0xbd66fb95	-0.05639227
123	0x3d924a00	0.07143021
124	0xbbb83a3f	-0.005622178
125	0x3de346b1	0.11097468
126	0x3d849537	0.06473773
127	0x3ee58ac8	0.44832444
128	0xbda2d163	-0.079500936
129	0x3c256527	0.010094917
130	0x3ec926dc	0.3928746
131	0x3e62450e	0.22096655
132	0x3e3a4105	0.18188865
133	0x3d0502c2	0.032473333
134	0x3ea84865	0.32867733
135	0x3e31c02f	0.17358468
136	0x3e678483	0.22609143
137	0x3ea8631e	0.3288812
138	0x3e43c859	0.19119395
139	0x3ea64b6e	0.32479423
140	0x3ed8d1a1	0.42347434
141	0x3ed909e0	0.42390347
142	0x3eeb4f6b	0.4595903
143	0x3e026acf	0.12736057
144	0x3e3a1c2f	0.18174814
145	0x3e5092df	0.20368527
146	0x3dfbe8b7	0.12300246
147	0x3dc9b951	0.098497994
148	0x3e2d175c	0.16903442
149	0x3e6340b5	0.22192653
150	0x3e9c564c	0.3053459
151	0x3e9b0d1b	0.30283436
152	0x3e77f433	0.24214248
153	0x3ded9ed2	0.11602558
154	0x3ecb6a91	0.3972974
155	0x3e108e41	0.14116766
156	0x3d84ce68	0.06484681
157	0x3eb8fd20	0.3613062
158	0x3e7fd058	0.2498182
159	0x3e57e558	0.21083581
160	0x3e8ac50b	0.27103457
161	0x3de59400	0.112098694
162	0x3d1026ef	0.03519338
163	0x3e370c2c	0.17875737
164	0xbe0526f1	-0.13003136
165	0x3de5815f	0.11206316
166	0x3ec326b1	0.38115457
167	0x3e7c4a83	0.24637799
168	0x3e8789ea	0.26472408
169	0x3e64e66c	0.22353524
170	0x3e3cfc82	0.18455699
171	0x3ed4d5ed	0.41569462
172	0xbdfdd14f	-0.12393438
173	0x3e26a966	0.16275558
174	0x3d966dab	0.07345136
175	0x3dbf1083	0.09329321
176	0x3e36326d	0.17792673
177	0x3e4cbc59	0.19993724
178	0xbd8faecc	-0.07015762
179	0x3e65ca71	0.22440507
180	0x3deb4312	0.11487402
181	0x3e9b70b1	0.30359414
182	0x3d92b95d	0.071642615
183	0x3f342817	0.7037367
184	0x3daad174	0.08340731
185	0x3f100014	0.5625012
186	0x3ecd3392	0.40078408
187	0x3e324d78	0.17412364
188	0x3e73f71a	0.2382473
189	0x3e843929	0.2582486
190	0x3efa0e28	0.48838925
191	0x3ecf4794	0.40484297
192	0x3d83a6b9	0.06428284
193	0x3e83c04e	0.25732654
194	0x3cbe9a17	0.023266835
195	0x3e203717	0.15646015
196	0x3ca526dd	0.020160133
197	0x3ea3dd71	0.32004884
198	0xbb38ee41	-0.0028218182
199	0x3e959d6e	0.29221672
200	0x3e389a48	0.18027604
201	0x3de4afe4	0.11166361
202	0x3ed42ee2	0.4144202
203	0xbdd23924	-0.10264805
204	0x3d265674	0.040609792
205	0x3d902adb	0.07039424
206	0x3e4d77d1	0.20065238
207	0x3f1657f3	0.5872795
208	0xbda974a2	-0.08274199
209	0x3eb42a74	0.3518864
210	0xbdb7e8fd	-0.08979986
211	0x3dac0ea7	0.08401232
212	0x3e5300fc	0.20605844
213	0x3e7696f3	0.2408102
214	0x3f3997ea	0.7249743
215	0x3e64b2f6	0.22333893
216	0x3ecd14e8	0.40055013
217	0xbd28c5c8	-0.041204244
218	0x3ea518d1	0.32245496
219	0x3e229e14	0.15880615
220	0x3f09c73e	0.53819644
221	0x3e361cf7	0.17784487
222	0x3ed1160a	0.40837127
223	0x3ef6b846	0.48187464
224	0x3e07af71	0.1325052
225	0x3dfbd2f9	0.12296099
226	0x3eb1b2be	0.34706682
227	0x3e57f335	0.2108887
228	0x3deef4b3	0.116677664
229	0x3e71c8fe	0.23611829
230	0x3e70c8d8	0.23514116
231	0x3eb999e2	0.36250216
232	0x3e59eeb8	0.2128247
233	0x3e486d28	0.1957289
234	0x3b9c277b	0.0047654486
235	0x3e678683	0.22609906
236	0x3ca19b63	0.019727414
237	0x3f0e13dc	0.55499053
238	0x3e8f66dc	0.28008163
239	0x3dc33793	0.09532084
240	0x3e077c24	0.1323095
241	0x3e0fe421	0.14051868
242	0x3f18a129	0.5962091
243	0xbe196e07	-0.14983378
244	0x3ea20db8	0.31651092
245	0x3eab8813	0.33502254
246	0xbcd391f2	-0.025826428
247	0x3d949750	0.07255423
248	0x3da8e3cf	0.08246576
249	0x3cff525d	0.031167204
250	0x3e085caa	0.13316599
251	0x3d8545d2	0.06507458
252	0x3cd77190	0.026299268
253	0x3de5f064	0.112274915
254	0x3e793e72	0.24340227
255	0xbdbe3e00	-0.09289169

bias f4 [12]
0	0x3e8a8585	0.27054992
1	0x3e857e87	0.26073095
2	0x3e755b3d	0.23960586
3	0x3d8f9ebc	0.07012698
4	0x3d3f7434	0.04674168
5	0x3cc35fe5	0.023849437
6	0x3e8ad781	0.2711754
7	0x3c4d9714	0.012548227
8	0x3e7d196f	0.24716733
9	0x3e6cbb95	0.23118432
10	0x3e866d8d	0.26255456
11	0x3dd9b77e	0.106307015

exp_avg f4 [128, 54]
0	0x00000004	6e-45
1	0x80000004	-6e-45
2	0xa3bd5d32	-2.053089e-17
3	0x80000004	-6e-45
4	0x00000000	0.0
5	0xa558e3a0	-1.8812136e-16
6	0x00000004	6e-45
7	0x80000004	-6e-45
8	0xa3bd5d32	-2.053089e-17
9	0xa44d0dd0	-4.446399e-17
10	0xa44d0ddc	-4.446403e-17
11	0xa44d0dd0	-4.446399e-17
12	0xa519ca5c	-1.3339197e-16
13	0xa44d0dd0	-4.446399e-17
14	0xa519ca5c	-1.3339197e-16
15	0xa44d0dd0	-4.446399e-17
16	0xa44d0ddc	-4.446403e-17
17	0xa44d0dd0	-4.446399e-17
18	0xa49db694	-6.8397196e-17
19	0xa4cd0dd0	-8.892798e-17
20	0xa4cd0dd0	-8.892798e-17
21	0xa5747b6c	-2.1205443e-16
22	0xa4cd0dd0	-8.892798e-17
23	0xa4cd0dd0	-8.892798e-17
24	0xa49db694	-6.8397196e-17
25	0xa4cd0dd0	-8.892798e-17
26	0xa4cd0dd0	-8.892798e-17
27	0xa519ca5c	-1.3339197e-16
28	0xa44d0dd0	-4.446399e-17
29	0xa519ca5c	-1.3339197e-16
30	0xa519ca5c	-1.3339197e-16
31	0xa519ca5c	-1.3339197e-16
32	0xa519ca5c	-1.3339197e-16
33	0xa519ca5c	-1.3339197e-16
34	0xa44d0dd0	-4.446399e-17
35	0xa519ca5c	-1.3339197e-16
36	0xa54d0dd0	-1.7785595e-16
37	0xa54d0dd0	-1.7785595e-16
38	0xa558e3a0	-1.8812136e-16
39	0xa58028a4	-2.2232e-16
40	0xa54d0dd0	-1.7785595e-16
41	0xa49db694	-6.8397196e-17
42	0xa54d0dd0	-1.7785595e-16
43	0xa54d0dd0	-1.7785595e-16
44	0xa558e3a0	-1.8812136e-16
45	0xa58028a4	-2.2232e-16
46	0xa58028a4	-2.2232e-16
47	0xa5747b6c	-2.1205443e-16
48	0xa54d0dd0	-1.7785595e-16
49	0xa58028a4	-2.2232e-16
50	0xa3bd5d32	-2.053089e-17
51	0xa58028a4	-2.2232e-16
52	0xa58028a4	-2.2232e-16
53	0xa5747b6c	-2.1205443e-16
54	0x80000004	-6e-45
55	0x00000004	6e-45
56	0x80000004	-6e-45
57	0x00000004	6e-45
58	0x00000000	0.0
59	0x80000004	-6e-45
60	0x80000004	-6e-45
61	0x80000004	-6e-45
62	0x80000004	-6e-45
63	0x80000004	-6e-45
64	0x00000004	6e-45
65	0x80000004	-6e-45
66	0x80000004	-6e-45
67	0x80000004	-6e-45
68	0x80000004	-6e-45
69	0x80000004	-6e-45
70	0x80000004	-6e-45
71	0x80000004	-6e-45
72	0x80000004	-6e-45
73	0x80000004	-6e-45
74	0x80000004	-6e-45
75	0x80000004	-6e-45
76	0x80000004	-6e-45
77	0x80000004	-6e-45
78	0x80000004	-6e-45
79	0x80000004	-6e-45
80	0x80000004	-6e-45
81	0x80000004	-6e-45
82	0x80000004	-6e-45
83	0x80000004	-6e-45
84	0x80000004	-6e-45
85	0x80000004	-6e-45
86	0x80000004	-6e-45
87	0x80000004	-6e-45
88	0x80000004	-6e-45
89	0x80000004	-6e-45
90	0x80000004	-6e-45
91	0x80000004	-6e-45
92	0x80000004	-6e-45
93	0x80000004	-6e-45
94	0x80000004	-6e-45
95	0x80000004	-6e-45
96	0x80000004	-6e-45
97	0x80000004	-6e-45
98	0x80000004	-6e-45
99	0x80000004	-6e-45
100	0x80000004	-6e-45
101	0x00000004	6e-45
102	0x80000004	-6e-45
103	0x80000004	-6e-45
104	0x80000004	-6e-45
105	0x80000004	-6e-45
106	0x80000004	-6e-45
107	0x00000004	6e-45
108	0x00000004	6e-45
109	0x80000004	-6e-45
110	0xa3b9f49a	-2.0161333e-17
111	0x00000004	6e-45
112	0x00000000	0.0
113	0xa5581738	-1.874288e-16
114	0x00000004	6e-45
115	0x80000004	-6e-45
116	0xa3b9f49a	-2.0161333e-17
117	0xa44c77f2	-4.4337046e-17
118	0xa44c77fc	-4.433708e-17
119	0xa44c77f2	-4.4337046e-17
120	0xa51959f2	-1.3301109e-16
121	0xa44c77f2	-4.4337046e-17
122	0xa51959f2	-1.3301109e-16
123	0xa44c77f2	-4.4337046e-17
124	0xa44c77fc	-4.433708e-17
125	0xa44c77f2	-4.4337046e-17
126	0xa49dfade	-6.851288e-17
127	0xa4cc77f2	-8.867409e-17
128	0xa4cc77f2	-8.867409e-17
129	0xa573f6a4	-2.1160455e-16
130	0xa4cc77f2	-8.867409e-17
131	0xa4cc77f2	-8.867409e-17
132	0xa49dfade	-6.851288e-17
133	0xa4cc77f2	-8.867409e-17
134	0xa4cc77f2	-8.867409e-17
135	0xa51959f4	-1.3301112e-16
136	0xa44c77f2	-4.4337046e-17
137	0xa51959f4	-1.3301112e-16
138	0xa51959f4	-1.3301112e-16
139	0xa51959f4	-1.3301112e-16
140	0xa51959f4	-1.3301112e-16
141	0xa51959f4	-1.3301112e-16
142	0xa44c77f2	-4.4337046e-17
143	0xa51959f4	-1.3301112e-16
144	0xa54c77f2	-1.7734819e-16
145	0xa54c77f2	-1.7734819e-16
146	0xa5581738	-1.874288e-16
147	0xa57f95f0	-2.2168525e-16
148	0xa54c77f2	-1.7734819e-16
149	0xa49dfade	-6.851288e-17
150	0xa54c77f2	-1.7734819e-16
151	0xa54c77f2	-1.7734819e-16
152	0xa5581738	-1.874288e-16
153	0xa57f95f0	-2.2168525e-16
154	0xa57f95f0	-2.2168525e-16
155	0xa573f6a4	-2.1160455e-16
156	0xa54c77f2	-1.7734819e-16
157	0xa57f95f0	-2.2168525e-16
158	0xa3b9f49a	-2.0161333e-17
159	0xa57f95f0	-2.2168525e-16
160	0xa57f95f0	-2.2168525e-16
161	0xa573f6a4	-2.1160455e-16
162	0x80000004	-6e-45
163	0x80000004	-6e-45
164	0xa364b904	-1.2399083e-17
165	0x80000004	-6e-45
166	0x00000000	0.0
167	0xa50d580e	-1.2259635e-16
168	0x00000004	6e-45
169	0x80000004	-6e-45
170	0xa364b904	-1.2399083e-17
171	0xa4063248	-2.9099208e-17
172	0xa4063250	-2.9099235e-17
173	0xa4063248	-2.9099208e-17
174	0xa4c94b68	-8.72976e-17
175	0xa4063248	-2.9099208e-17
176	0xa4c94b68	-8.72976e-17
177	0xa4063248	-2.9099208e-17
178	0xa4063250	-2.9099235e-17
179	0xa4063248	-2.9099208e-17
180	0xa4533664	-4.5799402e-17
181	0xa4863248	-5.8198416e-17
182	0xa4863248	-5.8198416e-17
183	0xa5209910	-1.3929647e-16
184	0xa4863248	-5.8198416e-17
185	0xa4863248	-5.8198416e-17
186	0xa4533664	-4.5799402e-17
187	0xa4863248	-5.8198416e-17
188	0xa4863248	-5.8198416e-17
189	0xa4c94b6c	-8.7297624e-17
190	0xa4063248	-2.9099208e-17
191	0xa4c94b6c	-8.7297624e-17
192	0xa4c94b6c	-8.7297624e-17
193	0xa4c94b6c	-8.7297624e-17
194	0xa4c94b6c	-8.7297624e-17
195	0xa4c94b6c	-8.7297624e-17
196	0xa4063248	-2.9099208e-17
197	0xa4c94b6c	-8.7297624e-17
198	0xa5063248	-1.1639683e-16
199	0xa5063248	-1.1639683e-16
200	0xa50d580e	-1.2259635e-16
201	0xa527beda	-1.4549604e-16
202	0xa5063248	-1.1639683e-16
203	0xa4533664	-4.5799402e-17
204	0xa5063248	-1.1639683e-16
205	0xa5063248	-1.1639683e-16
206	0xa50d580e	-1.2259635e-16
207	0xa527beda	-1.4549604e-16
208	0xa527beda	-1.4549604e-16
209	0xa5209910	-1.3929647e-16
210	0xa5063248	-1.1639683e-16
211	0xa527beda	-1.4549604e-16
212	0xa364b904	-1.2399083e-17
213	0xa527beda	-1.4549604e-16
214	0xa527beda	-1.4549604e-16
215	0xa5209910	-1.3929647e-16
216	0x80000004	-6e-45
217	0x80000004	-6e-45
218	0x80000004	-6e-45
219	0x80000004	-6e-45
220	0x00000000	0.0
221	0x80000004	-6e-45
222	0x80000004	-6e-45
223	0x80000004	-6e-45
224	0x80000004	-6e-45
225	0x80000004	-6e-45
226	0x80000004	-6e-45
227	0x80000004	-6e-45
228	0x80000004	-6e-45
229	0x80000004	-6e-45
230	0x80000004	-6e-45
231	0x80000004	-6e-45
232	0x80000004	-6e-45
233	0x80000004	-6e-45
234	0x80000004	-6e-45
235	0x80000004	-6e-45
236	0x80000004	-6e-45
237	0x80000004	-6e-45
238	0x80000004	-6e-45
239	0x80000004	-6e-45
240	0x80000004	-6e-45
241	0x80000004	-6e-45
242	0x80000004	-6e-45
243	0x80000004	-6e-45
244	0x80000004	-6e-45
245	0x80000004	-6e-45
246	0x80000004	-6e-45
247	0x80000004	-6e-45
248	0x80000004	-6e-45
249	0x80000004	-6e-45
250	0x80000004	-6e-45
251	0x80000004	-6e-45
252	0x80000004	-6e-45
253	0x80000004	-6e-45
254	0x80000004	-6e-45
255	0x80000004	-6e-45

exp_avg_sq f4 [128, 54]
0	0x000001f4	7e-43
1	0x000001f4	7e-43
2	0x080c15ca	4.215533e-34
3	0x000001f4	7e-43
4	0x00000000	0.0
5	0x0b37c19f	3.5390182e-32
6	0x000001f4	7e-43
7	0x000001f4	7e-43
8	0x080c15ca	4.215533e-34
9	0x0924415e	1.9771517e-33
10	0x0924415e	1.9771517e-33
11	0x0924415e	1.9771517e-33
12	0x0ab8cb3f	1.7795008e-32
13	0x0924415e	1.9771517e-33
14	0x0ab8cb3f	1.7795008e-32
15	0x0924415e	1.9771517e-33
16	0x0924415e	1.9771517e-33
17	0x0924415e	1.9771517e-33
18	0x09c254af	4.6783437e-33
19	0x0a24415e	7.908607e-33
20	0x0a24415e	7.908607e-33
21	0x0b697c41	4.4967646e-32
22	0x0a24415e	7.908607e-33
23	0x0a24415e	7.908607e-33
24	0x09c254af	4.6783437e-33
25	0x0a24415e	7.908607e-33
26	0x0a24415e	7.908607e-33
27	0x0ab8cb3f	1.7795008e-32
28	0x0924415e	1.9771517e-33
29	0x0ab8cb3f	1.7795008e-32
30	0x0ab8cb3f	1.7795008e-32
31	0x0ab8cb3f	1.7795008e-32
32	0x0ab8cb3f	1.7795008e-32
33	0x0ab8cb3f	1.7795008e-32
34	0x0924415e	1.9771517e-33
35	0x0ab8cb3f	1.7795008e-32
36	0x0b24415e	3.1634428e-32
37	0x0b24415e	3.1634428e-32
38	0x0b37c19f	3.5390182e-32
39	0x0b805208	4.9427233e-32
40	0x0b24415e	3.1634428e-32
41	0x09c254af	4.6783437e-33
42	0x0b24415e	3.1634428e-32
43	0x0b24415e	3.1634428e-32
44	0x0b37c19f	3.5390182e-32
45	0x0b805208	4.9427233e-32
46	0x0b805208	4.9427233e-32
47	0x0b697c41	4.4967646e-32
48	0x0b24415e	3.1634428e-32
49	0x0b805208	4.9427233e-32
50	0x080c15ca	4.215533e-34
51	0x0b805208	4.9427233e-32
52	0x0b805208	4.9427233e-32
53	0x0b697c41	4.4967646e-32
54	0x000001f4	7e-43
55	0x000001f4	7e-43
56	0x000001f4	7e-43
57	0x000001f4	7e-43
58	0x00000000	0.0
59	0x000001f4	7e-43
60	0x000001f4	7e-43
61	0x000001f4	7e-43
62	0x000001f4	7e-43
63	0x000001f4	7e-43
64	0x000001f4	7e-43
65	0x000001f4	7e-43
66	0x000001f4	7e-43
67	0x000001f4	7e-43
68	0x000001f4	7e-43
69	0x000001f4	7e-43
70	0x000001f4	7e-43
71	0x000001f4	7e-43
72	0x000001f4	7e-43
73	0x000001f4	7e-43
74	0x000001f4	7e-43
75	0x000001f4	7e-43
76	0x000001f4	7e-43
77	0x000001f4	7e-43
78	0x000001f4	7e-43
79	0x000001f4	7e-43
80	0x000001f4	7e-43
81	0x000001f4	7e-43
82	0x000001f4	7e-43
83	0x000001f4	7e-43
84	0x000001f4	7e-43
85	0x000001f4	7e-43
86	0x000001f4	7e-43
87	0x000001f4	7e-43
88	0x000001f4	7e-43
89	0x000001f4	7e-43
90	0x000001f4	7e-43
91	0x000001f4	7e-43
92	0x000001f4	7e-43
93	0x000001f4	7e-43
94	0x000001f4	7e-43
95	0x000001f4	7e-43
96	0x000001f4	7e-43
97	0x000001f4	7e-43
98	0x000001f4	7e-43
99	0x000001f4	7e-43
100	0x000001f4	7e-43
101	0x000001f4	7e-43
102	0x000001f4	7e-43
103	0x000001f4	7e-43
104	0x000001f4	7e-43
105	0x000001f4	7e-43
106	0x000001f4	7e-43
107	0x000001f4	7e-43
108	0x000001f4	7e-43
109	0x000001f4	7e-43
110	0x08071485	4.0649205e-34
111	0x000001f4	7e-43
112	0x00000000	0.0
113	0x0b3669dd	3.5131568e-32
114	0x000001f4	7e-43
115	0x000001f4	7e-43
116	0x08071485	4.0649205e-34
117	0x09235315	1.9659476e-33
118	0x09235315	1.9659476e-33
119	0x09235315	1.9659476e-33
120	0x0ab7bdb7	1.7693622e-32
121	0x09235315	1.9659476e-33
122	0x0ab7bdb7	1.7693622e-32
123	0x09235315	1.9659476e-33
124	0x09235315	1.9659476e-33
125	0x09235315	1.9659476e-33
126	0x09c2fca8	4.6941398e-33
127	0x0a235315	7.8637905e-33
128	0x0a235315	7.8637905e-33
129	0x0b688240	4.4779564e-32
130	0x0a235315	7.8637905e-33
131	0x0a235315	7.8637905e-33
132	0x09c2fca8	4.6941398e-33
133	0x0a235315	7.8637905e-33
134	0x0a235315	7.8637905e-33
135	0x0ab7bdb7	1.7693622e-32
136	0x09235315	1.9659476e-33
137	0x0ab7bdb7	1.7693622e-32
138	0x0ab7bdb7	1.7693622e-32
139	0x0ab7bdb7	1.7693622e-32
140	0x0ab7bdb7	1.7693622e-32
141	0x0ab7bdb7	1.7693622e-32
142	0x09235315	1.9659476e-33
143	0x0ab7bdb7	1.7693622e-32
144	0x0b235315	3.1455162e-32
145	0x0b235315	3.1455162e-32
146	0x0b3669dd	3.5131568e-32
147	0x0b7f2f03	4.914658e-32
148	0x0b235315	3.1455162e-32
149	0x09c2fca8	4.6941398e-33
150	0x0b235315	3.1455162e-32
151	0x0b235315	3.1455162e-32
152	0x0b3669dd	3.5131568e-32
153	0x0b7f2f03	4.914658e-32
154	0x0b7f2f03	4.914658e-32
155	0x0b688240	4.4779564e-32
156	0x0b235315	3.1455162e-32
157	0x0b7f2f03	4.914658e-32
158	0x08071485	4.0649205e-34
159	0x0b7f2f03	4.914658e-32
160	0x0b7f2f03	4.914658e-32
161	0x0b688240	4.4779564e-32
162	0x000001f4	7e-43
163	0x000001f4	7e-43
164	0x074c5b20	1.5374033e-34
165	0x000001f4	7e-43
166	0x00000000	0.0
167	0x0a9c177f	1.5031092e-32
168	0x000001f4	7e-43
169	0x000001f4	7e-43
170	0x074c5b20	1.5374033e-34
171	0x088cb20a	8.4678e-34
172	0x088cb20a	8.4678e-34
173	0x088cb20a	8.4678e-34
174	0x0a1e4a01	7.621342e-33
175	0x088cb20a	8.4678e-34
176	0x0a1e4a01	7.621342e-33
177	0x088cb20a	8.4678e-34
178	0x088cb20a	8.4678e-34
179	0x088cb20a	8.4678e-34
180	0x092e43e7	2.0976416e-33
181	0x098cb20a	3.38712e-33
182	0x098cb20a	3.38712e-33
183	0x0ac980a6	1.9403988e-32
184	0x098cb20a	3.38712e-33
185	0x098cb20a	3.38712e-33
186	0x092e43e7	2.0976416e-33
187	0x098cb20a	3.38712e-33
188	0x098cb20a	3.38712e-33
189	0x0a1e4a01	7.621342e-33
190	0x088cb20a	8.4678e-34
191	0x0a1e4a01	7.621342e-33
192	0x0a1e4a01	7.621342e-33
193	0x0a1e4a01	7.621342e-33
194	0x0a1e4a01	7.621342e-33
195	0x0a1e4a01	7.621342e-33
196	0x088cb20a	8.4678e-34
197	0x0a1e4a01	7.621342e-33
198	0x0a8cb20a	1.354848e-32
199	0x0a8cb20a	1.354848e-32
200	0x0a9c177f	1.5031092e-32
201	0x0adbd805	2.117019e-32
202	0x0a8cb20a	1.354848e-32
203	0x092e43e7	2.0976416e-33
204	0x0a8cb20a	1.354848e-32
205	0x0a8cb20a	1.354848e-32
206	0x0a9c177f	1.5031092e-32
207	0x0adbd805	2.117019e-32
208	0x0adbd805	2.117019e-32
209	0x0ac980a6	1.9403988e-32
210	0x0a8cb20a	1.354848e-32
211	0x0adbd805	2.117019e-32
212	0x074c5b20	1.5374033e-34
213	0x0adbd805	2.117019e-32
214	0x0adbd805	2.117019e-32
215	0x0ac980a6	1.9403988e-32
216	0x000001f4	7e-43
217	0x000001f4	7e-43
218	0x000001f4	7e-43
219	0x000001f4	7e-43
220	0x00000000	0.0
221	0x000001f4	7e-43
222	0x000001f4	7e-43
223	0x000001f4	7e-43
224	0x000001f4	7e-43
225	0x000001f4	7e-43
226	0x000001f4	7e-43
227	0x000001f4	7e-43
228	0x000001f4	7e-43
229	0x000001f4	7e-43
230	0x000001f4	7e-43
231	0x000001f4	7e-43
232	0x000001f4	7e-43
233	0x000001f4	7e-43
234	0x000001f4	7e-43
235	0x000001f4	7e-43
236	0x000001f4	7e-43
237	0x000001f4	7e-43
238	0x000001f4	7e-43
239	0x000001f4	7e-43
240	0x000001f4	7e-43
241	0x000001f4	7e-43
242	0x000001f4	7e-43
243	0x000001f4	7e-43
244	0x000001f4	7e-43
245	0x000001f4	7e-43
246	0x000001f4	7e-43
247	0x000001f4	7e-43
248	0x000001f4	7e-43
249	0x000001f4	7e-43
250	0x000001f4	7e-43
251	0x000001f4	7e-43
252	0x000001f4	7e-43
253	0x000001f4	7e-43
254	0x000001f4	7e-43
255	0x000001f4	7e-43

exp_avg f4 [128]
0	0xa44d0dd0	-4.446399e-17
1	0x80000004	-6e-45
2	0xa44c77f2	-4.4337046e-17
3	0xa4063248	-2.9099208e-17
4	0x80000004	-6e-45
5	0x80000004	-6e-45
6	0x00000004	6e-45
7	0xa46b469e	-5.1017317e-17
8	0xa4333be8	-3.886518e-17
9	0xa42f9f7e	-3.808217e-17
10	0x80000004	-6e-45
11	0xa470319c	-5.2083725e-17
12	0xa44f56fc	-4.495965e-17
13	0x00000004	6e-45
14	0x00000004	6e-45
15	0x00000004	6e-45
16	0xa45835ce	-4.6883108e-17
17	0xa3a8438a	-1.82432e-17
18	0xa44b20b8	-4.4046322e-17
19	0xa40b1800	-3.016115e-17
20	0xa455f3da	-4.6393563e-17
21	0x00000004	6e-45
22	0x00000004	6e-45
23	0xa42422d2	-3.5591325e-17
24	0x00000004	6e-45
25	0xa456eca4	-4.6604295e-17
26	0x80000004	-6e-45
27	0x00000004	6e-45
28	0xa5013546	-1.1207016e-16
29	0x80000004	-6e-45
30	0xa45434b6	-4.601482e-17
31	0xa4181d92	-3.2984793e-17
32	0x80000004	-6e-45
33	0xa4a85c60	-7.3014875e-17
34	0xa40a76b0	-3.0024512e-17
35	0x80000004	-6e-45
36	0x80000004	-6e-45
37	0xa42b567a	-3.7152963e-17
38	0xa42507aa	-3.5785163e-17
39	0xa413a9cc	-3.2019367e-17
40	0x00000004	6e-45
41	0xa440f824	-4.1843547e-17
42	0xa468ab98	-5.0452326e-17
43	0xa4597ef6	-4.7161914e-17
44	0xa4121f42	-3.168518e-17
45	0x00000004	6e-45
46	0xa4823218	-5.6463375e-17
47	0xa4678ffa	-5.0212093e-17
48	0xa452a266	-4.5674048e-17
49	0x00000004	6e-45
50	0xa45f7ca6	-4.8460998e-17
51	0xa49516ec	-6.465728e-17
52	0xa40ce28e	-3.054956e-17
53	0x00000004	6e-45
54	0x00000004	6e-45
55	0x00000004	6e-45
56	0xa484cdfe	-5.759484e-17
57	0x00000004	6e-45
58	0xa414b296	-3.2243652e-17
59	0x00000004	6e-45
60	0x166c8fa6	1.9109256e-25
61	0x00000004	6e-45
62	0xa49de606	-6.847757e-17
63	0x80000004	-6e-45
64	0xa3e5850e	-2.488458e-17
65	0x80000004	-6e-45
66	0x00000004	6e-45
67	0xa48c8068	-6.093285e-17
68	0xa438b5d2	-4.0052648e-17
69	0x00000004	6e-45
70	0x80000004	-6e-45
71	0xa3a999a4	-1.8388086e-17
72	0x80000004	-6e-45
73	0x80000004	-6e-45
74	0x80000004	-6e-45
75	0x80000004	-6e-45
76	0xa410015a	-3.1226167e-17
77	0x80000004	-6e-45
78	0xa464f472	-4.9646672e-17
79	0xa4571300	-4.6636787e-17
80	0x00000004	6e-45
81	0x00000004	6e-45
82	0xa4989db0	-6.6186625e-17
83	0x80000004	-6e-45
84	0xa4c9cf32	-8.752086e-17
85	0xa4999bda	-6.6617196e-17
86	0x80000004	-6e-45
87	0x80000004	-6e-45
88	0xa403c10a	-2.8569607e-17
89	0xa479c354	-5.4158718e-17
90	0x80000004	-6e-45
91	0x97ff2942	-1.6489404e-24
92	0x00000004	6e-45
93	0xa44d6c78	-4.4544166e-17
94	0x00000004	6e-45
95	0x00000004	6e-45
96	0xa4491e8c	-4.36108e-17
97	0xa342d3fe	-1.0561652e-17
98	0x00000004	6e-45
99	0xa456e49a	-4.6597486e-17
100	0x80000004	-6e-45
101	0x80000004	-6e-45
102	0x80000004	-6e-45
103	0x80000004	-6e-45
104	0xa37c99ac	-1.3693489e-17
105	0xa4944d38	-6.431558e-17
106	0xa40a1a6e	-2.9946367e-17
107	0xa484be48	-5.7568224e-17
108	0xa3201afe	-8.679333e-18
109	0xa4685e96	-5.0387098e-17
110	0xa486a034	-5.838463e-17
111	0x18ea09e4	6.049757e-24
112	0xa3556fc4	-1.15704204e-17
113	0xa448cb24	-4.3540154e-17
114	0x80000004	-6e-45
115	0x80000004	-6e-45
116	0xa4398a50	-4.0232636e-17
117	0x186a5d04	3.0290752e-24
118	0xa42e2ee6	-3.776996e-17
119	0x80000004	-6e-45
120	0x00000004	6e-45
121	0xa44b96da	-4.4146384e-17
122	0xa3f1226e	-2.6143854e-17
123	0xa4497abc	-4.3688887e-17
124	0xa4a11f2e	-6.987544e-17
125	0xa4924606	-6.343603e-17
126	0x80000004	-6e-45
127	0x80000004	-6e-45

exp_avg_sq f4 [128]
0	0x0924415e	1.9771517e-33
1	0x000001f4	7e-43
2	0x09235315	1.9659476e-33
3	0x088cb20a	8.4678e-34
4	0x000001f4	7e-43
5	0x000001f4	7e-43
6	0x000001f4	7e-43
7	0x09583e22	2.6029269e-33
8	0x08fafcc7	1.5105755e-33
9	0x08f0fa3f	1.4503307e-33
10	0x000001f4	7e-43
11	0x09615e1a	2.7127636e-33
12	0x0927eec9	2.021417e-33
13	0x000001f4	7e-43
14	0x000001f4	7e-43
15	0x000001f4	7e-43
16	0x09369ca6	2.1981109e-33
17	0x07dd33ae	3.3282759e-34
18	0x09213034	1.9402335e-33
19	0x089729c3	9.0978e-34
20	0x0932d3e2	2.1525597e-33
21	0x000001f4	7e-43
22	0x000001f4	7e-43
23	0x08d27d75	1.266841e-33
24	0x000001f4	7e-43
25	0x093471f4	2.1720292e-33
26	0x000001f4	7e-43
27	0x000001f4	7e-43
28	0x0a827102	1.2561053e-32
29	0x000001f4	7e-43
30	0x092fe9c8	2.1174782e-33
31	0x08b4c7e4	1.088035e-33
32	0x000001f4	7e-43
33	0x09dd7616	5.3314862e-33
34	0x0895ca32	9.015147e-34
35	0x000001f4	7e-43
36	0x000001f4	7e-43
37	0x08e55d8d	1.380443e-33
38	0x08d4c767	1.2806165e-33
39	0x08aa5be3	1.0253105e-33
40	0x000001f4	7e-43
41	0x091178b6	1.7510498e-33
42	0x09537b5e	2.5456208e-33
43	0x0938cb3f	2.224376e-33
44	0x08a6d1a0	1.0040044e-33
45	0x000001f4	7e-43
46	0x098470bb	3.1883855e-33
47	0x095177bc	2.5213759e-33
48	0x092d51b6	2.0862538e-33
49	0x000001f4	7e-43
50	0x09431be8	2.3485393e-33
51	0x09adab8e	4.1809564e-33
52	0x089b11c6	9.332902e-34
53	0x000001f4	7e-43
54	0x000001f4	7e-43
55	0x000001f4	7e-43
56	0x0989cbd8	3.3173244e-33
57	0x000001f4	7e-43
58	0x08acc12d	1.0397289e-33
59	0x000001f4	7e-43
60	0x000001f4	7e-43
61	0x000001f4	7e-43
62	0x09c2c9e0	4.6893643e-33
63	0x000001f4	7e-43
64	0x084dca51	6.1927765e-34
65	0x000001f4	7e-43
66	0x000001f4	7e-43
67	0x099a3aee	3.712957e-33
68	0x09054794	1.6042949e-33
69	0x000001f4	7e-43
70	0x000001f4	7e-43
71	0x07e0ba09	3.3813116e-34
72	0x000001f4	7e-43
73	0x000001f4	7e-43
74	0x000001f4	7e-43
75	0x000001f4	7e-43
76	0x08a2070c	9.751677e-34
77	0x000001f4	7e-43
78	0x094cc880	2.4649881e-33
79	0x0934b45c	2.1751516e-33
80	0x000001f4	7e-43
81	0x000001f4	7e-43
82	0x09b5f895	4.380793e-33
83	0x000001f4	7e-43
84	0x0a1f190a	7.660281e-33
85	0x09b859f7	4.438099e-33
86	0x000001f4	7e-43
87	0x000001f4	7e-43
88	0x0887a126	8.162903e-34
89	0x0973b191	2.9333552e-33
90	0x000001f4	7e-43
91	0x000001f4	7e-43
92	0x000001f4	7e-43
93	0x0924d9b7	1.9843151e-33
94	0x000001f4	7e-43
95	0x000001f4	7e-43
96	0x091e03b1	1.9020294e-33
97	0x07144779	1.1155286e-34
98	0x000001f4	7e-43
99	0x0934663c	2.1714782e-33
100	0x000001f4	7e-43
101	0x000001f4	7e-43
102	0x000001f4	7e-43
103	0x000001f4	7e-43
104	0x0779435e	1.8752475e-34
105	0x09abd6cc	4.1368747e-33
106	0x089502f9	8.96831e-34
107	0x0989ac98	3.3143857e-33
108	0x06c8443c	7.53319e-35
109	0x0952eebd	2.5390085e-33
110	0x098d9c6b	3.409161e-33
111	0x000001f4	7e-43
112	0x0731f53a	1.3388066e-34
113	0x091d7ee0	1.8957844e-33
114	0x000001f4	7e-43
115	0x000001f4	7e-43
116	0x09067c2d	1.618805e-33
117	0x000001f4	7e-43
118	0x08ed0a6c	1.4266369e-33
119	0x000001f4	7e-43
120	0x000001f4	7e-43
121	0x0921ebb4	1.9490497e-33
122	0x0863233b	6.835174e-34
123	0x091e9439	1.9088252e-33
124	0x09cad47f	4.882956e-33
125	0x09a72b79	4.024467e-33
126	0x000001f4	7e-43
127	0x000001f4	7e-43
