RL_methods/policy_net.pth (torch, 309858 bytes, 18 tensors)

weight f4 [128, 54]
0	0x3e00488f	0.12527679
1	0x3dedf067	0.11618119
2	0x3d83c1a3	0.06433418
3	0xbd0fa958	-0.03507361
4	0x3e148008	0.14501965
5	0xbca3f4ab	-0.020014128
6	0xbd076d62	-0.0330633
7	0x3f1275f5	0.5721124
8	0x3e70d112	0.23517254
9	0xbe2a49d3	-0.16629724
10	0x3ea9dcf8	0.33176398
11	0x3d795ed1	0.06088144
12	0xbd843829	-0.06456024
13	0x3e2b81a3	0.16748671
14	0x3ccf9a8c	0.025342248
15	0xbd23a07e	-0.03994798
16	0xbe13a9b6	-0.14420208
17	0x3d44c9be	0.04804396
18	0x3d234bec	0.039867327
19	0xbeb16a65	-0.34651485
20	0xbe391da3	-0.18077712
21	0x3dc3dfe7	0.0956419
22	0xbedb2005	-0.42797866
23	0x3d1f16a2	0.038839944
24	0xbe862941	-0.2620335
25	0x3e1111ba	0.14166918
26	0xbd477964	-0.04869975
27	0xbe927b52	-0.2860971
28	0xbda3f1f7	-0.080051355
29	0xbed580df	-0.41699883
30	0xbcab2c6b	-0.020895204
31	0xbed40afd	-0.41414633
32	0x3e92bc6a	0.28659374
33	0x3de93030	0.11386144
34	0xbe0e94fb	-0.13924019
35	0xbd883ffb	-0.06652828
36	0x3e58ff54	0.2119115
37	0x3e445bf1	0.19175698
38	0x3d000b31	0.031260673
39	0x3dc54c44	0.09633687
40	0x3e0338f9	0.12814702
41	0x3da87082	0.08224584
42	0xbe919990	-0.2843747
43	0x3e235a78	0.1595248
44	0xbd4b8e3c	-0.049696192
45	0xbe2069e4	-0.15665394
46	0xbee64ee7	-0.44982073
47	0xbe1e8810	-0.15481591
48	0x3d5180b3	0.051148128
49	0x3dee4dfd	0.11635969
50	0xbc294146	-0.010330504
51	0xbe87ebe3	-0.26547155
52	0x3dd233a2	0.102637544
53	0xbe9be74f	-0.30449912
54	0x3e642739	0.22280587
55	0x3e65862a	0.22414461
56	0xbdd5cb5f	-0.104391806
57	0x3f01cdcc	0.50704646
58	0xbe2d4786	-0.16921815
59	0xbcb0e11f	-0.021591721
60	0x3d75da40	0.060022593
61	0x3d829b18	0.06377238
62	0xbda3aefe	-0.079923615
63	0x3dea6b60	0.114462614
64	0x3d0914b8	0.033467025
65	0xbdd07a30	-0.101795554
66	0x3f016211	0.5054026
67	0x3e06508d	0.13116665
68	0xbcf9fa40	-0.030514836
69	0xbe57f537	-0.21089636
70	0x3e02b5b1	0.12764622
71	0x3e722496	0.23646769
72	0xbd6c1266	-0.057634734
73	0xbe149473	-0.14509754
74	0xbdd27896	-0.10276906
75	0xbd6c1c17	-0.057643976
76	0xbec3d1b0	-0.38245916
77	0x3d96320e	0.07333766
78	0xbda1da41	-0.07902957
79	0xbe8dc20d	-0.27687111
80	0x3c92584a	0.017864365
81	0xbe0c37b7	-0.13693129
82	0x3ec44e5e	0.3834104
83	0xbe27250e	-0.16322729
84	0x3e13b80d	0.14425679
85	0xbdce93bc	-0.10086772
86	0xbed29018	-0.4112556
87	0x3e5b6ea1	0.2142892
88	0x3e2a0f69	0.16607441
89	0xbe5884a3	-0.21144347
90	0xbc55b27d	-0.013043043
91	0x3cc6fe1e	0.024291094
92	0xbde5f496	-0.11228292
93	0x3d4b2378	0.049594373
94	0xbe61803d	-0.22021575
95	0x3e7a6d06	0.24455652
96	0x3ed85e02	0.42259222
97	0xbe8c194b	-0.27363047
98	0xbe798558	-0.24367273
99	0x3e71f858	0.23629892
100	0xbebf10bd	-0.37317458
101	0xbbdd0603	-0.0067451014
102	0xbe8b3d5b	-0.27195248
103	0xbeb8a0e4	-0.3606025
104	0x3e6e6cfb	0.2328376
105	0x3e0a9fd8	0.13537538
106	0x3e81ba23	0.25337324
107	0x3e3d2585	0.18471344
108	0x3e27f821	0.16403247
109	0xbeb4ad5c	-0.35288513
110	0x3eb3b7a2	0.35101038
111	0x3e7e8e8c	0.24859065
112	0xbe4fcace	-0.20292208
113	0xbe979e93	-0.2961317
114	0xbe5a7053	-0.21331911
115	0xbe955d05	-0.2917253
116	0x3dc68bd0	0.09694636
117	0xbdf26356	-0.11835353
118	0x3f1c9bb1	0.61175066
119	0x3e574a70	0.2102449
120	0xbe248fdf	-0.16070507
121	0xbdfd0101	-0.12353707
122	0xbea13b77	-0.3149068
123	0xbe9e0fc0	-0.3087139
124	0x3e01a45b	0.12660353
125	0x3db45ce0	0.08806777
126	0x3cbd7b04	0.023129947
127	0x3f1fc376	0.62407625
128	0xbe962f8d	-0.29333153
129	0x3e23b1b9	0.15985765
130	0x3e2cb92a	0.1686751
131	0x3d478d48	0.04871872
132	0x3ec2b86d	0.3803133
133	0xbc127b10	-0.008940473
134	0x3e9719c3	0.29511842
135	0x3dc9dcc0	0.09856558
136	0x3e0fe9ad	0.14053984
137	0xbe839555	-0.2569987
138	0x3e8234cb	0.25430903
139	0x3ed9f310	0.42568254
140	0x3e83800b	0.25683627
141	0x3cee12f3	0.02906177
142	0xbdce727e	-0.100804314
143	0x3ec017c2	0.37518126
144	0x3e1bbd61	0.15208961
145	0xbe167106	-0.14691553
146	0x3ebd3c9c	0.36960304
147	0x3db06ae5	0.086141385
148	0x3e4cda90	0.2000525
149	0x3ebf40c6	0.37354106
150	0x3cc9c2b2	0.02462897
151	0x3ecfc420	0.4057932
152	0x3de5a9c0	0.11214018
153	0xbdc3579d	-0.09538195
154	0xbe943f62	-0.28954607
155	0xbe80c7e6	-0.2515251
156	0x3ee0a8fc	0.43878925
157	0x3e9ea31a	0.30983812
158	0x3d5f5439	0.05452368
159	0xbe343b0b	-0.17600648
160	0xbe65c362	-0.22437814
161	0x3e4b3ed6	0.19848189
162	0x3e92b3cf	0.28652808
163	0xbe430074	-0.19043142
164	0xbe66b71e	-0.22530791
165	0xbd3a6053	-0.04550202
166	0xbe6f972b	-0.2339751
167	0x3ea9bed4	0.33153403
168	0x3ea09917	0.31366798
169	0xbd226c29	-0.03965393
170	0x3c83926d	0.016061032
171	0xbe321ada	-0.17393056
172	0x3e8a25d2	0.2698198
173	0xbe9036ed	-0.28166905
174	0x3d21b0db	0.039475303
175	0x3d9071ec	0.07052979
176	0x3f0aec37	0.54266685
177	0xbe6be86e	-0.23037884
178	0x3cf009cd	0.029301548
179	0x3eda9e5d	0.42698947
180	0x3e0e7753	0.13912706
181	0x3ca43c03	0.020048147
182	0xbec57867	-0.38568422
183	0xbda37010	-0.079803586
184	0xbd935482	-0.07193853
185	0x3eabe2d3	0.3357149
186	0x3dc507a3	0.09620597
187	0x3e1bc232	0.15210798
188	0xbe14a7d2	-0.14517143
189	0x3d847141	0.06466914
190	0x3d4f977b	0.050681572
191	0xbd3dcca4	-0.04633774
192	0xbea94afe	-0.33065027
193	0xbe8bf77a	-0.27337247
194	0xbe5967fa	-0.2123107
195	0xbd8f2cf2	-0.069909945
196	0x3e01566f	0.12630628
197	0xbe2b3cbf	-0.16722392
198	0x3ebee2a1	0.3728228
199	0xbea0789a	-0.31342012
200	0xbdc1a729	-0.094557114
201	0xbc779150	-0.015110329
202	0x3e94c34e	0.29055256
203	0x3de00c3c	0.109398335
204	0xbd4f3b6f	-0.05059379
205	0x3e78c983	0.2429562
206	0x3de8e36b	0.113715015
207	0xbec1faae	-0.37886566
208	0x3af49e7b	0.0018662954
209	0xbe0ce14d	-0.1375782
210	0xbc997086	-0.018730413
211	0xbe7e0de3	-0.24809985
212	0xbdaf5b35	-0.08562318
213	0x3c8a95cf	0.016917137
214	0x3e08dca5	0.13365419
215	0xbe1d7ce6	-0.15379676
216	0x3d9a6990	0.07539666
217	0xbd830503	-0.0639744
218	0x3e10663f	0.14101504
219	0x3d0f315b	0.03495918
220	0x3e98ab9f	0.29818437
221	0x3f299e40	0.66257095
222	0x3f16a6c3	0.5884821
223	0x3e08b128	0.1334883
224	0x3bdeadcd	0.006795621
225	0x3e94c8f8	0.29059577
226	0xbe91a459	-0.284457
227	0x3e3be362	0.18348458
228	0x3e7d8d25	0.24760874
229	0xbdafee51	-0.08590377
230	0x3f276d47	0.6540112
231	0x3c011ce4	0.007880423
232	0x3eb18666	0.3467285
233	0x3ed955f1	0.4244838
234	0x3cbaa23d	0.02278244
235	0x3e97c5e0	0.29643154
236	0x3df7bbd8	0.12096375
237	0x3e9c548e	0.3053326
238	0x3edcb107	0.4310381
239	0xbd762a79	-0.0600991
240	0x3d8b5355	0.06803004
241	0x3f0e1e0b	0.5551459
242	0x3efe1b20	0.4963007
243	0x3ed24554	0.41068518
244	0x3ec64e9d	0.38731852
245	0x3e53729b	0.20649187
246	0x3e8786e0	0.2647009
247	0x3da21ab5	0.0791525
248	0x3ef0bfca	0.47021323
249	0x3e1fdf17	0.15612446
250	0xbde69017	-0.11257952
251	0x3ee2df6e	0.44311088
252	0x3e86d749	0.26336125
253	0xbde9782b	-0.11399873
254	0x3ebd89df	0.3701925
255	0x3eb7db14	0.3590933

bias f4 [128]
0	0xbe083cb4	-0.13304406
1	0xbd7ee059	-0.062225673
2	0x3dd1c551	0.10242713
3	0xbc9a470d	-0.018832708
4	0x3e81c9af	0.25349185
5	0xbd8d6e4e	-0.069058046
6	0x3bb44529	0.0055014086
7	0xbd43e847	-0.04782894
8	0xbd9c34eb	-0.07627281
9	0xbd74603c	-0.05966209
10	0xbdbc7e5e	-0.0920379
11	0xbda8a9b7	-0.082354955
12	0xbd9e59a5	-0.07731942
13	0xbd57e581	-0.052709106
14	0xbd49a213	-0.04922683
15	0xbd1d3a0a	-0.03838543
16	0xbdd55ccf	-0.104180925
17	0xbd894653	-0.067028664
18	0xbdfe2198	-0.12408751
19	0xbda37106	-0.07980542
20	0xbd4d0167	-0.050050166
21	0xbda4f1ba	-0.08053918
22	0xbd652526	-0.05594363
23	0xbd2e8672	-0.042608686
24	0xbda6f3cd	-0.0815197
25	0xbcff8cab	-0.031195005
26	0xbc8e42ff	-0.01736593
27	0x3c341828	0.010992087
28	0xbd8cec3e	-0.06880997
29	0xbb1180d6	-0.0022202036
30	0xbe02847c	-0.12745851
31	0xbc610efb	-0.013736482
32	0xbcd43826	-0.02590568
33	0xbc8565fe	-0.016283985
34	0xbd3b2eac	-0.045698807
35	0xbd593c79	-0.053036187
36	0xbda4d455	-0.080483116
37	0xbd94d83e	-0.072678074
38	0x3b65710a	0.0035010003
39	0xbde1f577	-0.11033147
40	0xbd21d127	-0.039506104
41	0xbe1b58c1	-0.15170576
42	0xbd2c55bb	-0.042073946
43	0xbd9474e2	-0.07248856
44	0xbcc83d22	-0.024443213
45	0xbd75cc17	-0.06000909
46	0x3e26cb46	0.1628848
47	0x3c08d3c2	0.008351268
48	0xbd874fc9	-0.06607015
49	0xbd6afff9	-0.05737302
50	0x3c23d70a	0.01
51	0x3e8fddd6	0.28098935
52	0xbe1cb12e	-0.15301964
53	0xbda4654e	-0.08027135
54	0xbd615415	-0.055011827
55	0xbd18f768	-0.03734532
56	0xbbf70422	-0.0075383345
57	0xbd1458e2	-0.036217578
58	0xbdf1c3bb	-0.11804911
59	0xbc380abf	-0.011233031
60	0xbd8040da	-0.062623695
61	0xbdd8c469	-0.10584337
62	0xbd33a8e4	-0.04386224
63	0xbdc8045d	-0.09766457
64	0xbdec4a37	-0.11537593
65	0xbda3755f	-0.07981371
66	0xbda5cfa0	-0.08096242
67	0xbdddb576	-0.108256266
68	0xbcd31349	-0.025766032
69	0xbdc4776b	-0.0959309
70	0xbdb053cb	-0.08609732
71	0xbdb4c67b	-0.0882692
72	0x3c07581a	0.008260751
73	0xbd7ed530	-0.06221503
74	0xbdc2cce5	-0.09511737
75	0xbcf64df8	-0.030066475
76	0xbd9d458e	-0.07679282
77	0xbd49adb1	-0.04923791
78	0xbd007006	-0.031356834
79	0xbdf0e45b	-0.11762305
80	0xbd9fb830	-0.07798803
81	0xbdeec003	-0.11657717
82	0xbdaa157f	-0.08304881
83	0xbcb98f24	-0.022651263
84	0xbdc268f4	-0.094926745
85	0xbd0fdcff	-0.035122868
86	0xbd917bba	-0.07103677
87	0xbd808b03	-0.062765144
88	0xbd280f7f	-0.041030403
89	0x3c23d7bd	0.0100001665
90	0xbd699dbf	-0.057035204
91	0xbdceb43a	-0.10092969
92	0xbddc677d	-0.10761926
93	0xbd0aef28	-0.033919483
94	0x3901b030	0.00012368034
95	0xbda46aba	-0.08028169
96	0xbd3a2e3c	-0.04545425
97	0x3e927134	0.28601992
98	0xbdb201e8	-0.0869177
99	0xbda11a1f	-0.0786631
100	0xbd26c5c5	-0.04071595
101	0xbd8cfa91	-0.06883729
102	0xbcfb185e	-0.030651268
103	0xbdaca67f	-0.08430194
104	0xbd37bd53	-0.044858288
105	0xbdca4313	-0.09876075
106	0xbdb42a8f	-0.0879718
107	0xbdc6da66	-0.09709625
108	0xbd4cfa23	-0.050043236
109	0xbd14fbb5	-0.03637286
110	0x3c23d70a	0.01
111	0xbd76c97b	-0.06025074
112	0xbd646378	-0.055758923
113	0xbd627b59	-0.055293415
114	0xbd97a698	-0.07404822
115	0xbe055774	-0.13021642
116	0xbde2d8ef	-0.11076533
117	0xbd6da457	-0.058018055
118	0xbcb3eacc	-0.021962546
119	0xbd23c63e	-0.03998398
120	0x3a95cc18	0.0011428623
121	0xbdd51749	-0.10404832
122	0xbd93b588	-0.07212359
123	0xbdbfa642	-0.09357883
124	0xbd281045	-0.04103114
125	0x3c23d70a	0.01
126	0xbcb39ffd	-0.021926874
127	0x3c41a41f	0.011818915

weight f4 [128, 128]
0	0x3eb6200f	0.35571334
1	0x3e763730	0.2404449
2	0x3e879f1f	0.26488587
3	0x3c95b3e7	0.01827426
4	0x3dee6038	0.11639446
5	0xbe80bc28	-0.25143552
6	0xbe1fa33e	-0.15589616
7	0xbea12626	-0.31474417
8	0x3e7e410f	0.24829505
9	0xbe312908	-0.17300808
10	0x3db782bc	0.089604825
11	0x3e8e937f	0.27846906
12	0x3ea1fe6c	0.3163942
13	0x3e1c694d	0.15274544
14	0x3e72c3ef	0.23707555
15	0xbd8a4011	-0.06750501
16	0x3ee54163	0.4477645
17	0x3f08ea84	0.5348284
18	0x3f009ec4	0.5024226
19	0x3db3b917	0.087755375
20	0x3e7b7149	0.24554934
21	0x3c80e8fd	0.015736097
22	0x3f0d5211	0.5520335
23	0x3f0c1084	0.547127
24	0x3eea4461	0.45755294
25	0x3ebcb376	0.36855668
26	0xbe552c76	-0.20817742
27	0xbd50e742	-0.051001795
28	0x3e9d5549	0.3072913
29	0x3e1101c6	0.14160833
30	0x3ed3435e	0.41262335
31	0xbe14606f	-0.14489911
32	0xbdab7319	-0.083715625
33	0xbd43faff	-0.04784679
34	0xbe369224	-0.17829186
35	0xbe816e6f	-0.25279567
36	0x3e418983	0.18900113
37	0xbec6759a	-0.38761598
38	0xbdcb7991	-0.09935296
39	0x3f014b0e	0.5050515
40	0x3d1e9713	0.038718294
41	0xbe955888	-0.29169106
42	0x3f045ba7	0.5170235
43	0xbe6e389e	-0.23263785
44	0x3e8d6d6e	0.2762255
45	0xbef6e924	-0.48224747
46	0xbd830082	-0.06396581
47	0xbda934f6	-0.082620546
48	0x3ec01ebc	0.37523448
49	0xbe431500	-0.1905098
50	0xbe0e05c2	-0.13869384
51	0xbd98e70e	-0.07465945
52	0xbcf73eb3	-0.030181265
53	0x3ddb17a4	0.106978685
54	0xba2530a1	-0.0006301497
55	0x3f5fb7e1	0.8738995
56	0x3da37b03	0.07982447
57	0x3d1317a4	0.035911217
58	0x3f08c171	0.5342017
59	0x3e9c45ea	0.3052209
60	0xbd901d15	-0.07036797
61	0x3ed7d0d5	0.42151514
62	0x3ec8a903	0.39191446
63	0xbdfe036c	-0.124029964
64	0xbe25b6d9	-0.16183032
65	0x3f1c6446	0.61090505
66	0x3b8fec4b	0.004392182
67	0x3ecdd5b0	0.40202093
68	0x3e969562	0.29410845
69	0x3ecb4896	0.39703816
70	0xbe751ec0	-0.23937511
71	0x3f44ce8d	0.7687767
72	0x3dee95ed	0.1164969
73	0x3da4f600	0.08054733
74	0x3f4724d0	0.77790546
75	0x3e883b5a	0.26607782
76	0x3ef56f64	0.47936547
77	0x3e1c878f	0.15286086
78	0x3eef2d4a	0.4671424
79	0x3d124baa	0.03571669
80	0x3d8f50a4	0.06997803
81	0x3eba9e02	0.36448675
82	0xbdb0aac2	-0.086263195
83	0x3e63f6b2	0.22262076
84	0x3ebe4803	0.37164316
85	0xbd466c09	-0.048442874
86	0x3da277bc	0.07932994
87	0x3e215e7c	0.15758699
88	0x3ca8c94c	0.020603798
89	0xbe370161	-0.1787162
90	0x3f16e620	0.5894489
91	0x3e979ab6	0.29610223
92	0x3da69d3e	0.0813546
93	0x3d61b140	0.05510068
94	0xbe6dcb49	-0.23222078
95	0x3e16496a	0.14676443
96	0x3ed9c9f5	0.42536893
97	0xbe20d7e9	-0.15707363
98	0x3e884e16	0.26622075
99	0x3e53902e	0.20660469
100	0xbd2e2d65	-0.04252376
101	0xbe511b8b	-0.20420663
102	0x3eb422ec	0.35182893
103	0x3de5a9da	0.11214037
104	0x3dd419fa	0.10356517
105	0x3e8c4353	0.27395114
106	0xbdd1a5cd	-0.10236702
107	0x3e81551f	0.25260255
108	0x3df4987d	0.11943147
109	0x3f12aeb2	0.57297814
110	0x3e4273e3	0.1898952
111	0x3edcbd3f	0.43113133
112	0xbe84ce7a	-0.2593878
113	0x3d3cda40	0.046106577
114	0x3e3005d0	0.17189717
115	0x3d5dc274	0.054140523
116	0x3e6d1162	0.23151162
117	0x3fa7fd99	1.3124267
118	0xbd492e77	-0.049116578
119	0x3f6bb2aa	0.92069495
120	0x3e54a5f1	0.20766427
121	0x3e42b2ea	0.19013563
122	0xbd4467db	-0.047950607
123	0x3e331278	0.17487514
124	0x3d9d1e65	0.07671813
125	0xbd33e93c	-0.0439236
126	0x3ed24970	0.41071653
127	0x3d39bfa2	0.04534877
128	0x3e5f446c	0.21803445
129	0xbe029737	-0.12752996
130	0x3e15d092	0.14630345
131	0xbe881b63	-0.26583394
132	0x3dd8c9cc	0.10585365
133	0xbde1824f	-0.110111825
134	0x3d9340a4	0.071900636
135	0x3e7217bf	0.23641871
136	0x3c05be17	0.008162997
137	0x3f1871fe	0.5954894
138	0xbd33797a	-0.04381702
139	0xbdfe8f51	-0.12429679
140	0x3eb04528	0.34427762
141	0x3ea6116d	0.3243517
142	0x3e895176	0.26819962
143	0x3e864da5	0.26231113
144	0x3d10ebcb	0.03538112
145	0x3d82c625	0.06385449
146	0xbe183368	-0.1486336
147	0x3ebdd88a	0.3707927
148	0x3c7d9b83	0.015478971
149	0x3dc6532a	0.09683831
150	0x3e7e88e1	0.24856903
151	0x3f060aaf	0.5236005
152	0x3e831b14	0.25606596
153	0x3d5d43c0	0.05401969
154	0x3df6078f	0.120131604
155	0xbd0014b6	-0.03126975
156	0x3ec17a98	0.37788844
157	0xbe2e2763	-0.17007212
158	0x3e833ce4	0.25632393
159	0xbc1743d2	-0.009232478
160	0xbdd547a2	-0.104140535
161	0xbe21551e	-0.15755126
162	0x3e7f9a04	0.24961096
163	0xbea22a40	-0.3167286
164	0xbe01606f	-0.12634443
165	0x3f1783bf	0.59185404
166	0xbe517e0e	-0.20458242
167	0x3e59ec07	0.21281444
168	0x3d94ac6a	0.07259448
169	0x3e82d2c3	0.25551423
170	0xbdbaf08c	-0.09127912
171	0x3def8d45	0.11696867
172	0x3d9c9617	0.07645815
173	0x3e88d732	0.2672668
174	0xbe2d1a2d	-0.16904517
175	0xbe3dba9a	-0.18528214
176	0x3eb5b5d9	0.354903
177	0x3d964740	0.073378086
178	0xbde69d74	-0.112605006
179	0xbba2b186	-0.00496501
180	0x3ebeab17	0.37239906
181	0x3e8ff5f3	0.28117332
182	0x3e1cebd3	0.15324335
183	0x3d9adae0	0.07561278
184	0x3e5a9314	0.21345168
185	0x3ebf98ea	0.37421352
186	0x3e89d5bb	0.26920876
187	0xbd4ebcc0	-0.050472975
188	0xbdce6f42	-0.100798145
189	0x3f4a077e	0.7891768
190	0xbbefe5a2	-0.0073210755
191	0x3e7ca107	0.24670802
192	0x3dd4a2ba	0.103826
193	0xbe41320e	-0.1886675
194	0xbe7c162c	-0.24617833
195	0x3e8f47b3	0.2798439
196	0x3e6fc2e1	0.23414184
197	0x3ec6c2fe	0.38820642
198	0x3f1c324c	0.61014247
199	0xbe12819b	-0.14307253
200	0x3dccd5aa	0.10001691
201	0xbe5c3d88	-0.21507847
202	0x3f143838	0.57898283
203	0x3e594c9b	0.21220629
204	0x3f1bf9cd	0.6092804
205	0x3ecb468a	0.39702255
206	0x3dd6e7a4	0.10493401
207	0x3e54c2fc	0.20777506
208	0x3edefc51	0.43551877
209	0x3e8828b1	0.26593545
210	0x3ec7dde0	0.39036465
211	0xbdaa9a90	-0.08330262
212	0xbaece77c	-0.0018074359
213	0x3e9e7747	0.30950376
214	0x3cc6ab0a	0.02425148
215	0xbe00005d	-0.12500139
216	0xbe9dbf8e	-0.30810207
217	0x3b8d3e8a	0.0043104338
218	0x3dcda01f	0.10040306
219	0x3e8e5307	0.2779772
220	0x3f10c8cf	0.5655641
221	0x3f4774eb	0.7791278
222	0x3da5214f	0.08062994
223	0x3d550f71	0.05201668
224	0x3f152db3	0.58272856
225	0xbd83d1f4	-0.0643653
226	0x3f643784	0.8914721
227	0xbe078cd1	-0.13237311
228	0x3cd2b5ea	0.025721509
229	0x3ee0963b	0.43864617
230	0x3e68841c	0.22706646
231	0x3eaad36b	0.33364424
232	0x3f0c77f3	0.5487053
233	0x3eaa1689	0.33220318
234	0xbe38fa9f	-0.18064354
235	0x3e8ab3f4	0.27090418
236	0x3ec512df	0.3849096
237	0x3f048384	0.51763177
238	0x3e046b1b	0.12931482
239	0x3e0bc38f	0.13648818
240	0xbd96ac21	-0.0735705
241	0xbe75010a	-0.23926178
242	0xbe554cb8	-0.20830047
243	0x3e67fc3d	0.22654815
244	0xbf01481a	-0.50500643
245	0x3ef00ac8	0.46883225
246	0xbd72d441	-0.059284452
247	0x3f0e22b0	0.5552168
248	0xbd371f0d	-0.044707347
249	0xbd815778	-0.063155115
250	0x3e9ea43a	0.3098467
251	0x3ea8a8e2	0.32941347
252	0x3f003ad4	0.50089765
253	0x3e0cc81b	0.13748209
254	0x3f0047cf	0.5010957
255	0x3db42d43	0.087976955

bias f4 [128]
0	0x3bf2a898	0.007405352
1	0x3d182228	0.03714195
2	0x3d318d19	0.04334745
3	0xbd1b553d	-0.037923086
4	0x3cdf088a	0.027225751
5	0x3c276f60	0.010219425
6	0xbd04fbf9	-0.032466862
7	0xbda5fc2b	-0.08104738
8	0x3d7064db	0.058689933
9	0xbb07dae5	-0.0020729837
10	0xbd3f6cf0	-0.04673475
11	0x3d0555c8	0.03255251
12	0xbb82d801	-0.003993035
13	0xbde248a9	-0.11049015
14	0x3c9fcdeb	0.019507369
15	0x3d7ba230	0.06143397
16	0x3c23d70a	0.01
17	0x3d0b93ea	0.03407661
18	0x3dc24262	0.09485318
19	0x3d7ad364	0.061236754
20	0x3cca0e31	0.02466497
21	0x3d837349	0.06418473
22	0x3d0ffc28	0.035152584
23	0xbd3d34cd	-0.046192933
24	0xbcd19c02	-0.025587086
25	0xbd4bea9d	-0.04978429
26	0x3b4ed9cb	0.003156292
27	0x3dc20ee4	0.094754964
28	0xbcd77576	-0.026301127
29	0xbd4a00d1	-0.049317185
30	0xbcc868a5	-0.02446396
31	0xbd75f778	-0.060050458
32	0xbd677c73	-0.05651517
33	0x3a8845eb	0.0010396814
34	0xbc5521f0	-0.01300858
35	0x3cd4d028	0.025978163
36	0xbe164265	-0.14673765
37	0xbd443fb8	-0.04791233
38	0xbd01881b	-0.03162394
39	0x3de181c5	0.1101108
40	0xbdea0823	-0.11427333
41	0x3d1670f8	0.03672883
42	0xbb554901	-0.0032544734
43	0xbcb21e3d	-0.021742934
44	0xbd12120d	-0.035661746
45	0x3d23a51e	0.03995239
46	0x3c0a7fce	0.008453323
47	0x3cb98451	0.022646101
48	0xbc6c0574	-0.014405597
49	0xbcd9fa20	-0.026608527
50	0x3d265dbc	0.040616736
51	0xbcf94281	-0.03042722
52	0xb8a212f4	-7.728292e-05
53	0xbe17a104	-0.14807516
54	0xbdbf40c7	-0.09338527
55	0xbcf1042b	-0.029420933
56	0x3c72f484	0.014828805
57	0xbe0b7c49	-0.1362163
58	0x3bf89c1e	0.00758697
59	0xbbbbe2bc	-0.005733816
60	0x3c2412f3	0.0100142835
61	0xbc353b5c	-0.011061516
62	0xbcf84a2f	-0.030308811
63	0x3bc912b5	0.0061362633
64	0x3d1c70fb	0.038193684
65	0x3d993355	0.07480494
66	0x3dd666ae	0.10468803
67	0x3d1bc305	0.038027782
68	0xbd76416e	-0.060120992
69	0x3db05b7c	0.08611199
70	0xbd59d996	-0.05318602
71	0x3da5ee62	0.081021085
72	0x3d9e5727	0.07731467
73	0x3d0cb2c9	0.03435019
74	0xbca26a24	-0.019826002
75	0x3c789984	0.01517332
76	0xbd39af54	-0.04533322
77	0x3b1e3a57	0.002414366
78	0xbce9e664	-0.028552242
79	0xbc35d6fc	-0.01109862
80	0xbba6bba8	-0.0050882883
81	0x3d2b8412	0.041874
82	0x3c3b825d	0.011444655
83	0xbdc2ad33	-0.095056914
84	0xbd40ea7a	-0.047098614
85	0x3c093be7	0.008376098
86	0xbce1f69a	-0.02758341
87	0xbd8f07fc	-0.06983945
88	0x3d3d7406	0.046253227
89	0x3dab8749	0.08375413
90	0xbddb2257	-0.10699909
91	0x3d429bad	0.047511745
92	0x3d9a414f	0.07531988
93	0xbd753aa2	-0.05987037
94	0xbd15ace4	-0.036541834
95	0x3cd9b0a6	0.02657349
96	0xbcbc63cd	-0.022996807
97	0xbd09fde4	-0.033689395
98	0xbd8845c1	-0.066539295
99	0x3d5259ac	0.05135505
100	0x3dacbf87	0.084349684
101	0x3d4e26e0	0.050330043
102	0xbd8cd02f	-0.06875645
103	0x3c6f9ae9	0.014624336
104	0x3dc7e6cb	0.09760817
105	0x3d6f13a4	0.05836834
106	0x3d80e6b5	0.06294004
107	0x3d2f9de6	0.042875193
108	0xbdcf709a	-0.10128899
109	0xbda5f7cd	-0.08103905
110	0xbd1cbe5c	-0.03826748
111	0x3e001cec	0.12511033
112	0x3db0d545	0.08634428
113	0x3c81065a	0.015750099
114	0x3c1d5850	0.009603575
115	0xbaf1ada5	-0.0018438591
116	0x3e03a0c3	0.12854294
117	0x3ca6a834	0.020343877
118	0x3d80db43	0.06291821
119	0xbd87eef7	-0.06637376
120	0x3cbdaaa8	0.023152664
121	0xbd24e7e9	-0.04026023
122	0x3d1406e8	0.0361394
123	0xbd6e8157	-0.058228817
124	0xbd0eb96c	-0.0348448
125	0xbd8279ea	-0.063709095
126	0xbcb07458	-0.021539852
127	0xbcd9a0f7	-0.026566012

weight f4 [12, 128]
0	0xbf615c65	-0.8803161
1	0x3da27dc3	0.079341434
2	0xbf1280a1	-0.5722752
3	0xbf57e676	-0.8433603
4	0xbfad0186	-1.351609
5	0xba2a080f	-0.0006486186
6	0x3e0b2676	0.1358889
7	0xbf0dcdc2	-0.55392087
8	0xbf7d896c	-0.99037814
9	0xbe7b0aa7	-0.24515782
10	0x3e24cba3	0.16093306
11	0xbdd96401	-0.10614777
12	0xc0091e5b	-2.1424778
13	0xbe8078d0	-0.25092173
14	0x3d8a9b74	0.067679316
15	0xbf19965e	-0.5999507
16	0xbe0382f8	-0.1284293
17	0xbd63d78b	-0.05562548
18	0xbfad90b9	-1.3559791
19	0xbe30b981	-0.17258264
20	0x3e33aa97	0.17545544
21	0xbf5b82f8	-0.8574672
22	0xbf82bc20	-1.0213661
23	0xbf5b52cb	-0.8567321
24	0xbeab0390	-0.33401155
25	0x3bac2703	0.005253674
26	0xbdb4238d	-0.08795843
27	0xbd8d7a43	-0.06908085
28	0x3ddfdd08	0.1093083
29	0xbf27b1b1	-0.6550551
30	0xbd56f8ea	-0.052483477
31	0x3bb890d2	0.0056324983
32	0xbe6c71d7	-0.23090301
33	0xbf6063c5	-0.87652236
34	0xbd85639e	-0.06513141
35	0xbf4a9cc0	-0.7914543
36	0xbd330384	-0.043704525
37	0xbcfb66ab	-0.030688604
38	0x3debd128	0.11514503
39	0xbe37168f	-0.17879699
40	0xbdaf6f80	-0.08566189
41	0x3e4b2276	0.19837365
42	0x3e131432	0.14363173
43	0xbeae25bd	-0.34013167
44	0xbf59d215	-0.85086185
45	0xbe37e31d	-0.1795773
46	0x3e249dc1	0.16075803
47	0x3ea9d76b	0.33172163
48	0xbdcd77fb	-0.1003265
49	0x3e2a9471	0.16658188
50	0x3e216883	0.15762524
51	0xbf7f0372	-0.9961463
52	0x3ec448ab	0.3833669
53	0xbf89797a	-1.0740197
54	0xbf996060	-1.1982536
55	0xbf840b97	-1.0316037
56	0xbf2432bd	-0.6413992
57	0xbd99235f	-0.074774496
58	0xbdd72e0e	-0.10506831
59	0x3d9d6196	0.07684629
60	0xbf41f0b4	-0.7575791
61	0xbf0ca475	-0.5493844
62	0x3e81a693	0.253224
63	0xbe468f9c	-0.1939072
64	0xbd667dab	-0.05627219
65	0x3d43dc4d	0.047817517
66	0x3ed1ac70	0.40951872
67	0xbe176cff	-0.14787672
68	0x3d87f538	0.06638569
69	0xbf67fe30	-0.90622234
70	0xbe9c2c5e	-0.305026
71	0xbf9aee1a	-1.2103913
72	0xbfb5d0d0	-1.420435
73	0x3e4fe898	0.20303571
74	0xbfcdbf9a	-1.6074097
75	0xbfca5703	-1.5807804
76	0x3dc5fdb1	0.096675284
77	0xbf84c3e2	-1.0372279
78	0xbfd88ad5	-1.6917368
79	0x3d18049b	0.037113767
80	0xbf90ba0f	-1.130678
81	0xbdc80907	-0.09767347
82	0xbdb64f18	-0.08901805
83	0xbf85ec94	-1.0462823
84	0xbf2935d3	-0.66097754
85	0xbf7c07bd	-0.9844931
86	0x3e2283a0	0.15870523
87	0xbe9f3178	-0.3109243
88	0x3da8bd06	0.08239178
89	0xbf83b696	-1.0290096
90	0xbf680102	-0.9062654
91	0x3da56781	0.080763824
92	0xbf09bce4	-0.5380385
93	0xbf2e07e7	-0.6798081
94	0x3d8c86c1	0.0686164
95	0xbf22763a	-0.6346165
96	0xbf1df5da	-0.61703265
97	0xbf36afe9	-0.7136217
98	0xbe489033	-0.19586258
99	0xbf3856b1	-0.7200728
100	0xbeac2a63	-0.33626089
101	0x3e115789	0.14193548
102	0xbc537683	-0.012906673
103	0xbe829e9d	-0.25511637
104	0xbebd43c1	-0.36965755
105	0xbe4338c9	-0.1906463
106	0x3ebf7a0a	0.37397796
107	0xbfb79093	-1.4340996
108	0xbec311ac	-0.3809942
109	0xbe88ee7b	-0.26744446
110	0xbe8f3455	-0.27969614
111	0xc01f4918	-2.4888363
112	0x3e377556	0.17915854
113	0xbf4c9333	-0.7991211
114	0xbd080b08	-0.033213645
115	0xc01e6a1f	-2.475227
116	0x3e6e0a46	0.23246107
117	0x3e3c48df	0.18387173
118	0xbd740f0c	-0.059584662
119	0xbcc85c1b	-0.024457982
120	0xbf13f68b	-0.5779807
121	0xbf0b1808	-0.54333544
122	0x3f1b2e85	0.6061786
123	0xbd731499	-0.059345815
124	0xbfa08f52	-1.2543738
125	0xbe462571	-0.1935022
126	0xbdc763fb	-0.09735867
127	0xbd775e14	-0.060392454
128	0xbea20571	-0.31644776
129	0xbc8b94f5	-0.017038802
130	0xbea6c260	-0.3257017
131	0xbf5d1ded	-0.8637379
132	0xbf46f4e5	-0.7771743
133	0xbe0d70d3	-0.1381257
134	0xba976b7f	-0.0011552422
135	0xbe8be197	-0.2732055
136	0xbfabfd80	-1.3436737
137	0xbe44f529	-0.19234146
138	0xbf0ca19d	-0.549341
139	0xbe816db9	-0.25279024
140	0xc0127a7b	-2.2887256
141	0xbeb46779	-0.35235193
142	0xbd117e79	-0.035521004
143	0xbf7c0609	-0.9844671
144	0xbe577238	-0.21039665
145	0x3e0a9660	0.13533926
146	0xbddd1ed2	-0.10796894
147	0xbdd189d0	-0.10231364
148	0xbf6f3aa4	-0.93448853
149	0xbec1de29	-0.37864807
150	0xbf773baa	-0.96575415
151	0x3d910ee3	0.070829175
152	0xbf951582	-1.1647189
153	0xbd8ab143	-0.06772091
154	0xbe0dd879	-0.13852109
155	0xbf99ede7	-1.2025727
156	0x3d31e0a0	0.04342711
157	0xbdf56cb5	-0.11983625
158	0xbe484116	-0.19556078
159	0xbe144436	-0.14479145
160	0xbec72c3b	-0.38900933
161	0xbeaaff3e	-0.3339786
162	0xbf589b7f	-0.8461227
163	0xbfd0bfaf	-1.6308497
164	0x3e0bc8c3	0.13650803
165	0xbf9b43bf	-1.213005
166	0x3db982f7	0.09058183
167	0xbe4d8691	-0.20070864
168	0xbe04e273	-0.12977009
169	0xbfb0b453	-1.380503
170	0x3ea8a467	0.3293793
171	0xbda95aa8	-0.082692444
172	0xbf52f071	-0.82398134
173	0xbf916651	-1.135935
174	0xc003f814	-2.0620165
175	0xbf338947	-0.70131344
176	0xbd05267d	-0.03250741
177	0x3dcc9a33	0.09990349
178	0xbf802335	-1.0010744
179	0x3da88e10	0.08230221
180	0x3e7e15bc	0.24812979
181	0xbf3e69c6	-0.7438015
182	0xbe31f015	-0.1737674
183	0x3e032da8	0.12810385
184	0xbe7f04fd	-0.24904247
185	0x3dfd8d03	0.123804115
186	0xbe90757b	-0.2821463
187	0xbd93916b	-0.07205471
188	0xbf34d657	-0.70639557
189	0xbf0bd9f0	-0.5462942
190	0xbf23dfbc	-0.64013267
191	0xbea811cd	-0.3282608
192	0xbd574180	-0.0525527
193	0xbe5a07dc	-0.2129206
194	0xbe16f0dd	-0.1474032
195	0xbc833593	-0.016016757
196	0xbf8bd796	-1.0925167
197	0xbdb3373d	-0.0875077
198	0x3cb9eb9d	0.022695357
199	0x3f1e4b57	0.6183371
200	0xbf8d5d52	-1.1044104
201	0x3e13dfc3	0.14440827
202	0x3dbbce1e	0.09170173
203	0xbf7dd230	-0.99148846
204	0x3cd071ce	0.025444891
205	0xbf56701b	-0.8376481
206	0x3f4e1579	0.80501515
207	0x3dca307e	0.098725304
208	0xbfa0b135	-1.2554079
209	0xbcae940e	-0.021310832
210	0xbe29738c	-0.16547984
211	0xbf6da461	-0.9282895
212	0xbf68d409	-0.9094854
213	0xbf6c36aa	-0.9227091
214	0xbe23e2de	-0.16004512
215	0xbe3a3308	-0.1818353
216	0xbf4738af	-0.7782087
217	0xbff4d624	-1.912785
218	0x3dc05a58	0.09392232
219	0x3e5dd1ef	0.21662115
220	0xbfc84915	-1.5647303
221	0xbe7b5555	-0.2454427
222	0xbd3a0030	-0.045410335
223	0xbe822a87	-0.2542307
224	0xbdeb319a	-0.1148407
225	0xbe9204e7	-0.28519365
226	0x3e404e7e	0.18779942
227	0xbe0d86d1	-0.1382096
228	0xbe328298	-0.1743263
229	0xbe74bed8	-0.23900926
230	0xbcb3842f	-0.021913616
231	0xbe0ff018	-0.14056432
232	0xbf93198b	-1.149217
233	0x3d59d5ed	0.05318253
234	0xbfe54df4	-1.7914414
235	0x3e608acf	0.21927951
236	0xbf1e3c73	-0.6181099
237	0xbd8e1001	-0.06936646
238	0xbe948c59	-0.29013327
239	0xc008a2e9	-2.1349432
240	0x3e617c03	0.22019963
241	0xbed119bd	-0.4083995
242	0x3e46532d	0.19367667
243	0xbfb9b881	-1.4509431
244	0x3e2e6956	0.1703237
245	0x3db020c2	0.08599998
246	0xbfb44742	-1.4084246
247	0x3e1c25e3	0.15248828
248	0xbf83c025	-1.0293013
249	0xbe0a1095	-0.13482888
250	0xbf85f6c9	-1.0465938
251	0xbee94a8e	-0.45564693
252	0xbfb4b23c	-1.4116893
253	0xbe6359ff	-0.222023
254	0xbd8ea9ea	-0.06966002
255	0x3e48cd22	0.19609502

bias f4 [12]
0	0x3ccc7787	0.024959339
1	0x3db47b52	0.08812584
2	0x3df9557c	0.12174508
3	0x3d920aab	0.07130941
4	0x3e068029	0.13134827
5	0x3dcbf207	0.099582724
6	0x3d337a0f	0.043817576
7	0x3c1432d0	0.009045318
8	0xbcb9b619	-0.022669839
9	0x3e3a8ad4	0.18217021
10	0x3c16aa05	0.009195809
11	0x3cbe68be	0.023243304

exp_avg f4 [128, 54]
0	0xb10e7d8a	-2.073508e-09
1	0xb10e7d88	-2.0735076e-09
2	0xb10e7d88	-2.0735076e-09
3	0xa64427d9	-6.8055164e-16
4	0x00000000	0.0
5	0x9d20808b	-2.1242279e-21
6	0xb153f229	-3.0842193e-09
7	0xb153f229	-3.0842193e-09
8	0xb153f229	-3.0842193e-09
9	0xb09d86fa	-1.1461616e-09
10	0xb01d86f9	-5.7308075e-10
11	0xb01d86f9	-5.7308075e-10
12	0xb10e7d8a	-2.073508e-09
13	0xb01d86f9	-5.7308075e-10
14	0xb01d86f9	-5.7308075e-10
15	0x24b502d3	7.850102e-17
16	0xb01d86f2	-5.7308036e-10
17	0xb01d870a	-5.730817e-10
18	0xb11d86f9	-2.292323e-09
19	0xb09d86f9	-1.1461615e-09
20	0xb144e8b3	-2.8654028e-09
21	0xb11d86f9	-2.292323e-09
22	0xb09d86f9	-1.1461615e-09
23	0xb144e8b3	-2.8654028e-09
24	0xb11d86f5	-2.292322e-09
25	0xb09d86f6	-1.1461612e-09
26	0xb144e8b3	-2.8654028e-09
27	0xb0ec4a76	-1.7192423e-09
28	0xb0ec4a76	-1.7192423e-09
29	0xa697d807	-1.0536284e-15
30	0xb0ec4a76	-1.7192423e-09
31	0xb0ec4a76	-1.7192423e-09
32	0xb153f229	-3.0842193e-09
33	0xb0ec4a7c	-1.719243e-09
34	0xb0ec4a75	-1.7192422e-09
35	0xb09d86fd	-1.1461619e-09
36	0xb09d86fa	-1.1461616e-09
37	0xb11d86f9	-2.292323e-09
38	0x24b9e680	8.062144e-17
39	0xb09d86fa	-1.1461616e-09
40	0xb11d86f9	-2.292323e-09
41	0x24b02083	7.638291e-17
42	0xb1143811	-2.1568705e-09
43	0xb1143812	-2.1568707e-09
44	0xb1143812	-2.1568707e-09
45	0xaf14ee29	-1.3545133e-10
46	0xaf14ee39	-1.3545155e-10
47	0xaf14ee39	-1.3545155e-10
48	0xa698263e	-1.0557484e-15
49	0xb144e8b3	-2.8654028e-09
50	0xb09d86fd	-1.1461619e-09
51	0xa5d8492e	-3.7519616e-16
52	0xb144e8b3	-2.8654028e-09
53	0xb09d86f9	-1.1461615e-09
54	0xbf0c2a09	-0.5475164
55	0xc130e32f	-11.055465
56	0xc1325b66	-11.147314
57	0xbf29bef4	-0.66306996
58	0x00000000	0.0
59	0x3cbc4669	0.022982793
60	0xbf28ce76	-0.65940034
61	0x3c8b1e01	0.01698208
62	0x3d23b0b2	0.03996343
63	0xc172c44d	-15.172925
64	0x4001037a	2.0158372
65	0x40389cbf	2.884567
66	0xbe905e25	-0.28196827
67	0xbfdd70a3	-1.7299999
68	0xbf675ada	-0.90373003
69	0xbe9b41ca	-0.3032363
70	0xbfde0b93	-1.7347282
71	0xbf6890c9	-0.90845925
72	0x3e9304f5	0.2871472
73	0x3e930509	0.2871478
74	0x40ea65ad	7.3249116
75	0xc05d70a3	-3.4599998
76	0xc05d70a3	-3.4599998
77	0xc0f171e3	-7.545152
78	0xc05caa5d	-3.4478981
79	0xc05d9bee	-3.4626422
80	0xc0f1c212	-7.55494
81	0xc10a9372	-8.660997
82	0xc0a846d3	-5.2586455
83	0xc0d236e4	-6.5692005
84	0xbfa13e53	-1.2597145
85	0xc0a6147a	-5.1899996
86	0xc0cff34f	-6.4984508
87	0xbfa1998c	-1.2624984
88	0xc0a6481d	-5.196303
89	0xc0d03154	-6.5060215
90	0xc1194625	-9.579625
91	0xc0f42138	-7.629055
92	0xc0f42137	-7.6290545
93	0xc1828869	-16.316607
94	0xc0dd70a3	-6.9199996
95	0xc0dd70a3	-6.9199996
96	0xc17a9599	-15.661523
97	0x4109d047	8.613349
98	0x4108b5c8	8.54438
99	0xc1220685	-10.126592
100	0xc1170be1	-9.4404
101	0xc116addc	-9.417446
102	0xc116882d	-9.408246
103	0xc10a6667	-8.650001
104	0xc10a849b	-8.657374
105	0x3fac4368	1.3458071
106	0xc111093c	-9.0647545
107	0xc1112771	-9.072129
108	0xc1a1f040	-20.24231
109	0xc2604189	-56.064
110	0xc30dd440	-141.8291
111	0x41277e10	10.468277
112	0x00000000	0.0
113	0xc2c5bb09	-98.8653
114	0x41d75318	26.915573
115	0x41543b8e	13.26454
116	0xc2ab474a	-85.63924
117	0xc3052f22	-133.18411
118	0xc22cfce4	-43.246964
119	0x40a28a12	5.0793543
120	0xc286fb67	-67.49102
121	0xc19f1597	-19.885542
122	0x4224596c	41.087326
123	0xc2960eaf	-75.02868
124	0xc1dbc054	-27.46891
125	0x41a5b190	20.7117
126	0xc24f6a70	-51.853943
127	0xc1aad0de	-21.351986
128	0x42511d9e	52.278923
129	0xc293d62e	-73.91832
130	0xc21f1597	-39.771084
131	0x410a3a38	8.639214
132	0xc2b76a4a	-91.707596
133	0xc266159d	-57.521107
134	0x406b8f00	3.680603
135	0xc2454827	-49.32046
136	0xc0f67648	-7.7019386
137	0xc228f72e	-42.241386
138	0xc2a3127a	-81.53609
139	0xc26ea054	-59.65657
140	0xc2bc6320	-94.1936
141	0xc2915644	-72.66849
142	0xc23e4fc4	-47.577896
143	0xc2a42799	-82.07734
144	0xc2a9b100	-84.8457
145	0xc280c9a1	-64.39381
146	0x3f323b00	0.69621277
147	0xc2e9bf6a	-116.873856
148	0xc29f1597	-79.54217
149	0xc155f760	-13.372894
150	0xc2d0353c	-104.10397
151	0xc203dcbe	-32.96557
152	0x42045a3e	33.088127
153	0xc2b8113e	-92.033676
154	0xc1f38e08	-30.444351
155	0x41db8574	27.440163
156	0xc3213d41	-161.23927
157	0xc2c6daff	-99.42773
158	0xc2283f3c	-42.061752
159	0xc324c7a0	-164.77979
160	0xc3004d8e	-128.30295
161	0xc28eef1d	-71.46702
162	0xc19abe7b	-19.343008
163	0xbc117fec	-0.008880597
164	0xc28c6af7	-70.208916
165	0xc19a91fb	-19.32128
166	0x00000000	0.0
167	0xc28c6970	-70.20593
168	0xc19a95fb	-19.323233
169	0x3c198599	0.009370231
170	0xc28c697c	-70.206024
171	0xc13c3e56	-11.765219
172	0xc13c2974	-11.76012
173	0xc13c9033	-11.785205
174	0xc13c31f6	-11.7621975
175	0xc13c1d33	-11.757129
176	0xc13c719e	-11.777739
177	0xc13c2673	-11.759387
178	0xc13c358e	-11.763075
179	0xc13c9931	-11.7874
180	0xc20e3306	-35.549828
181	0xc1bc227e	-23.516842
182	0x41c2f4ac	24.369469
183	0xc20e2a75	-35.541462
184	0xc1bc1d33	-23.514257
185	0x41c2dc68	24.35762
186	0xc20e2b34	-35.54219
187	0xc1bc2516	-23.518108
188	0x41c2e9ac	24.364098
189	0xc20d1114	-35.266678
190	0xc20d143e	-35.269768
191	0xc20d1082	-35.26612
192	0xc20d1e1e	-35.27941
193	0xc20d15e6	-35.271385
194	0xc20d05ea	-35.255775
195	0xc20d2876	-35.289513
196	0xc20d15b6	-35.271202
197	0xc20d04be	-35.25463
198	0xc27c3ed6	-63.061363
199	0xc23c1382	-47.01905
200	0x41b765a8	22.924637
201	0xc27c2ebc	-63.04564
202	0xc23c1d33	-47.028515
203	0x41b71e6e	22.889858
204	0xc27c29d0	-63.040833
205	0xc23c187f	-47.023922
206	0x41b73887	22.902601
207	0xc28ea492	-71.32143
208	0xc26b20e7	-58.78213
209	0xc239e61a	-46.47471
210	0xc28eab6c	-71.33481
211	0xc26b2485	-58.785664
212	0xc239dadf	-46.46374
213	0xc28e97f7	-71.29681
214	0xc26b0dea	-58.763588
215	0xc239c8d9	-46.44614
216	0x42614ae7	56.323147
217	0x4137e353	11.492999
218	0xc225db40	-41.46411
219	0x41f05114	30.039589
220	0x00000000	0.0
221	0xc226fa41	-41.74439
222	0x41bf06c4	23.878304
223	0xc051ff93	-3.281224
224	0xc2341038	-45.01584
225	0x42961f65	75.06132
226	0x4289e194	68.94058
227	0x42d0b0ff	104.345695
228	0x4290f129	72.471016
229	0x42276904	41.852554
230	0x4283dd0b	65.931725
231	0x428939e0	68.61304
232	0x42180016	38.000084
233	0x42932fa6	73.59306
234	0x42765144	61.57936
235	0x428fbc57	71.86785
236	0x42eac798	117.38983
237	0x4298c401	76.38282
238	0x42a76904	83.70511
239	0x42e49dfd	114.30857
240	0x429d91c7	78.78472
241	0x42ac34b2	86.10292
242	0x42d26e44	105.21536
243	0x425ffc7d	55.99657
244	0x42bb7d32	93.74452
245	0x42dfbc26	111.86748
246	0x42be6cae	95.212265
247	0x42fb1d86	125.55766
248	0x430faf07	143.6837
249	0x42cda176	102.81535
250	0x4302459c	130.27191
251	0x431463be	148.38962
252	0x42d8611c	108.18967
253	0x432fa15d	175.63033
254	0x436c8596	236.52182
255	0x42b44b94	90.14761

exp_avg_sq f4 [128, 54]
0	0x40c896d3	6.268411
1	0x40c8d33f	6.275787
2	0x4099a222	4.8010416
3	0x3ec98c7c	0.39364994
4	0x00000000	0.0
5	0x3bf8ac2e	0.007588885
6	0x408f1de5	4.472399
7	0x4053e8a3	3.311074
8	0x40551819	3.3295958
9	0x3f4129e1	0.7545453
10	0x3e57fbe8	0.21092188
11	0x3e5a8985	0.21341522
12	0x4062a924	3.5415735
13	0x3e643bb5	0.22288401
14	0x3ead89d5	0.3389422
15	0x3f3eb2da	0.74491656
16	0x3d99b60f	0.07505428
17	0x3f345004	0.70434594
18	0x40ba8eb0	5.829918
19	0x3f6d6e1d	0.92746145
20	0x40668c52	3.6023145
21	0x40af5452	5.479043
22	0x3f643bb5	0.89153606
23	0x403047fc	2.7543936
24	0x40b17a7f	5.546203
25	0x3f427403	0.7595827
26	0x405dcecd	3.465747
27	0x401a5a21	2.411751
28	0x3fe89993	1.8171867
29	0x3fba2f1a	1.4545624
30	0x40035579	2.0520918
31	0x40006190	2.0059547
32	0x40b0e594	5.5280247
33	0x401e83c7	2.476793
34	0x401b766f	2.4291036
35	0x3f8b125e	1.086498
36	0x3f69cb56	0.9132589
37	0x4062f85c	3.5464087
38	0x3f843f9d	1.0331913
39	0x3f38ebd1	0.7223483
40	0x40643bb5	3.5661442
41	0x3f871eb4	1.0556245
42	0x401cb8e7	2.4487855
43	0x401c2cdb	2.4402378
44	0x402a670e	2.66254
45	0x3d7cd5a7	0.061727192
46	0x3e3f7016	0.18695101
47	0x3eb2fdf2	0.3495937
48	0x3fd79d03	1.6844791
49	0x40b24e95	5.5720925
50	0x3f983774	1.1891923
51	0x3f2189a1	0.6310063
52	0x40a628ca	5.192479
53	0x3da2e8c0	0.0795455
54	0x46f08d04	30790.508
55	0x45605bde	3589.7417
56	0x45bc649c	6028.576
57	0x46e08927	28740.576
58	0x00000000	0.0
59	0x452d9638	2777.3887
60	0x46e80e0c	29703.023
61	0x452749b2	2676.606
62	0x45a663a8	5324.457
63	0x462aee96	10939.646
64	0x4511a0c8	2330.0488
65	0x45fbb721	8054.891
66	0x46265cfc	10647.246
67	0x4521e0e9	2590.057
68	0x45f54d0a	7849.63
69	0x46347552	11549.33
70	0x4599d0da	4922.1064
71	0x46217bd3	10334.956
72	0x4629b2df	10860.718
73	0x461356be	9429.686
74	0x470bb242	35762.258
75	0x463632aa	11660.666
76	0x4621e0e9	10360.228
77	0x47166754	38503.33
78	0x4635a53e	11625.311
79	0x46123436	9357.053
80	0x47095ecf	35166.81
81	0x46bc1d2f	24078.592
82	0x46a844e6	21538.45
83	0x46834b41	16805.627
84	0x46c27f06	24895.512
85	0x46b61cfc	23310.492
86	0x468b9c86	17870.262
87	0x46b22d3b	22806.615
88	0x46a024e9	20498.455
89	0x466d5590	15189.391
90	0x469b139c	19849.805
91	0x47132f34	37679.203
92	0x470b1c8d	35612.55
93	0x46b8349d	23578.307
94	0x4721e0e9	41440.91
95	0x471b4e7c	39758.484
96	0x46e72ec2	29591.379
97	0x472eace8	44716.906
98	0x4726ff48	42751.28
99	0x46af65a9	22450.83
100	0x47585d60	55389.375
101	0x4751999a	53657.6
102	0x46ea7be2	30013.941
103	0x477cef64	64751.39
104	0x47708cc4	61580.766
105	0x46cb8a29	26053.08
106	0x476c084d	60424.3
107	0x475ff71f	57335.12
108	0x48318e81	181818.02
109	0x46e95d20	29870.562
110	0x47a46440	84168.5
111	0x4813d3d7	151375.36
112	0x00000000	0.0
113	0x476c5984	60505.516
114	0x48298b34	173612.81
115	0x46bedc67	24430.201
116	0x47a35b79	83638.945
117	0x480a1ed1	141435.27
118	0x471a3764	39479.39
119	0x47c78120	102146.25
120	0x47f32715	124494.164
121	0x46c412e5	25097.447
122	0x47b37b6b	91894.836
123	0x4801c8d2	132899.28
124	0x4706af3c	34479.234
125	0x47bcafcf	96607.62
126	0x4814ef75	152509.83
127	0x47cf0970	106002.875
128	0x4853c5b7	216854.86
129	0x480d8183	144902.05
130	0x47c412e5	100389.79
131	0x485375e9	216535.64
132	0x4812cf59	150333.39
133	0x47d1da8d	107445.1
134	0x4857855e	220693.47
135	0x48502f59	213181.39
136	0x482bba46	175849.1
137	0x485ea3f8	227983.88
138	0x487393a3	249422.55
139	0x485c9536	225876.84
140	0x4887c361	278043.03
141	0x48536d72	216501.78
142	0x483b2d85	191670.08
143	0x486c50b3	241986.8
144	0x488a5c68	283363.25
145	0x48b712d2	374934.56
146	0x48a55efa	338679.8
147	0x48986484	312100.12
148	0x48c412e5	401559.16
149	0x48ae40c4	356870.12
150	0x48817c99	265188.78
151	0x48adc80b	355904.34
152	0x48955bf0	305887.5
153	0x48a45faf	336637.47
154	0x48fc45cd	516654.4
155	0x48d9215c	444682.88
156	0x48d73a74	440787.62
157	0x49192ebb	627435.7
158	0x4905aa51	547493.06
159	0x48b56324	371481.12
160	0x4908b21b	559905.7
161	0x48ecb689	484788.28
162	0x478eaee1	73053.76
163	0x431193e5	145.57771
164	0x47b5907a	92960.95
165	0x47900c32	73752.39
166	0x00000000	0.0
167	0x47b9525b	94884.71
168	0x47854141	68226.51
169	0x44ad283d	1385.2574
170	0x47bd7178	96994.94
171	0x465906a0	13889.656
172	0x46142532	9481.299
173	0x468c52a8	17961.328
174	0x46173f9e	9679.904
175	0x459d4870	5033.0547
176	0x468783c7	17345.889
177	0x465ef3df	14268.968
178	0x462f1dde	11207.467
179	0x46a95460	21674.188
180	0x47b71de5	93755.79
181	0x46b7f45e	23546.184
182	0x47812783	66127.02
183	0x47b26cec	91353.84
184	0x469d4870	20132.219
185	0x47814595	66187.164
186	0x47b32b28	91734.31
187	0x46b08c18	22598.047
188	0x477c91c6	64657.773
189	0x473b83a5	48003.645
190	0x4733e710	46055.062
191	0x4737cd47	47053.277
192	0x47432d59	49965.348
193	0x4730f181	45297.504
194	0x47343f5f	46143.37
195	0x472d0b36	44299.21
196	0x4725d4a5	42452.645
197	0x47279cf2	42908.945
198	0x4722683a	41576.227
199	0x478ccb0a	72086.08
200	0x4676d41e	15797.029
201	0x472c0e88	44046.53
202	0x479d4870	80528.875
203	0x46b02224	22545.07
204	0x472c8b93	44171.574
205	0x4796e59e	77259.234
206	0x46b806e5	23555.447
207	0x470bcbee	35787.93
208	0x47e5d761	117678.76
209	0x469bddf2	19950.973
210	0x4723c744	41927.266
211	0x47f5c13c	125826.47
212	0x46ae6724	22323.57
213	0x471dc8c9	40392.785
214	0x47e6757a	117994.95
215	0x46755ef1	15703.735
216	0x4752994d	53913.3
217	0x465b2d10	14027.266
218	0x471b8dec	39821.92
219	0x47271c91	42780.566
220	0x00000000	0.0
221	0x46eb0424	30082.07
222	0x47399f62	47519.383
223	0x45cc67bb	6540.9663
224	0x471b9f29	39839.16
225	0x4761960a	57750.04
226	0x464fa7f6	13289.99
227	0x474b5545	52053.27
228	0x4750b0e4	53424.89
229	0x460ee046	9144.068
230	0x473e70a2	48752.633
231	0x475f8734	57223.203
232	0x4647fbfc	12798.996
233	0x472f082f	44808.184
234	0x4771bc75	61884.457
235	0x47191c51	39196.316
236	0x477f1934	65305.203
237	0x4769ca31	59850.19
238	0x470ee046	36576.273
239	0x477f44d5	65348.832
240	0x477a59ee	64089.93
241	0x471b0aa5	39690.645
242	0x478adc7a	71096.95
243	0x47ac0244	88068.53
244	0x478650de	68769.734
245	0x47ad20c1	88641.51
246	0x47bc327a	96356.95
247	0x47a0bc51	82296.63
248	0x47ca83a9	103687.32
249	0x47a751e2	85667.766
250	0x4791abca	74583.58
251	0x47bac583	95627.02
252	0x47dc829e	112901.234
253	0x4801281a	132256.4
254	0x47e0f172	115170.89
255	0x47f5af6a	125790.83

exp_avg f4 [128]
0	0xb01d86f9	-5.7308075e-10
1	0xbfdd70a3	-1.7299999
2	0xc19f1597	-19.885542
3	0xc13c1d33	-11.757129
4	0x42276904	41.852554
5	0x4161ac78	14.104607
6	0xc125eeeb	-10.37083
7	0x40b923f7	5.7856402
8	0x411b324e	9.699781
9	0xbb23de1d	-0.0025004216
10	0x3bb1322b	0.005407592
11	0xc1cbca95	-25.473917
12	0x42c7b383	99.85061
13	0x42b5879c	90.76486
14	0x40150ddc	2.328971
15	0xc1e12108	-28.141129
16	0xbb93766a	-0.0045002
17	0xc188bb9c	-17.091606
18	0x42242b7c	41.042465
19	0xbab9dd9d	-0.0014180426
20	0xc0a546f9	-5.1649137
21	0x418927b8	17.144394
22	0xbf80bd8f	-1.0057849
23	0x40a5b68d	5.178534
24	0xc1ab10c4	-21.383186
25	0x41988bd9	19.068285
26	0x4076ae78	3.8543987
27	0xc160f1c6	-14.059027
28	0x419553a6	18.665844
29	0x42534b43	52.823498
30	0xc0e0454a	-7.008458
31	0xc26efce2	-59.746956
32	0x41a04c1e	20.037167
33	0xc060e579	-3.514006
34	0x414a4e0c	12.644054
35	0x40f06ecb	7.5135245
36	0x400434ab	2.0657146
37	0x41fe1544	31.760384
38	0x00000004	6e-45
39	0x3f911b46	1.1336448
40	0xbd75dee4	-0.06002702
41	0xbcca0136	-0.02465878
42	0x413371cb	11.2152815
43	0x3bec2ac2	0.0072072456
44	0x411d07d9	9.814416
45	0xbfeb6780	-1.8390961
46	0xc18d4c65	-17.662302
47	0x00000004	6e-45
48	0x42058afa	33.38572
49	0x3f7bb387	0.9832081
50	0x00000000	0.0
51	0x425ec821	55.69544
52	0xbbadb98f	-0.0053016613
53	0xc289391b	-68.611534
54	0xc26d1301	-59.26856
55	0xbd04c14f	-0.032410916
56	0x41d96506	27.174328
57	0xc14bc6d9	-12.736047
58	0x40195ca8	2.3962803
59	0x40d64658	6.696087
60	0xc026c210	-2.6055946
61	0xc03399a4	-2.8062525
62	0x41083baf	8.514571
63	0xc0cbaabe	-6.3645926
64	0xb72eee18	-1.0426644e-05
65	0x400a2888	2.1587238
66	0x403acfa6	2.9189239
67	0xbd00c4e0	-0.031437755
68	0x3c848f0b	0.01618149
69	0x40195878	2.3960247
70	0xb994f2d9	-0.00028409695
71	0x3ec711c5	0.38880745
72	0x00000004	6e-45
73	0x406ffa6e	3.74966
74	0x42cdc1be	102.8784
75	0x421aa358	38.659515
76	0xc14b82a8	-12.7193985
77	0x41310350	11.063309
78	0xc11502fd	-9.31323
79	0xc0d0226b	-6.5042014
80	0xc154d204	-13.301273
81	0xbce4b4ea	-0.027918298
82	0x41257add	10.342496
83	0x41b1d9b4	22.2313
84	0x3bd5c6a1	0.0065239226
85	0x419ecd48	19.850235
86	0xc1b2c901	-22.348146
87	0xc258119a	-54.01719
88	0x42c6e834	99.45352
89	0x80000004	-6e-45
90	0x41975d75	18.920633
91	0x3fae21a4	1.3604016
92	0x00000004	6e-45
93	0xc06ea120	-3.7285843
94	0x00000004	6e-45
95	0x37e4b704	2.7264941e-05
96	0xc1aaf531	-21.369722
97	0xc240f142	-48.235603
98	0xbeda298c	-0.42609823
99	0x406fd49d	3.747352
100	0x419d6fb1	19.679537
101	0xbf03bdf5	-0.51461726
102	0xc1cf5282	-25.915287
103	0x41cd630a	25.673359
104	0xbe52325e	-0.20527026
105	0xc0d1703c	-6.5449505
106	0xc1440997	-12.252341
107	0xba4ff4ae	-0.00079328835
108	0xc18511a8	-16.633621
109	0xc206e934	-33.727737
110	0x00000000	0.0
111	0xc20ca138	-35.15744
112	0xc081a359	-4.05119
113	0xba458880	-0.00075352937
114	0x80000004	-6e-45
115	0xc1996a66	-19.176952
116	0xbba7cd1c	-0.0051208865
117	0xc0f31d95	-7.597361
118	0x00000004	6e-45
119	0x42793e1c	62.310654
120	0x41a47096	20.554974
121	0x420d1ca2	35.27796
122	0x404935b5	3.143903
123	0xbfe80b84	-1.8128514
124	0xc080135f	-4.0023646
125	0x00000000	0.0
126	0x3fadcd57	1.357829
127	0x423bfd9d	46.99767

exp_avg_sq f4 [128]
0	0x3e643bb5	0.22288401
1	0x4521e0e9	2590.057
2	0x46c412e5	25097.447
3	0x459d4870	5033.0547
4	0x460ee046	9144.068
5	0x468228ed	16660.463
6	0x4610756d	9245.356
7	0x4646b331	12716.798
8	0x45b1bb5c	5687.42
9	0x440b5c2d	557.44025
10	0x45d55742	6826.907
11	0x45f002ae	7680.335
12	0x4720ac78	41132.47
13	0x4667aa25	14826.536
14	0x46bed1a6	24424.824
15	0x4621026d	10304.606
16	0x4330ad36	176.6766
17	0x46a94958	21668.672
18	0x4670c9ba	15410.432
19	0x44d3245c	1689.1362
20	0x460c3555	8973.333
21	0x45b54262	5800.298
22	0x458ed054	4570.041
23	0x45e31217	7266.261
24	0x46752cae	15691.17
25	0x465963cb	13912.948
26	0x4588e512	4380.634
27	0x46801469	16394.205
28	0x45d4f788	6814.9414
29	0x46d0bd4f	26718.654
30	0x4524d8cb	2637.5496
31	0x46c34f7e	24999.746
32	0x46915d4c	18606.648
33	0x46408cad	12323.169
34	0x45dbd48c	7034.5684
35	0x4798729f	78053.24
36	0x458d5c1a	4523.5127
37	0x469afa85	19837.26
38	0x000001f4	7e-43
39	0x465ca19f	14120.405
40	0x451200b9	2336.0452
41	0x4462ed90	907.7119
42	0x45fc3e06	8071.753
43	0x44065ec5	537.4808
44	0x468c34de	17946.434
45	0x45ef96a6	7666.831
46	0x46588f69	13859.853
47	0x000001f4	7e-43
48	0x4689d3c0	17641.875
49	0x4598ea67	4893.3003
50	0x00000000	0.0
51	0x468b1317	17801.545
52	0x442e5ccc	697.44995
53	0x471fdd8f	40925.56
54	0x45e28398	7248.449
55	0x45935ff4	4715.994
56	0x45c4e4b9	6300.5903
57	0x461e83c8	10144.945
58	0x45d3ad22	6773.6416
59	0x46ec9de1	30286.94
60	0x45452abe	3154.6714
61	0x457c4a7f	4036.656
62	0x467b530a	16084.76
63	0x462fdd9d	11255.403
64	0x449641d9	1202.0577
65	0x45e0848a	7184.5674
66	0x45d9bb41	6967.4067
67	0x450cf1bf	2255.1091
68	0x44e4d124	1830.5356
69	0x45ad2a96	5541.323
70	0x42872d08	67.58795
71	0x458cd718	4506.8867
72	0x1ae50d6f	9.4733883e-23
73	0x457ac875	4012.5286
74	0x4746a3af	50851.684
75	0x46b6861a	23363.05
76	0x45c31165	6242.1743
77	0x45d03f7c	6663.9355
78	0x46fdd00c	32488.023
79	0x44399a36	742.40955
80	0x4578d29d	3981.1633
81	0x4378c4f4	248.76935
82	0x4609646c	8793.105
83	0x4620f1b4	10300.426
84	0x44499216	806.2826
85	0x46c2a7ac	24915.836
86	0x45fdbbe5	8119.487
87	0x47e19311	115494.13
88	0x46c4a1fc	25168.992
89	0x0246de6a	1.4610572e-37
90	0x461118b2	9286.174
91	0x4642a039	12456.056
92	0x13ca44bf	5.1059758e-27
93	0x44a66637	1331.1942
94	0x000001f4	7e-43
95	0x441afd71	619.96
96	0x4667fb91	14846.892
97	0x46877236	17337.105
98	0x44394760	741.11523
99	0x461292dc	9380.715
100	0x45ea15e0	7490.7344
101	0x45b0fd8f	5663.695
102	0x470016e0	32790.875
103	0x46009af4	8230.738
104	0x45d6eff1	6877.9927
105	0x459ea19d	5076.2017
106	0x46301879	11270.118
107	0x43c15aad	386.7084
108	0x459d8a5b	5041.2944
109	0x45bcb7f0	6038.992
110	0x00000000	0.0
111	0x45bd5be5	6059.487
112	0x44b966a0	1483.207
113	0x44b096e9	1412.716
114	0x40aa4f19	5.3221555
115	0x46bd9a22	24269.066
116	0x448833ac	1089.6147
117	0x461ec060	10160.094
118	0x000001f4	7e-43
119	0x470d9874	36248.453
120	0x46aa5f5e	21807.684
121	0x45fde135	8124.151
122	0x44ce5b72	1650.8577
123	0x460a0cda	8835.213
124	0x46333741	11469.813
125	0x00000000	0.0
126	0x45f3a15e	7796.171
127	0x46006917	8218.272
